Additional/Mobile/HalfRes/Bread_onnx_halfres_optimized.onnx (onnx, 694249 bytes, 320 tensors)

reorder_token_225 f4 [48, 1, 3, 3]
-0.15379815 0.035901245 -0.2559018 -0.58053285 -0.03129123 0.42924902 0.041095763 -0.28067553
0.9666231 -0.3484928 -0.48152268 -0.3186713 1.0017004 0.70993304 0.34674445 -1.530371
0.5325094 -0.40771464 -0.88022166 -0.32659915 0.10580935 0.13345964 0.8265708 -0.014135012
0.40740463 1.0384274 -0.15183367 0.25835827 -0.118119776 1.253323 0.31131503 -0.4018442
-0.26787755 0.07399506 -0.11279442 -0.2875055 -0.101389006 0.24787675 -0.061410725 -0.3260325
-0.19263993 -0.5519807 0.20857088 0.40435505 -0.22418968 0.24920711 -0.23756038 -0.24098517
0.55047727 0.73331624 0.87478185 0.28821215 -0.25018921 -0.81239396 0.17746446 0.16592498
1.0927206 0.59561956 0.13769424 0.18057318 -0.372266 -0.45386288 -0.47570756 0.0791902
0.11693992 0.35242325 -0.7549256 0.084468074 0.11575686 0.27440014 -0.26755977 -0.4456009
0.21193857 0.61850137 1.0666656 0.06983146 0.08363257 -0.0991409 -0.009237521 -0.31929612
-0.4670428 0.6644597 1.0902317 -0.28115225 -0.3563428 0.40797853 -0.081352696 -0.25567347
0.168898 1.1773767 0.019290334 0.17333174 0.99596983 -0.1437707 0.7455943 1.2629006
-0.50959504 -0.06430486 0.014150329 -0.13212125 -0.21063837 0.16905735 0.059355807 -0.14329699
1.4655294 0.85942996 1.021147 -0.2587982 -0.24491322 0.13312308 0.51495886 -0.33419946
0.708513 -0.91970414 0.8403499 -1.2119887 -0.026168622 -0.2876424 -0.19675733 0.2776268
-0.10513522 0.28931242 0.112505816 -0.038727764 0.17387575 -0.39568114 0.091532476 -0.13469331
-0.2667913 -0.18014222 0.5473864 -0.061293073 -0.38071135 0.5695605 0.40847492 0.050128426
0.31705537 -0.06893935 -0.400573 -1.1351873 -0.30170313 -0.43452072 0.8257015 -0.22283545
-0.3503167 0.7092465 0.044546336 -0.28390467 0.62454057 -0.06830983 -0.12481836 0.1422022
0.14027946 0.7144372 0.08877458 -0.06005113 1.0393411 0.48644555 0.40390888 0.29847828
-0.10941591 0.15120767 -0.0038031887 -0.074938945 -0.038916785 0.19016814 0.2204828 -0.77072525
-0.07837181 0.7155278 -0.18222286 -0.6424233 0.31950587 -0.5067892 -0.16286884 0.42681468
0.33246592 0.8010553 0.987102 0.3401742 -0.110238895 0.3633394 0.48917067 0.26326695
0.26286379 0.7580246 0.2202909 -0.20911096 0.41524756 0.49793857 0.1973003 0.3402073
-0.26830423 -0.0070324545 0.11258234 -0.7280447 0.08035438 -0.28076473 0.039623428 -0.10747444
-0.13160023 0.07656949 -0.25683656 -0.7793988 0.10510258 0.03883201 -0.56271684 0.69180757
-0.37202635 0.14944081 0.25861013 -0.06850251 -0.053948503 -0.49517828 -0.035319682 -0.19493914
0.37985662 -0.1550573 -0.61593014 -1.1400479 -0.036626294 -0.09835482 0.061318755 -0.61350256
0.05885376 0.5276784 -0.21680644 -0.35628986 -0.39579132 0.35627058 0.15541926 -0.1274908
-0.248056 -0.6833631 -0.11930983 -0.7161204 0.37557614 0.30928147 -1.0773965 0.29438823
-0.5445606 0.15609987 -0.20703381 0.2804948 -0.34616232 -0.9057137 -1.3244033 -0.32956553
0.028357336 -0.4695909 -0.41491023 -0.27444395 0.78909683 -0.35926485 0.23403363 0.15487267
00000000: 437d 1dbe 2f0d 133d 9005 83be cd9d 14bf
00000010: 3c2b 00bd 87c6 db3e 0854 283d b4b4 8fbe
00000020: 9d74 773f a66d b2be 248a f6be e228 a3be
00000030: b837 803f 2cbe 353f 7d88 b13e 32e3 c3bf
00000040: 8952 083f f9bf d0be 3556 61bf 0138 a7be
00000050: 93b2 d83d a5a9 083e 259a 533f 8a96 67bc
00000060: 5797 d03e 30eb 843f 497a 1bbe 8947 843e
00000070: c8e8 f1bd e36c a03f af64 9f3e 86be cdbe
00000080: 3f27 89be b98a 973d c300 e7bd ec33 93be
00000090: 0aa5 cfbd 67d3 7d3e d089 7bbd bbed a6be
000000a0: 6743 45be 9b4e 0dbf 9b93 553e a007 cf3e
000000b0: fb91 65be 2630 7f3e 0743 73be d1c4 76be
000000c0: 14ec 0c3f 9dba 3b3f b4f1 5f3f 8b90 933e
000000d0: cd18 80be 0df9 4fbf 3eb9 353e 3de8 293e
000000e0: 45de 8b3f 867a 183f b8ff 0c3e 2de8 383e
000000f0: a699 bebe b760 e8be f18f f3be 792e a23d
00000100: 327e ef3d d270 b43e ce42 41bf 99fd ac3d
00000110: ef11 ed3d 2d7e 8c3e 98fd 88be cd25 e4be
00000120: 6d06 593e 1b56 1e3f 8088 883f cc03 8f3d
00000130: 8e47 ab3d 620a cbbd f958 17bc c87a a3be
00000140: 3c20 efbe 081a 2a3f b68c 8b3f 30f3 8fbe
00000150: 9072 b6be 90e2 d03e 3e9c a6bd a2e7 82be
00000160: 99f3 2c3e 48b4 963f c306 9e3c e07d 313e
00000170: e1f7 7e3f a038 13be 45df 3e3f baa6 a13f
00000180: d274 02bf 44b2 83bd c8d6 673c cb4a 07be
00000190: 96b1 57be 5f1d 2d3e 131f 733d 72bc 12be
000001a0: 7896 bb3f 9a03 5c3f f2b4 823f 3381 84be
000001b0: 88ca 7abe 6b51 083e 58d4 033f 311c abbe
000001c0: 1c61 353f bb71 6bbf 2c21 573f 7222 9bbf
000001d0: 945f d6bc dd45 93be c17a 49be 1a25 8e3e
000001e0: 2251 d7bd c220 943e 7369 e63d 01a1 1ebd
000001f0: 7c0c 323e b896 cabe 6175 bb3d 0bed 09be
00000200: df98 88be 3477 38be 8421 0c3f 720e 7bbd
00000210: 99ec c2be b8ce 113f a023 d13e 7753 4d3d
00000220: 1555 a23e 1330 8dbd e717 cdbe d14d 91bf
00000230: d578 9abe 8079 debe 2c61 533f fa2e 64be
00000240: b65c b3be 2e91 353f 3876 363d f45b 91be
00000250: e4e1 1f3f 06e6 8bbd c5a0 ffbd 749d 113e
00000260: 6ba5 0f3e 5be5 363f 72cf b53d 2cf8 75bd
00000270: 2109 853f 640f f93e 25cd ce3e 25d2 983e
00000280: 7315 e0bd 2fd6 1a3e eb3e 79bb 9779 99bd
00000290: 3567 1fbd 70bb 423e 3ec6 613e 404e 45bf
000002a0: 6681 a0bd d42c 373f a198 3abe da75 24bf
000002b0: 4696 a33e f0bc 01bf 17c7 26be 7487 da3e
000002c0: f938 aa3e f611 4d3f b7b2 7c3f 502b ae3e
000002d0: eec4 e1bd 9f07 ba3e 9474 fa3e edca 863e
000002e0: 1596 863e e60d 423f f093 613e 2f21 56be
000002f0: 549b d43e cef1 fe3e 1709 4a3e a72f ae3e
00000300: 2c5f 89be 8170 e6bb 9291 e63d 2361 3abf
00000310: d690 a43d 65c0 8fbe 2d4c 223d 8f1b dcbd
00000320: 36c2 06be 77d0 9c3d 1580 83be ae86 47bf
00000330: 0540 d73d 500e 1f3d 360e 10bf 4d1a 313f
00000340: 3d7a bebe 0307 193e 8c68 843e 0b4b 8cbd
00000350: 1bf9 5cbd 0288 fdbe 5fab 10bd 209e 47be
00000360: 917c c23e 57c7 1ebe 99ad 1dbf 17ed 91bf
00000370: 7405 16bd 406e c9bd 6029 7b3d 810e 1dbf
00000380: a410 713d ee15 073f 8202 5ebe a06b b6be
00000390: 29a5 cabe 1969 b63e 3a26 1f3e f38c 02be
000003a0: 6402 7ebe e2f0 2ebf b658 f4bd ab53 37bf
000003b0: 844b c03e 245a 9e3e 21e8 89bf 0eba 963e
000003c0: 5368 0bbf a5d8 1f3e ac00 54be 049d 8f3e
000003d0: 303c b1be dadc 67bf 0c86 a9bf d0bc a8be
000003e0: a54d e83c 386e f0be 1d6f d4be eb83 8cbe
000003f0: 4002 4a3f 90f1 b7be 83a6 6f3e f196 1e3e

reorder_token_329 f4 [8]
-0.6633817 0.8708364 -0.80396956 0.74570036 0.0 0.0 0.0 0.0
00000000: 62d3 29bf 22ef 5e3f f3d0 4dbf 38e6 3e3f
00000010: 0000 0000 0000 0000 0000 0000 0000 0000

ian_model.model_ianet.in_conv.1.conv.5.running_mean f4 [12]
-0.211136 0.62444025 0.41776708 -0.041249737 0.79083675 -0.22552998 1.2745682 0.225136
0.23405342 1.5367435 0.056275256 -0.26688224
00000000: 0934 58be 51db 1f3f 91e5 d53e 7cf5 28bd
00000010: 4774 4a3f 55f1 66be 0d25 a33f 0d8a 663e
00000020: b3ab 6f3e 03b4 c43f e280 663d caa4 88be

ian_model.model_ianet.in_conv.1.conv.5.running_var f4 [12]
1.0951796 4.1643987 0.835998 0.061152253 5.1875734 0.07753158 2.7195709 0.20253812
0.14939743 8.394482 0.098166205 1.1133318
00000000: d82e 8c3f c142 8540 f703 563f c97a 7a3d
00000010: 9a00 a640 e1c8 9e3d 730d 2e40 2766 4f3e
00000020: a4fb 183e cc4f 0641 5d0b c93d a881 8e3f

ian_model.model_ianet.in_conv.1.conv.5.weight f4 [12]
0.9295423 0.8913051 1.1383507 1.0663444 1.0650692 0.90992355 0.9832732 1.0201682
1.2223215 1.0324786 1.1046004 1.0446184
00000000: 7cf6 6d3f 922c 643f 7ab5 913f f97d 883f
00000010: 3054 883f c0f0 683f cbb7 7b3f df94 823f
00000020: 0875 9c3f 4228 843f 8c63 8d3f 0eb6 853f

ian_model.model_ianet.in_conv.1.conv.5.bias f4 [12]
-0.0847216 -0.29275516 0.041457623 0.18580905 -0.05455014 -0.38824776 0.33268195 0.19697016
0.07617001 0.07182739 -0.119789355 -0.255524
00000000: 8582 adbd 01e4 95be 78cf 293d ba44 3e3e
00000010: f86f 5fbd 69c8 c6be 4a55 aa3e 8cb2 493e
00000020: 06ff 9b3d 3d1a 933d 1f54 f5bd 0bd4 82be

ian_model.model_ianet.down1.0.conv.3.weight f4 [6, 1, 3, 3]
-1.0451359 -0.04053398 -0.2640641 0.96059567 -0.031134056 0.05120343 -0.2549359 -0.27734423
-0.36413 0.039425403 0.5603868 0.38723168 0.4886347 -0.28781155 0.04294674 0.89297897
0.45487228 -0.117469534 0.6787832 0.56296426 -0.3684574 0.21087603 -0.5210257 0.010685931
-0.56149626 0.2261809 -0.05545629 -0.14353275 -0.3534979 -0.16991046 0.3900945 -0.026464894
0.416301 0.41988006 1.5230817 -0.3457811 -0.0965345 -0.36575204 -0.28778803 0.51850975
0.17150237 0.49291342 0.49727532 0.53922486 0.9217294 -0.33385482 0.46493542 0.35958633
-0.18952687 0.667907 -0.8097627 -0.96464455 0.2637482 -0.3571209
00000000: 03c7 85bf f506 26bd 6933 87be 99e9 753f
00000010: d90c ffbc b0ba 513d f586 82be 1000 8ebe
00000020: 3f6f babe 887c 213d 8275 0f3f 3b43 c63e
00000030: 542e fa3e 095c 93be ece8 2f3d 459a 643f
00000040: 05e5 e83e de93 f0bd bcc4 2d3f 6d1e 103f
00000050: 73a6 bcbe e3ef 573e f161 05bf 0b14 2f3c
00000060: 38be 0fbf f79b 673e 2226 63bd 40fa 12be
00000070: adfd b4be 02fd 2dbe 77ba c73e e8cc d8bc
00000080: 6825 d53e 85fa d63e 57f4 c23f 380a b1be
00000090: e1b3 c5bd da43 bbbe f458 93be 0ebd 043f
000000a0: 519e 2f3e 265f fc3e df9a fe3e a40a 0a3f
000000b0: 75f6 6b3f 05ef aabe 040c ee3e b31b b83e
000000c0: 5513 42be f4fb 2a3f 9c4c 4fbf f2f2 76bf
000000d0: 010a 873e 8dd8 b6be

ian_model.model_ianet.down1.0.conv.5.running_mean f4 [6]
0.008255423 2.8416376 0.3119658 1.1243787 1.7419646 0.118226446
00000000: c141 073c 64dd 3540 fbb9 9f3e a4eb 8f3f
00000010: b2f8 de3f b520 f23d

ian_model.model_ianet.down1.0.conv.5.running_var f4 [6]
0.4949733 12.274481 0.37931716 5.332289 6.410911 0.3636186
00000000: 246d fd3e 4664 4441 dc35 c23e 1da2 aa40
00000010: 2f26 cd40 382c ba3e

ian_model.model_ianet.down1.0.conv.5.weight f4 [6]
1.0571672 1.0780082 0.98772585 1.0008168 1.14917 0.944362
00000000: 4151 873f 2cfc 893f 9adb 7c3f c41a 803f
00000010: 0118 933f b5c1 713f

ian_model.model_ianet.down1.0.conv.5.bias f4 [6]
0.21209188 -0.23403274 0.041017488 0.06261323 -0.035501085 -0.006506059
00000000: 9d2e 593e 47a6 6fbe f401 283d 5d3b 803d
00000010: 9669 11bd c730 d5bb

reorder_token_126 f4 [8, 16, 1, 1]
0.335972 0.49449018 0.37719387 0.0 0.0 0.0 0.0 0.0
0.7558774 0.029388072 -0.49540544 0.0 0.0 0.0 0.0 0.0
0.04331498 0.19021825 -0.073601685 0.0 0.0 0.0 0.0 0.0
-0.55865544 -0.25969455 0.32764143 0.0 0.0 0.0 0.0 0.0
0.12301827 0.124379985 0.16959463 0.0 0.0 0.0 0.0 0.0
-0.34393916 0.123135775 -0.07962906 0.0 0.0 0.0 0.0 0.0
-0.5415569 0.048608907 -0.18183428 0.0 0.0 0.0 0.0 0.0
0.0048981374 0.016392754 -0.20667374 0.0 0.0 0.0 0.0 0.0
-0.23051602 -0.08484337 0.27114612 0.0 0.0 0.0 0.0 0.0
-0.08435291 -0.12389815 -0.060466222 0.0 0.0 0.0 0.0 0.0
0.13077267 0.10651449 0.3607111 0.0 0.0 0.0 0.0 0.0
0.15413387 0.442898 -0.015787931 0.0 0.0 0.0 0.0 0.0
0.0 0.0 0.0 0.0 0.0 0.0 0.0 0.0
0.0 0.0 0.0 0.0 0.0 0.0 0.0 0.0
0.0 0.0 0.0 0.0 0.0 0.0 0.0 0.0
0.0 0.0 0.0 0.0 0.0 0.0 0.0 0.0
00000000: 8604 ac3e d12d fd3e 8e1f c13e 0000 0000
00000010: 0000 0000 0000 0000 0000 0000 0000 0000
00000020: 2e81 413f 41bf f03c c8a5 fdbe 0000 0000
00000030: 0000 0000 0000 0000 0000 0000 0000 0000
00000040: 0c6b 313d 93c8 423e 7bbc 96bd 0000 0000
00000050: 0000 0000 0000 0000 0000 0000 0000 0000
00000060: 0b04 0fbf aff6 84be 9ec0 a73e 0000 0000
00000070: 0000 0000 0000 0000 0000 0000 0000 0000
00000080: 01f1 fb3d efba fe3d 37aa 2d3e 0000 0000
00000090: 0000 0000 0000 0000 0000 0000 0000 0000
000000a0: cb18 b0be 9c2e fc3d 9014 a3bd 0000 0000
000000b0: 0000 0000 0000 0000 0000 0000 0000 0000
000000c0: 79a3 0abf 221a 473d c432 3abe 0000 0000
000000d0: 0000 0000 0000 0000 0000 0000 0000 0000
000000e0: 8e80 a03b 194a 863c 48a2 53be 0000 0000
000000f0: 0000 0000 0000 0000 0000 0000 0000 0000
00000100: 640c 6cbe 5cc2 adbd aad3 8a3e 0000 0000
00000110: 0000 0000 0000 0000 0000 0000 0000 0000
00000120: 38c1 acbd 50be fdbd 6eab 77bd 0000 0000
00000130: 0000 0000 0000 0000 0000 0000 0000 0000
00000140: 45e9 053e 4524 da3d 20af b83e 0000 0000
00000150: 0000 0000 0000 0000 0000 0000 0000 0000
00000160: 45d5 1d3e 87c3 e23e b155 81bc 0000 0000
00000170: 0000 0000 0000 0000 0000 0000 0000 0000
00000180: 0000 0000 0000 0000 0000 0000 0000 0000
00000190: 0000 0000 0000 0000 0000 0000 0000 0000
000001a0: 0000 0000 0000 0000 0000 0000 0000 0000
000001b0: 0000 0000 0000 0000 0000 0000 0000 0000
000001c0: 0000 0000 0000 0000 0000 0000 0000 0000
000001d0: 0000 0000 0000 0000 0000 0000 0000 0000
000001e0: 0000 0000 0000 0000 0000 0000 0000 0000
000001f0: 0000 0000 0000 0000 0000 0000 0000 0000

ian_model.model_ianet.down1.1.conv.5.running_mean f4 [12]
-0.23378715 0.49473763 -0.14861459 -0.37937316 0.9355284 -1.9132128 -0.97645026 -0.32973826
1.8063871 1.1320347 1.8474385 -1.2196871
00000000: e665 6fbe 404e fd3e 6c2e 18be 333d c2be
00000010: ca7e 6f3f 28e4 f4bf a5f8 79bf 74d3 a8be
00000020: b137 e73f 83e6 903f dd78 ec3f b51e 9cbf

ian_model.model_ianet.down1.1.conv.5.running_var f4 [12]
1.2006148 3.1077366 0.74298507 0.5734133 0.60480046 1.5522664 7.527474 3.243526
4.9241633 3.4442236 2.8460717 1.4025071
00000000: bfad 993f 28e5 4640 4534 3e3f 37cb 123f
00000010: 34d4 1a3f aab0 c63f 11e1 f040 ee95 4f40
00000020: bf92 9d40 296e 5c40 0a26 3640 5a85 b33f

ian_model.model_ianet.down1.1.conv.5.weight f4 [12]
1.0218694 0.9646693 0.8780334 0.9885095 0.9373154 1.0882283 0.98131895 0.9373557
1.1770804 1.1476593 0.8399469 1.0694102
00000000: 9ecc 823f 91f4 763f ccc6 603f f50e 7d3f
00000010: e7f3 6f3f 114b 8b3f b837 7b3f 8bf6 6f3f
00000020: 92aa 963f 80e6 923f c306 573f 6fe2 883f

ian_model.model_ianet.down1.1.conv.5.bias f4 [12]
0.07885386 -0.50714546 0.17970586 0.63668865 0.0010391707 0.15225783 0.118698664 -0.20684953
0.62101287 0.14459732 0.055665493 -0.39413738
00000000: 227e a13d 49d4 01bf d004 383e 07fe 223f
00000010: c834 883a 7ae9 1b3e 4918 f33d 5dd0 53be
00000020: b3fa 1e3f 5211 143e 8001 643d 60cc c9be

reorder_token_189 f4 [48, 1, 3, 3]
0.14137673 0.22581936 0.38835773 -1.2072734 0.5228103 -0.44798514 -0.21462993 0.25832418
-0.19781092 -0.7053716 -0.11208791 -0.2610756 -0.120613396 0.6259061 0.5889612 -0.0028916325
-0.82602274 -0.6423046 -0.1614295 -0.7117895 -0.43339702 -0.04132687 0.42761624 -0.07231727
0.04011481 -0.5899368 0.7389038 -0.29682186 0.2090112 -0.18624304 -0.2003206 -0.0059673204
-0.29579267 0.00088703557 -0.17616685 0.0116018 0.23007204 -0.5918511 0.028692186 -0.9916542
-0.2638362 -0.13463461 0.67319995 0.2129213 -0.35766998 -0.52711886 -0.11162735 -0.9868948
0.9011005 -0.28988227 -0.17499568 -0.17264695 0.70351905 0.04809346 -0.5546481 -0.69254154
0.06682822 -0.10428704 1.0051787 0.90788734 0.37424672 0.2077213 0.12931514 0.3678891
0.45816445 -0.26132208 0.2161743 0.19070227 -0.15890704 0.47131786 0.020770282 -0.39722463
0.2399057 0.3279176 -0.39324152 -0.21309303 0.40965468 0.2575614 0.5404907 0.59853
0.61908066 -0.25597003 0.24972428 0.9464093 -0.2956058 0.1343166 -0.17200041 0.24736606
-0.051542897 -0.1994848 0.1302966 -0.25156286 0.48146784 0.100265786 -0.44000813 0.3374262
0.35020673 0.40502453 -0.064557895 0.67661655 -1.3239237 0.2299243 -0.26071683 -1.1937065
0.26678246 -0.41532344 0.025740927 -0.03945201 -0.7228204 -0.35696813 0.2656404 0.50655794
-0.38701606 0.5304935 -0.6060504 -0.1427474 -0.19908202 -0.13033618 -0.84404874 0.6087518
0.100943506 -0.13874857 -1.265656 0.06716015 0.22926559 -0.46392268 -0.41971192 -0.14768872
-0.11573845 -1.0233232 -0.570741 0.54252857 -0.00381209 1.2834116 0.08801657 0.33585024
-0.4040194 0.47460192 -0.10562089 -0.1377965 0.26560026 -0.22923861 -1.5317768 0.9929101
0.2413056 -0.37331593 0.7294661 0.33135167 -0.42953172 0.053083424 0.2508228 0.008372727
-0.5711181 -0.15348643 -0.37538028 0.54129815 -0.25285947 0.35210124 0.49300057 0.3787072
0.34771326 0.3574374 0.6356962 0.56185037 -0.04788028 -0.82242095 0.18012954 0.111186
0.15426376 0.010408165 0.30424738 0.124899864 -0.1768796 -0.28319088 0.47723186 -0.21503174
-0.0012670954 0.3073166 0.29664937 -0.40112105 0.24551293 0.57983506 0.695277 -0.06295256
-0.5818812 0.59097254 0.5409292 0.74782634 -0.6301368 -0.6481731 0.3255081 -0.87784296
-0.4118741 -0.8001171 -0.016006825 0.5016099 -0.01010044 0.07597921 0.59376955 -0.32722104
-0.68759954 0.17070816 0.50248206 0.03465995 -0.57057726 -0.24836402 0.07944004 -0.28915462
-0.609835 0.8749139 0.0892157 -0.34237003 -0.1554037 0.078876644 0.1381732 -1.1504222
-0.24399391 -0.19601579 -0.116239585 -0.16393648 0.55463195 0.39832214 -0.11307495 -0.38611063
1.115273 -0.58356255 -0.26274872 -0.33708325 0.12506464 -0.10429409 -0.18289238 0.21637928
0.08127471 0.011314744 -0.03698418 -0.3873478 -0.12424702 0.85007125 -0.73485315 -0.48823875
0.23727237 0.19506592 -0.11099013 -0.63782746 -0.6760217 0.79518294 -1.0564293 -0.5397871
0.5115006 -0.64180666 -0.18698321 -0.46718055 0.019987876 -0.47334066 -0.25468212 -0.0035161276
00000000: 10c5 103e 313d 673e d3d6 c63e ef87 9abf
00000010: e5d6 053f 4f5e e5be f3c7 5bbe 1143 843e
00000020: f28e 4abe 3c93 34bf 598e e5bd b3ab 85be
00000030: 2804 f7bd 623b 203f 29c6 163f 8b81 3dbb
00000040: 3a76 53bf 136e 24bf c64d 25be d637 36bf
00000050: 37e6 ddbe 5d46 29bd 84f0 da3e 141b 94bd
00000060: 6d4f 243d 1906 17bf cd28 3d3f 09f9 97be
00000070: 0807 563e 7fb6 3ebe d820 4dbe 8389 c3bb
00000080: 2372 97be f387 683a 1565 34be 7a15 3e3c
00000090: 0198 6b3e 8e83 17bf e00b eb3c 0ddd 7dbf
000000a0: 8a15 87be a8dd 09be d556 2c3f 0b08 5a3e
000000b0: 8520 b7be 43f1 06bf e19c e4bd 23a5 7cbf
000000c0: 86ae 663f 736b 94be 1132 33be 5dca 30be
000000d0: d319 343f a6fd 443d 6bfd 0dbf 674a 31bf
000000e0: 3cdd 883d 7294 d5bd b2a9 803f 4e6b 683f
000000f0: 449d bf3e e4b4 543e 306b 043e f65b bc3e
00000100: 8894 ea3e 02cc 85be cc5c 5d3e 7547 433e
00000110: 87b8 22be 9350 f13e 7026 aa3c 0761 cbbe
00000120: d7a9 753e d1e4 a73e f456 c9be 0f35 5abe
00000130: 42be d13e 16df 833e 995d 0a3f 4339 193f
00000140: 127c 1e3f 810e 83be b9b7 7f3e e147 723f
00000150: a559 97be 4a8a 093e e020 30be 874d 7d3e
00000160: a51e 53bd be45 4cbe 796c 053e d9cc 80be
00000170: f482 f63e 2658 cd3d bf48 e1be 20c3 ac3e
00000180: 4c4e b33e 605f cf3e ee36 84bd be36 2d3f
00000190: 5576 a9bf 4771 6b3e ad7c 85be 60cb 98bf
000001a0: b697 883e 46a5 d4be a3de d23c 6e98 21bd
000001b0: c20a 39bf 87c4 b6be 0502 883e c8ad 013f
000001c0: f826 c6be 6cce 073f 1e26 1bbf 602c 12be
000001d0: 28dc 4bbe d976 05be 9413 58bf 28d7 1b3f
000001e0: 78bb ce3d 1b14 0ebe 0401 a2bf 438b 893d
000001f0: 99c4 6a3e 4687 edbe 7be4 d6be b63b 17be
00000200: 4808 edbd 41fc 82bf 151c 12bf 27e3 0a3f
00000210: 42d4 79bb d546 a43f 0842 b43d 90f4 ab3e
00000220: a1db cebe 06ff f23e c44f d8bd 871a 0dbe
00000230: c2fc 873e 87bd 6abe 4311 c4bf 5b2f 7e3f
00000240: d118 773e 4423 bfbe 4abe 3a3f eda6 a93e
00000250: 95eb dbbe 016e 593d d96b 803e c32d 093c
00000260: cc34 12bf 8c2b 1dbe d831 c0be 8492 0a3f
00000270: cc76 81be 9d46 b43e 926a fc3e e9e5 c13e
00000280: 7907 b23e 0902 b73e fcbc 223f 6dd5 0f3f
00000290: 1d1e 44bd 2e8a 52bf e173 383e 7cb5 e33d
000002a0: 52f7 1d3e 0287 2a3c 50c6 9b3e 80cb ff3d
000002b0: ed1f 35be 65fe 90be bc57 f43e 4831 5cbe
000002c0: ab14 a6ba 9a58 9d3e 6de2 973e bd5f cdbe
000002d0: be67 7b3e 1270 143f acfd 313f 46ed 80bd
000002e0: 2bf6 14bf fa49 173f 567a 0a3f 8c71 3f3f
000002f0: a550 21bf acee 25bf ffa8 a63e 51ba 60bf
00000300: 29e1 d2be 79d4 4cbf bf20 83bc 8269 003f
00000310: 517c 25bc fd9a 9b3d 4801 183f 8489 a7be
00000320: 8606 30bf 1fce 2e3e aaa2 003f 97f7 0d3d
00000330: 5a11 12bf 2353 7ebe 76b1 a23d 130c 94be
00000340: 261e 1cbf 5bfa 5f3f b9b6 b63d 204b afbe
00000350: 2622 1fbe 148a a13d 467d 0d3e 0941 93bf
00000360: 8ad9 79be 5db8 48be 050f eebd f7de 27be
00000370: 5cfc 0d3f e1f0 cb3e d793 e7bd 4bb0 c5be
00000380: 44c1 8e3f 5b64 15bf 0087 86be 2d96 acbe
00000390: f210 003e 2498 d5bd 2448 3bbe 8892 5d3e
000003a0: 5b73 a63d 7a61 393c b97c 17bd 7352 c6be
000003b0: 3975 febd 459e 593f 561f 3cbf 6efa f9be
000003c0: 87f7 723e 5cbf 473e cb4e e3bd a948 23bf
000003d0: c20f 2dbf 1c91 4b3f 1339 87bf 7d2f 0abf
000003e0: b4f1 023f 714d 24bf 8778 3fbe 4a32 efbe
000003f0: 9dbd a33c b559 f2be b265 82be d56e 66bb

ian_model.model_ianet.down2.0.conv.5.running_mean f4 [12]
0.47181883 0.99386036 0.32499045 1.0052048 0.78842527 0.3375805 -0.489803 0.8719819
-0.2697141 0.94914925 -1.0156316 0.98165476
00000000: 3d92 f13e a26d 7e3f 2665 a63e 8daa 803f
00000010: 3dd6 493f 5ad7 ac3e 75c7 fabe 353a 5f3f
00000020: f717 8abe 72fb 723f 3700 82bf ba4d 7b3f

ian_model.model_ianet.down2.0.conv.5.running_var f4 [12]
0.3922829 0.89682835 0.1007803 2.4715276 1.1391312 0.16516091 1.0047927 0.4628871
0.09811842 3.5996952 4.15882 1.9044591
00000000: 4ed9 c83e 8b96 653f e765 ce3d 822d 1e40
00000010: 0dcf 913f f11f 293e 0c9d 803f 8aff ec3e
00000020: 4ff2 c83d 6861 6640 0e15 8540 51c5 f33f

ian_model.model_ianet.down2.0.conv.5.weight f4 [12]
0.8904164 0.90348643 1.2516735 1.0201197 0.98491704 0.96958137 1.0854111 0.9406994
1.0208341 1.1239052 1.1026938 0.95838606
00000000: 54f2 633f e34a 673f d636 a03f 4893 823f
00000010: 8623 7c3f 7c36 783f c0ee 8a3f add1 703f
00000020: b1aa 823f 20dc 8f3f 1225 8d3f ca58 753f

ian_model.model_ianet.down2.0.conv.5.bias f4 [12]
-0.54318845 0.42621493 0.088309616 -0.12025405 0.61195606 0.10248016 0.016275957 0.4833972
-0.41090882 -0.111519486 -0.17055662 -0.3899769
00000000: 660e 0bbf d838 da3e acdb b43d c147 f6bd
00000010: 27a9 1c3f 1ee1 d13d 2855 853c d67f f73e
00000020: a462 d2be 5464 e4bd 65a6 2ebe 0dab c7be

reorder_token_135 f4 [8]
0.4132316 0.0 0.0 0.0 0.0 0.0 0.0 0.0
00000000: 1893 d33e 0000 0000 0000 0000 0000 0000
00000010: 0000 0000 0000 0000 0000 0000 0000 0000

ian_model.model_ianet.down2.1.conv.5.running_mean f4 [48]
0.0056968713 -0.1329701 1.4860308 -0.19768642 -0.40899917 -1.6042343 -0.18847242 -0.17280504
-0.016566921 -0.093177274 -0.19166027 -0.022749098 0.16451873 -0.6402273 -0.32547826 0.20180291
-0.039973658 -0.7411292 -1.0939597 0.4099088 -0.39581302 0.6834286 -1.1613553 -0.47653604
-0.19963954 0.011193025 0.2258987 -0.17544778 -0.24504796 0.24325252 0.025317779 -0.47230944
0.6157047 -1.5020914 0.0031586215 0.061737806 -0.44597313 -0.15866892 -0.58310187 -0.8747015
-0.32061696 -0.22912276 1.0324231 -0.059115794 -2.285018 0.027101122 0.010891154 0.21331258
00000000: d2ac ba3b 5029 08be 4236 be3f 4f6e 4abe
00000010: 5768 d1be 8d57 cdbf eafe 40be cef3 30be
00000020: 5ab7 87bc bad3 bebd 9742 44be 515c babc
00000030: 9977 283e f0e5 23bf 16a5 a6be 6ca5 4e3e
00000040: 6bbb 23bd a5ba 3dbf df06 8cbf 91df d13e
00000050: 01a8 cabe 2df5 2e3f 4aa7 94bf 88fc f3be
00000060: 4f6e 4cbe f362 373c fd51 673e 95a8 33be
00000070: daed 7abe 3017 793e 3b67 cf3c 8bd2 f1be
00000080: d39e 1d3f 8844 c0bf e000 4f3b c8e0 7c3d
00000090: 9756 e4be 1b7a 22be 2a46 15bf 70ec 5fbf
000000a0: e827 a4be 289f 6abe 7126 843f 6723 72bd
000000b0: bc3d 12c0 2c03 de3c d070 323c 9d6e 5a3e

ian_model.model_ianet.down2.1.conv.5.running_var f4 [48]
0.0070483536 0.69995785 4.022209 0.41082782 1.0809238 0.64600486 0.66989464 0.4692375
1.4876827 0.5632163 0.52030605 0.49353674 0.8812997 3.09307 1.9648573 2.369006
0.3100751 3.1596353 4.39495 1.5797527 0.4485372 1.5386567 4.689118 1.2634321
0.6681309 0.19989012 1.015262 0.6387332 1.4042296 2.9963043 0.60557425 1.85195
2.0474782 1.8343801 0.2415807 0.28469196 2.4836428 0.44624645 1.1021187 0.68309844
0.84144664 1.136592 1.1100904 0.33430135 2.7538524 1.1507517 0.13413364 1.2594496
00000000: e0f5 e63b 7030 333f f0b5 8040 0658 d23e
00000010: b65b 8a3f 9360 253f 377e 2b3f e63f f03e
00000020: 636c be3f f22e 103f c732 053f d9b0 fc3e
00000030: db9c 613f dcf4 4540 7280 fb3f cb9d 1740
00000040: 2ac2 9e3e 7737 4a40 6ea3 8c40 5635 ca3f
00000050: aba6 e53e b4f2 c43f 410d 9640 25b8 a13f
00000060: a00a 2b3f ffaf 4c3e 1bf4 813f 0584 233f
00000070: ccbd b33f 73c3 3f40 ea06 1b3f b30c ed3f
00000080: e209 0340 f8cc ea3f ee60 773e 25c3 913e
00000090: 01f4 1e40 6a7a e43e 3a12 8d3f 8adf 2e3f
000000a0: 0c69 573f d97b 913f 7117 8e3f 8c29 ab3e
000000b0: 1e3f 3040 d54b 933f 545a 093e a535 a13f

ian_model.model_ianet.down2.1.conv.5.weight f4 [48]
0.88154054 1.1931238 0.9276996 1.0228428 1.1042154 1.0589222 0.95383376 0.5734816
0.8231434 1.1575112 1.0697308 0.96209633 1.0426034 0.43608585 0.84129256 0.99163383
0.87860817 1.0874109 1.0450625 0.91838187 1.0886844 1.1060375 1.2258124 1.0884426
1.0913497 1.0398905 0.96887 1.2107081 1.1724719 1.0439254 1.0746151 1.1174719
1.1504326 1.0063919 1.0098795 0.9592918 1.0249418 1.096677 0.97361046 0.8702611
0.98051506 1.0218993 1.0672028 1.3796066 1.3660576 1.1070664 1.094928 0.9289171
00000000: a4ac 613f 48b8 983f b97d 6d3f 83ec 823f
00000010: ee56 8d3f c38a 873f 732e 743f b1cf 123f
00000020: 87b9 523f 5429 943f f0ec 883f f24b 763f
00000030: 0774 853f a546 df3e f35e 573f b7db 7d3f
00000040: 77ec 603f 4830 8b3f 9cc4 853f 131b 6b3f
00000050: 035a 8b3f a392 8d3f 6ce7 9c3f 1652 8b3f
00000060: 59b1 8b3f 221b 853f dd07 783f 7cf8 9a3f
00000070: 8f13 963f 599f 853f fd8c 893f 5209 8f3f
00000080: 6041 933f 73d1 803f bb43 813f 2694 753f
00000090: 4b31 833f e95f 8c3f 893e 793f 6ec9 5e3f
000000a0: 0903 7b3f 99cd 823f 1a9a 883f f396 b03f
000000b0: fada ae3f 5ab4 8d3f 9a26 8c3f 83cd 6d3f

ian_model.model_ianet.down2.1.conv.5.bias f4 [48]
-0.59012103 0.6435446 0.14514099 -0.058417268 0.7061383 0.20026913 -0.15331762 0.7127045
0.060132798 -0.16666962 -0.3498922 -0.16236715 -0.35781094 -0.25624132 -0.27969858 -0.069931045
-0.69301075 0.32615045 0.12926558 -0.54048264 -0.1028296 0.28553113 -0.15743597 0.076995105
0.018372301 -0.07624994 -0.23076016 -0.057467498 -0.1346555 -0.043284062 0.08748258 0.4328428
0.49685776 -0.30012614 0.43252572 0.0933292 0.23598371 -0.5296747 0.64187145 -0.109114565
-0.0872124 -0.14750543 0.26456812 0.37206343 -0.13534202 -0.09775405 0.08655296 0.018566946
00000000: 2c12 17bf 57bf 243f d79f 143e f246 6fbd
00000010: 7bc5 343f 5a13 4d3e 4bff 1cbe cd73 363f
00000020: cf4d 763d 71ab 2abe 1225 b3be 9343 26be
00000030: ff32 b7be 1032 83be a734 8fbe 0238 8fbd
00000040: 2769 31bf 31fd a63e 325e 043e 125d 0abf
00000050: 5398 d2bd 2331 923e e536 21be 9caf 9d3d
00000060: 8281 963c ee28 9cbd 644c 6cbe 0a63 6bbd
00000070: 22e3 09be a14a 31bd 112a b33d 929d dd3e
00000080: 2464 fe3e 22aa 99be 0374 dd3e 6123 bf3d
00000090: b7a5 713e c398 07bf b051 243f 7577 dfbd
000000a0: 6a9c b2bd aa0b 17be 7975 873e 197f be3e
000000b0: 1997 0abe 4633 c8bd ae42 b13d b519 983c

reorder_token_154 f4 [8]
-0.16120815 -0.33985326 -0.07120366 0.35054395 -0.22032113 -0.216737 0.0 0.0
00000000: c013 25be 3f01 aebe 39d3 91bd 7f7a b33e
00000010: dd9b 61be 4ef0 5dbe 0000 0000 0000 0000

ian_model.model_ianet.down2.2.conv.5.running_mean f4 [48]
-0.082407534 -0.043841604 0.07984244 -0.5568404 -0.25988197 -0.04974407 -0.7359892 -0.46968493
-0.74740136 -0.36756277 0.036648773 -0.14556387 0.36392662 0.65022224 -0.64528763 -0.43760473
-0.3027833 0.25897798 0.06672069 -0.18244122 -0.16647193 0.14789958 0.33228055 -0.09252836
0.085428834 -0.069272555 0.049811106 0.29946992 -1.1627825 -0.17768398 0.018422568 1.0534332
-0.5015822 -0.42370564 -0.35039407 0.16924071 0.33500904 0.0416972 -0.6430767 0.89726377
-1.2863345 -2.7567914 0.7500004 0.06709589 1.7365936 -0.32634318 -0.25043595 0.5162752
00000000: 48c5 a8bd 4193 33bd 6f84 a33d 188d 0ebf
00000010: 400f 85be 70c0 4bbd ca69 3cbf 8b7a f0be
00000020: b255 3fbf 3031 bcbe 061d 163d b20e 15be
00000030: 9754 ba3e f774 263f 9231 25bf ba0d e0be
00000040: 6a06 9bbe c398 843e dba4 883d dfd1 3abe
00000050: 9e77 2abe fd72 173e ad20 aa3e 827f bdbd
00000060: 50f5 ae3d c5de 8dbd bb06 4c3d 1f54 993e
00000070: 0fd6 94bf caf2 35be edea 963c e6d6 863f
00000080: b167 00bf f2ef d8be da66 b3be 704d 2d3e
00000090: 4e86 ab3e afca 2a3d ada0 24bf 14b3 653f
000000a0: 9ca6 a4bf 456f 30c0 0700 403f 9269 893d
000000b0: b348 de3f 7416 a7be 2439 80be 9d2a 043f

ian_model.model_ianet.down2.2.conv.5.running_var f4 [48]
0.26795617 0.30440757 0.5288876 1.6333203 0.27652633 0.3424559 4.0439997 0.31576225
2.5508342 1.1579933 0.51695335 0.5820333 0.5953296 3.8549254 0.8183173 2.013117
0.4931906 0.53804 0.56634027 0.42161077 1.0656705 0.7308638 3.1795456 0.25528768
0.6828415 0.09790135 0.7223969 1.0320507 1.4731662 0.7369234 0.17217411 5.061565
1.1073651 1.0788238 0.014966856 0.6229028 0.7335384 0.8718339 1.2168498 2.5885277
1.5673962 0.98068047 3.053877 0.36524847 4.9605703 2.3485892 0.6393146 4.153166
00000000: 8d31 893e 4fdb 9b3e 2e65 073f a410 d13f
00000010: dc94 8d3e 6156 af3e 7268 8140 97ab a13e
00000020: de40 2340 2039 943f 0e57 043f 2200 153f
00000030: 8567 183f 19b7 7640 3e7d 513f e9d6 0040
00000040: 7a83 fc3e fdbc 093f adfb 103f 5edd d73e
00000050: e467 883f e419 3b3f ad7d 4b40 11b5 823e
00000060: b3ce 2e3f 8180 c83d 01ef 383f 3d1a 843f
00000070: b690 bc3f 03a7 3c3f 694e 303e 57f8 a140
00000080: 24be 8d3f e616 8a3f 8b37 753c 8f76 1f3f
00000090: 2cc9 3b3f 8230 5f3f bcc1 9b3f 70aa 2540
000000a0: 70a0 c83f e00d 7b3f b972 4340 d901 bb3e
000000b0: febc 9e40 494f 1640 1faa 233f bce6 8440

ian_model.model_ianet.down2.2.conv.5.weight f4 [48]
1.0528402 0.890312 1.1521418 0.94427276 0.83083755 0.899789 1.2857231 1.128032
0.89589417 1.1033127 0.83553916 0.7006679 1.0185642 1.2332743 1.0453678 0.9198127
1.0605642 1.0740979 1.0657265 1.1490213 0.9535854 1.0494704 0.943936 1.1005069
0.8374721 0.92816615 0.98976827 0.8577413 1.0418302 1.0863787 0.99098235 0.98178107
1.1494712 1.1098833 1.3973536 1.1645322 0.9054981 1.1088103 1.1228389 0.9795574
1.3093932 0.99227905 1.0078874 1.051742 1.1432421 1.0871253 1.0844404 1.2842939
00000000: 78c3 863f 7deb 633f 6279 933f dcbb 713f
00000010: c5b1 543f 9258 663f 9392 a43f 5a63 903f
00000020: 5259 653f 5a39 8d3f e5e5 553f f95e 333f
00000030: 5060 823f efdb 9d3f 9dce 853f d878 6b3f
00000040: 91c0 873f 0a7c 893f ba69 883f 2113 933f
00000050: 2c1e 743f 0c55 863f caa5 713f 69dd 8c3f
00000060: 9264 563f 4c9c 6d3f 7461 7d3f ef94 5b3f
00000070: b15a 853f 750e 8b3f 05b1 7d3f 0156 7b3f
00000080: df21 933f a810 8e3f 7cdc b23f 640f 953f
00000090: b9ce 673f 7fed 8d3f 2fb9 8f3f 46c4 7a3f
000000a0: 329a a73f 0006 7e3f 7402 813f 7b9f 863f
000000b0: c255 923f ec26 8b3f f1ce 8a3f be63 a43f

ian_model.model_ianet.down2.2.conv.5.bias f4 [48]
0.06483663 -0.22192408 0.23122735 -0.045148287 -0.18055731 -0.21878941 0.19393128 0.11646498
-0.27415097 0.48663995 0.41418195 -0.1749209 0.26091143 -0.077857144 0.03979961 0.10543522
0.057118863 -0.06279584 -0.21741223 0.2501599 0.14141251 0.0411421 -0.25382155 0.23838158
-0.33493102 -0.6681882 -0.19053397 -0.003205447 0.3576432 -0.054413464 0.8119777 -0.017033165
-0.10012065 0.11378537 -0.46940947 0.0715801 -0.59573984 -0.12840469 0.40479207 -0.3053734
-0.10084345 -0.13575958 0.13404964 -0.40149778 0.22603443 -0.2820608 0.23309156 0.00010919474
00000000: 11c9 843d 1140 63be ddc6 6c3e 69ed 38bd
00000010: 04e4 38be 550a 60be ec95 463e 3185 ee3d
00000020: 845d 8cbe df28 f93e a80f d43e 771e 33be
00000030: 2f96 853e 9173 9fbd ea04 233d 6cee d73d
00000040: 78f5 693d 1b9b 80bd 50a1 5ebe f514 803e
00000050: 71ce 103e 9e84 283d e6f4 81be 4d1a 743e
00000060: 147c abbe 620e 2bbf 561b 43be 7a12 52bb
00000070: 021d b73e a7e0 5ebd c5dd 4f3f 2389 8bbc
00000080: 0e0c cdbd 4e08 e93d 7056 f0be 9698 923d
00000090: 6882 18bf 857c 03be e840 cf3e e759 9cbe
000000a0: 0387 cebd 8f04 0bbe 4f44 093e 1e91 cdbe
000000b0: 9275 673e 466a 90be 8eaf 6e3e 7bff e438

reorder_token_20 f4 [16, 16, 1, 1]
0.031633638 0.53496784 0.37162864 -0.23195566 0.035143238 -0.14610457 -0.13423193 -0.09303293
-0.31321588 0.21622056 0.092444256 -0.19664493 0.049024954 0.14452337 0.29488283 0.69513184
0.34474236 0.14159867 -0.23820546 0.003981266 0.12595132 0.12289166 -0.4376217 -0.016846405
-0.4828274 -0.16901983 -0.6637654 -0.31764218 -0.06610511 0.055092763 0.03279886 -0.11534451
0.28470346 -0.20731436 0.03218875 -0.02900619 0.023295982 0.0037225354 -0.66566986 -0.061420944
-0.053970728 -0.041250546 0.22557881 -0.0074205804 -0.04339181 0.16633226 -0.39673293 0.36162242
0.33986646 -0.07370532 0.0849708 -0.36221662 0.12686023 0.022574315 -0.18876395 0.35804096
-0.6072425 0.2944379 -0.42518866 -0.0051054168 -0.017515054 -0.1399702 0.320189 0.41329893
-0.043405183 0.111223765 0.16163127 0.042242773 -0.43298465 0.16357656 -0.050954327 -0.36814117
0.38921595 -0.18051617 -0.03899227 0.10807349 0.062359653 -0.061652273 -0.2422341 -0.24768391
0.055606447 -0.35082662 0.17251258 0.07932033 -0.06547892 -0.2877402 -0.8680974 -0.018158095
-0.23691171 -0.43741396 -0.6111753 -0.2118461 0.044167053 0.17736717 -0.32519752 0.06622188
0.0 0.0 0.0 0.0 0.0 0.0 0.0 0.0
0.0 0.0 0.0 0.0 0.0 0.0 0.0 0.0
0.0 0.0 0.0 0.0 0.0 0.0 0.0 0.0
0.0 0.0 0.0 0.0 0.0 0.0 0.0 0.0
-0.62963307 -0.52800095 0.37760904 0.1689185 0.0 0.0 0.0 0.0
0.071751386 0.81216013 0.12889408 0.1771499 0.0 0.0 0.0 0.0
-0.11484919 -0.9032019 0.035995036 0.18444595 0.0 0.0 0.0 0.0
0.1976646 -0.07544134 -0.14192568 -0.35081762 0.0 0.0 0.0 0.0
-0.7419896 -0.16657685 -0.0973116 -0.025223548 0.0 0.0 0.0 0.0
-0.040782873 0.7988001 -0.037946902 0.039132867 0.0 0.0 0.0 0.0
-0.18370116 -0.663077 -0.0005132685 -0.24216563 0.0 0.0 0.0 0.0
0.4845424 -0.017721204 -0.046001505 -0.044509783 0.0 0.0 0.0 0.0
-0.24196994 -0.29827237 -0.24283452 -0.027873231 0.0 0.0 0.0 0.0
0.8090507 0.5341554 0.22730243 0.05185347 0.0 0.0 0.0 0.0
-0.35377544 0.49275896 0.034754373 -0.19369957 0.0 0.0 0.0 0.0
0.67586887 0.7666441 0.26742277 0.040909234 0.0 0.0 0.0 0.0
0.0 0.0 0.0 0.0 0.0 0.0 0.0 0.0
0.0 0.0 0.0 0.0 0.0 0.0 0.0 0.0
0.0 0.0 0.0 0.0 0.0 0.0 0.0 0.0
0.0 0.0 0.0 0.0 0.0 0.0 0.0 0.0
00000000: 4692 013d a7f3 083f 1c46 be3e c985 6dbe
00000010: 5bf2 0f3d 709c 15be 1874 09be 0c88 bebd
00000020: d55d a0be ec68 5d3e 6a53 bd3d 4a5d 49be
00000030: 64ce 483d effd 133e e2fa 963e 29f4 313f
00000040: 1282 b03e 3eff 103e 22ec 73be 4875 823b
00000050: 62f9 003e 9fae fb3d f40f e0be 7901 8abc
00000060: 2735 f7be 8913 2dbe 87ec 29bf ffa1 a2be
00000070: 1e62 87bd f3a8 613d 1958 063d be39 ecbd
00000080: a7c4 913e 374a 54be 5ad8 033d 649e edbc
00000090: 37d7 be3c c8f5 733b 5769 2abf 8794 7bbd
000000a0: 6910 5dbd 55f6 28bd 22fe 663e 5728 f3bb
000000b0: 9cbb 31bd 0153 2a3e 9420 cbbe 9326 b93e
000000c0: fa02 ae3e d1f2 96bd 2c05 ae3d 7574 b9be
000000d0: a6e7 013e c5ed b83c 564b 41be 2551 b73e
000000e0: 3f74 1bbf 90c0 963e 54b2 d9be 574b a7bb
000000f0: bb7b 8fbc 5954 0fbe d0ef a33e eb9b d33e
00000100: a2c9 31bd 49c9 e33d ab82 253e c206 2d3d
00000110: 2ab0 ddbe 9d80 273e 7cb5 50bd 007d bcbe
00000120: 5047 c73e 3bd9 38be 5cb6 1fbd a255 dd3d
00000130: d66c 7f3d 1887 7cbd 370c 78be daa0 7dbe
00000140: 96c3 633d 8c9f b3be 23a7 303e b272 a23d
00000150: d019 86bd af52 93be a23b 5ebf 49c0 94bc
00000160: fc98 72be b9f4 dfbe fc75 1cbf 2fee 58be
00000170: 83e8 343d bd9f 353e 4a80 a6be 569f 873d
00000180: 0000 0000 0000 0000 0000 0000 0000 0000
00000190: 0000 0000 0000 0000 0000 0000 0000 0000
000001a0: 0000 0000 0000 0000 0000 0000 0000 0000
000001b0: 0000 0000 0000 0000 0000 0000 0000 0000
000001c0: 0000 0000 0000 0000 0000 0000 0000 0000
000001d0: 0000 0000 0000 0000 0000 0000 0000 0000
000001e0: 0000 0000 0000 0000 0000 0000 0000 0000
000001f0: 0000 0000 0000 0000 0000 0000 0000 0000
00000200: a22f 21bf 122b 07bf f955 c13e f9f8 2c3e
00000210: 0000 0000 0000 0000 0000 0000 0000 0000
00000220: 64f2 923d bae9 4f3f cffc 033e c966 353e
00000230: 0000 0000 0000 0000 0000 0000 0000 0000
00000240: 0d36 ebbd 3d38 67bf 886f 133d 66df 3c3e
00000250: 0000 0000 0000 0000 0000 0000 0000 0000
00000260: 9768 4a3e fd80 9abd f754 11be 5e9e b3be
00000270: 0000 0000 0000 0000 0000 0000 0000 0000
00000280: 08f3 3dbf 1f93 2abe 4e4b c7bd 9da1 cebc
00000290: 0000 0000 0000 0000 0000 0000 0000 0000
000002a0: f10b 27bd 2a7e 4c3f 366e 1bbd c949 203d
000002b0: 0000 0000 0000 0000 0000 0000 0000 0000
000002c0: 281c 3cbe 6abf 29bf de8c 06ba 44fa 77be
000002d0: 0000 0000 0000 0000 0000 0000 0000 0000
000002e0: f115 f83e 0f2c 91bc 136c 3cbd e44f 36bd
000002f0: 0000 0000 0000 0000 0000 0000 0000 0000
00000300: f8c6 77be 28b7 98be 9da9 78be 6756 e4bc
00000310: 0000 0000 0000 0000 0000 0000 0000 0000
00000320: f21d 4f3f 69be 083f f8c1 683e 4e64 543d
00000330: 0000 0000 0000 0000 0000 0000 0000 0000
00000340: 0e22 b5be e74a fc3e 9a5a 0e3d 2e59 46be
00000350: 0000 0000 0000 0000 0000 0000 0000 0000
00000360: be05 2d3f ca42 443f a3eb 883e 7190 273d
00000370: 0000 0000 0000 0000 0000 0000 0000 0000
00000380: 0000 0000 0000 0000 0000 0000 0000 0000
00000390: 0000 0000 0000 0000 0000 0000 0000 0000
000003a0: 0000 0000 0000 0000 0000 0000 0000 0000
000003b0: 0000 0000 0000 0000 0000 0000 0000 0000
000003c0: 0000 0000 0000 0000 0000 0000 0000 0000
000003d0: 0000 0000 0000 0000 0000 0000 0000 0000
000003e0: 0000 0000 0000 0000 0000 0000 0000 0000
000003f0: 0000 0000 0000 0000 0000 0000 0000 0000

ian_model.model_ianet.down3.0.conv.5.running_mean f4 [48]
0.5691574 0.2907176 0.8534912 -0.15756536 -1.8123732 0.15609755 0.48608363 0.33331865
-0.14106955 0.23444529 -0.032125156 1.0407006 -0.17802832 1.2478653 -1.3575407 0.059807274
0.24104519 0.5622102 0.5084903 0.5531798 0.5898935 0.8841205 1.1015259 0.6618895
0.6578106 0.7666425 1.2769465 0.44786724 0.08706861 0.62869513 0.8426585 1.0683345
0.1721433 0.3152307 0.9292305 0.43716666 0.7510473 1.8112123 0.280652 0.32406202
0.8639375 0.5013589 0.5948166 0.19041942 0.8921983 0.37466192 0.7960716 0.54113054
00000000: 4db4 113f f0d8 943e 667e 5a3f d058 21be
00000010: d8fb e7bf 09d8 1f3e f4df f83e bea8 aa3e
00000020: 8974 10be 6d12 703e ab95 03bd ad35 853f
00000030: 0e4d 36be 0dba 9f3f e5c3 adbf 79f8 743d
00000040: 8dd4 763e 02ed 0f3f 6c2c 023f 319d 0d3f
00000050: 4303 173f b955 623f cdfe 8c3f 9771 293f
00000060: 4766 283f af42 443f fc72 a33f db4e e53e
00000070: 0751 b23d 2af2 203f 78b8 573f 2fbf 883f
00000080: 5546 303e eb65 a13e 0de2 6d3f 4fd4 df3e
00000090: a344 403f ced5 e73f 9eb1 8f3e 75eb a53e
000000a0: 022b 5d3f 0f59 003f e745 183f 4ffd 423e
000000b0: 1c67 643f b0d3 bf3e 59cb 4b3f 8887 0a3f

ian_model.model_ianet.down3.0.conv.5.running_var f4 [48]
0.25267506 0.5726851 0.4099116 0.45758474 9.963435 0.18955281 0.5272645 0.17097513
0.2019898 0.8152218 3.5701141 1.056665 2.2996538 2.0733984 1.7289643 0.22119944
0.2434725 1.3010304 1.1799316 0.23390807 1.9492986 1.4463868 3.3778894 0.8252442
0.60644126 0.2963426 5.182787 0.56778157 1.3981687 0.5964449 1.0240597 0.7261501
0.15520695 0.22819485 0.8722842 0.852847 2.0374217 9.38355 0.111027144 0.24833277
1.309575 0.5553879 0.7928664 0.31352732 0.43217465 0.40846655 1.7466248 1.0805593
00000000: a05e 813e 7e9b 123f efdf d13e 8c48 ea3e
00000010: 3b6a 1f41 221a 423e cefa 063f 1b14 2f3e
00000020: 6ad6 4e3e 60b2 503f c07c 6440 cc40 873f
00000030: 872d 1340 8fb2 0440 b44e dd3f 1b82 623e
00000040: db50 793e 2a88 a63f 0008 973f 9985 6f3e
00000050: 9e82 f93f 3423 b93f 572f 5840 3443 533f
00000060: bc3f 1b3f 38ba 973e 64d9 a540 225a 113f
00000070: 31f7 b23f 9db0 183f 6314 833f f9e4 393f
00000080: 92ee 1e3e e9ab 693e 044e 5f3f 2e54 5a3f
00000090: 1e65 0240 0523 1641 3362 e33d f24a 7e3e
000000a0: 27a0 a73f e72d 0e3f 4bf9 4a3f a786 a03e
000000b0: ff45 dd3e 8722 d13e 6791 df3f c44f 8a3f

ian_model.model_ianet.down3.0.conv.5.weight f4 [48]
0.9136569 0.7391447 0.79921174 0.93640995 1.2177151 0.7028759 1.1081915 1.2600157
1.1316667 0.88333714 1.2948405 1.1255883 1.3605822 1.0190192 1.1994658 1.1288161
0.9586886 0.93111646 1.0561701 1.1130842 0.8781592 0.9249005 0.859081 1.0968944
1.0717711 0.85143775 1.1166952 1.0903395 1.1227019 0.8468443 0.99729955 0.84608334
1.4710923 0.9192651 1.0577974 1.0773503 1.0580456 1.1870055 1.097567 1.0673681
1.1216041 0.81639344 1.0049758 1.0485053 1.0281976 1.0123031 0.8760492 0.7884742
00000000: 6be5 693f 9638 3d3f 2499 4c3f 90b8 6f3f
00000010: 17de 9b3f adef 333f 38d9 8d3f 3248 a13f
00000020: 74da 903f 6222 623f 55bd a53f 4713 903f
00000030: 8f27 ae3f 396f 823f 1888 993f 0c7d 903f
00000040: 9e6c 753f a65d 6e3f 9530 873f 8b79 8e3f
00000050: 0bcf 603f 47c6 6c3f bbec 5b3f 0967 8c3f
00000060: cc2f 893f d3f7 593f deef 8e3f 3f90 8b3f
00000070: b2b4 8f3f caca 583f 064f 7f3f eb98 583f
00000080: c14c bc3f f554 6b3f e865 873f 9de6 893f
00000090: 0a6e 873f ccef 973f 137d 8c3f 859f 883f
000000a0: b990 8f3f 29ff 503f 0ca3 803f 6c35 863f
000000b0: fb9b 833f 2693 813f c344 603f 72d9 493f

ian_model.model_ianet.down3.0.conv.5.bias f4 [48]
-0.36019683 0.005960642 0.6224282 0.18639399 0.027239505 0.5636267 -0.22531515 0.23837689
-0.33469388 -0.05894829 -0.02932915 0.4413224 0.039154973 -0.4605564 0.08321041 -0.16647607
-0.37126696 -0.5830636 -0.37353465 -0.08056492 -0.47986647 -0.3650561 -0.25351837 -0.18824172
-0.48404106 0.034872025 -0.45748717 0.1892052 -0.09347839 0.020347098 -0.03253404 0.3801301
-0.41948122 -0.20533451 -0.18631968 -0.44195563 -0.59517604 0.32031214 -0.023048993 -0.034487963
0.035581227 -0.6953158 -0.3531719 0.009884943 0.73071796 -0.12767775 -0.00060813193 -0.39828846
00000000: b86b b8be 7d51 c33b 7457 1f3f 11de 3e3e
00000010: 6225 df3c d749 103f 04b9 66be 1219 743e
00000020: ff5c abbe c373 71bd b043 f0bc 02f5 e13e
00000030: f760 203d 0cce ebbe 386a aa3d b478 2abe
00000040: b416 bebe a843 15bf ef3f bfbe 39ff a4bd
00000050: 0fb1 f5be a2e8 babe 29cd 81be 70c2 40be
00000060: 3bd4 f7be f8d5 0e3d c23b eabe 02bf 413e
00000070: 9971 bfbd f5ae a63c 6a42 05bd 6aa0 c23e
00000080: 3ec6 d6be 3643 52be 96ca 3ebe 0248 e2be
00000090: 755d 18bf f4ff a33e 3ed1 bcbc 4043 0dbd
000000a0: 9fbd 113d 3700 32bf f3d2 b4be 75f4 213c
000000b0: 5510 3b3f f5bd 02be 0b6b 1fba 77ec cbbe

reorder_token_214 f4 [48, 48, 1, 1]
0.07881194 0.00046018692 -0.19395773 -0.004400186 -0.13824767 -0.030312568 0.12148145 -0.00624675
-0.23564135 -0.003200348 -0.17131877 -0.015506726 -0.1714435 0.01799732 -0.12333587 -0.040165316
-0.061974287 0.003842833 -0.016023228 0.011815415 -0.14884058 0.02713812 0.08787789 0.008512251
-0.01606184 0.014883182 -0.16845314 0.05985713 -0.06269403 0.04398653 -0.028298158 0.0127161415
-0.043343548 0.00398257 -0.040872194 0.0058146305 0.09307844 -0.025560185 -0.072428025 0.059993792
0.19712675 -0.00806638 -0.09839837 -0.00063587603 -0.023427628 -0.014417768 0.07080905 -0.010426033
0.022468545 0.009698543 -0.12620263 -0.016831834 -0.007419729 -0.032048862 0.023173962 -0.094598375
0.019071348 0.004998729 -0.13250676 0.007957996 0.017861309 0.011527183 -0.10903962 -0.06812797
-0.10407803 0.006481956 0.06170108 -0.010984012 0.080406904 0.0031766512 0.0048223427 -0.013845041
-0.094946 -0.013128787 0.06532108 -0.03273892 -0.008843278 0.00058922556 -0.056291506 -0.018761087
-0.06896281 -0.01979206 0.0104481755 0.0065025752 -0.045764264 0.03947695 0.0026755333 0.04826316
-0.015254501 0.003968782 0.051817864 -0.015186399 -0.019092554 -0.03545468 0.04031822 -0.07236794
-0.24017504 0.0028774547 0.0015782501 -0.03425626 0.05342751 -0.052195847 0.1279706 -0.01644505
0.07336663 -0.02543742 -0.12957738 0.016493743 0.103166655 0.021009022 0.092534296 0.04393702
0.068505205 -0.00322892 0.0040116766 -0.0036586544 -0.0743638 0.026432332 -0.10408623 0.09116067
-0.04771361 0.012600718 0.060013067 -0.019631827 -0.11294549 -0.027159072 -0.09619645 0.00059997913
0.03473518 -0.0070228726 0.18480508 0.009425307 -0.05550846 0.02978141 -0.0006002448 0.07593504
0.14878596 -0.006519668 -0.07142142 0.016833028 -0.011467126 0.0226378 -0.044321448 0.092135444
-0.12012506 -0.0065998035 0.111182295 -0.0009992211 0.105247095 -0.019607728 0.061892875 0.029566688
0.034866173 -0.008877797 -0.0019504438 0.047354575 -0.056061275 3.891444e-06 -0.09624199 0.028394528
0.06224602 0.004193112 -0.14581391 -0.026289973 0.054579236 -0.0010535504 -0.13852364 0.0037147722
-0.009462273 0.004110194 -0.20070587 0.012875068 -0.12360062 0.02015008 -0.01626164 0.018151963
0.010254373 0.0056095496 -0.018593062 0.046456132 0.11579813 -0.0009274372 -0.051018193 0.06718988
0.04410451 -0.00921447 0.043934386 -0.012494525 0.008445803 0.013191713 0.09618777 0.03480592
0.023048244 -0.009546056 0.1958638 -0.04486353 0.13294753 0.0140148755 -0.06872445 -0.014162421
-0.18850227 0.0060914513 0.07348719 -0.021917671 -0.11328583 -0.023449684 0.18165044 -0.09284906
-0.059675697 0.0016608316 0.041861035 0.029911926 0.061757807 0.0469554 -0.07649049 -0.016385395
0.022190763 0.023148447 0.065507874 -0.0048416737 0.02669494 0.012836983 -0.06867043 -0.029461958
0.03042657 0.006101967 -0.06370784 -0.008625477 0.0667837 -0.002045817 -0.025195615 -0.035152227
-0.029046796 -0.0079837255 0.21189368 -0.037884314 -0.06368143 0.038609255 -0.029833056 -0.059713095
0.05809371 -0.00013379642 0.026672238 -0.0154314125 -0.04422146 0.014918373 0.10550898 -0.07852581
-0.037633367 -0.005426506 0.12348065 -0.006359975 0.10203839 -0.010154582 0.08945292 0.019627074
00000000: 2868 a13d 3e45 f139 db9c 46be 6f2f 90bb
00000010: cc90 0dbe 1052 f8bc 44cb f83d 89b1 ccbb
00000020: f74b 71be eebc 51bb 306e 2fbe ec0f 7ebc
00000030: e38e 2fbe 1e6f 933c 8497 fcbd 6384 24bd
00000040: c0d8 7dbd 0ad8 7b3b 2543 83bc 7195 413c
00000050: aa69 18be c350 de3c 53f9 b33d f876 0b3c
00000060: 1f94 83bc 97d8 733c fb7e 2cbe c02c 753d
00000070: ba65 80bd 382b 343d 8ad1 e7bc 5d57 503c
00000080: 0189 31bd 3880 823b 9a69 27bd a888 be3b
00000090: e99f be3d 9863 d1bc 2555 94bd 0dbc 753d
000000a0: 98db 493e da28 04bc 1685 c9bd ebb0 26ba
000000b0: 4ceb bfbc 8138 6cbc 5604 913d f4d1 2abc
000000c0: f40f b83c a3e6 1e3c 433b 01be eae2 89bc
000000d0: 3321 f3bb ab45 03bd 52d7 bd3c cbbc c1bd
000000e0: 843b 9c3c 61cc a33b daaf 07be 4162 023c
000000f0: e151 923c 83dc 3c3c 2a50 dfbd ad86 8bbd
00000100: dd26 d5bd 9766 d43b 46ba 7c3d 49f6 33bc
00000110: 60ac a43d 5d2f 503b be04 9e3b 50d6 62bc
00000120: 0c73 c2bd 201a 57bc 0fc7 853d 3f19 06bd
00000130: 65e3 10bc 4276 1a3a ec91 66bd dab0 99bc
00000140: 603c 8dbd f522 a2bc d32e 2b3c 8e13 d53b
00000150: 4f73 3bbd 95b2 213d 0058 2f3b 97af 453d
00000160: 04ee 79bc 8e0c 823b f83e 543d 60d0 78bc
00000170: fd67 9cbc ed38 11bd b824 253d a435 94bd
00000180: 72f0 75be ae93 3c3b 49dd ce3a 4b50 0cbd
00000190: ced6 5a3d 50cb 55bd ba0a 033e c5b7 86bc
000001a0: 3e41 963d 2362 d0bc efaf 04be e31d 873c
000001b0: 0a49 d33d 1d1b ac3c 9f82 bd3d 4ef7 333d
000001c0: 754c 8c3d 4a9c 53bb 6274 833b 09c6 6fbb
000001d0: 0c4c 98bd 9e88 d83c 292b d5bd 72b2 ba3d
000001e0: 596f 43bd 3e73 4e3c 43d0 753d edd2 a0bc
000001f0: f74f e7bd b47c debc a502 c5bd eb47 1d3a
00000200: 7a46 0e3d 2020 e6bb 8b3d 3d3e 9a6c 1a3c
00000210: d75c 63bd 25f8 f33c bf59 1dba d583 9b3d
00000220: 595b 183e f0a2 d5bb 6545 92bd 6be5 893c
00000230: 9de0 3bbc e872 b93c 688a 35bd 82b1 bc3d
00000240: 2104 f6bd 2a43 d8bb 8bb3 e33d 4cf8 82ba
00000250: ca8b d73d 63a0 a0bc 6283 7d3d d735 f23c
00000260: d5cf 0e3d 2e74 11bc 09a6 ffba dff6 413d
00000270: 82a0 65bd 4093 8236 851a c5bd a49b e83c
00000280: aff5 7e3d 5f66 893b 3e50 15be 125e d7bc
00000290: 7a8e 5f3d 4917 8aba 24d9 0dbe 8973 733b
000002a0: a607 1bbc ceae 863b d785 4dbe f3f1 523c
000002b0: 5222 fdbd c811 a53c 2137 85bc 6db3 943c
000002c0: f501 283c 50d0 b73b 7a50 98bc c948 3e3d
000002d0: 9227 ed3d 421f 73ba 74f8 50bd d99a 893d
000002e0: eea6 343d 4af8 16bc 8bf4 333d d6b5 4cbc
000002f0: 4460 0a3c 0e22 583c 18fe c43d a790 0e3d
00000300: accf bc3c 1067 1cbc 8590 483e d2c2 37bd
00000310: 6623 083e a69e 653c 68bf 8cbd 8009 68bc
00000320: bd06 41be cc9a c73b 7480 963d b08c b3bc
00000330: 6702 e8bd 8d19 c0bc 9302 3a3e a627 bebd
00000340: 816e 74bd 43b0 d93a 7a76 2b3d db09 f53c
00000350: c1f5 7c3d 4e54 403d 0ca7 9cbd aa3a 86bc
00000360: 67c9 b53c d0a1 bd3c fe28 863d e7a6 9ebb
00000370: 59af da3c 3652 523c 15a3 8cbd 345a f1bc
00000380: 2441 f93c 02f3 c73b 4279 82bd df51 0dbc
00000390: e4c5 883d 1d13 06bb 0967 cebc c8fb 0fbd
000003a0: 8cf3 edbc 2cce 02bc a8fa 583e 952c 1bbd
000003b0: 696b 82bd bd24 1e3d 7464 f4bc b895 74bd
000003c0: acf3 6d3d b44b 0cb9 bd7f da3c 09d4 7cbc
000003d0: 9021 35bd 316c 743c 1815 d83d 24d2 a0bd
000003e0: 7225 1abd d5d0 b1bb 6ce3 fc3d 5667 d0bb
000003f0: 81f9 d03d 675f 26bc 1833 b73d f5c8 a03c

ian_model.model_ianet.down3.1.conv.5.running_mean f4 [48]
-0.44941705 -0.33434418 -1.6741321 -0.02749222 0.006900349 0.47536248 0.3089711 0.1273769
-1.2786388 -0.39622277 -0.22934476 -0.2853749 0.43382463 0.14449945 -0.57920134 -0.43601924
-0.033855997 -0.18715444 -0.15795659 -0.12277716 -0.45547146 -0.42450368 -0.48839197 -0.7584557
0.4214731 0.82621557 -0.14881691 0.12025519 0.040767998 -1.8919922 -0.11282472 0.76201737
-0.022288106 -0.09145189 -0.19201848 -0.137912 -0.545665 0.4363014 -0.04401804 1.1821935
-0.17693596 -0.011180594 0.08781101 -0.19330479 0.18794851 -0.19850841 -0.02358265 -0.011616285
00000000: fe19 e6be 292f abbe f649 d6bf 5d37 e1bc
00000010: 531c e23b b662 f33e 7631 9e3e 176f 023e
00000020: 70aa a3bf b6dd cabe 5ad9 6abe a91c 92be
00000030: 431e de3e aaf7 133e 8a46 14bf ea3d dfbe
00000040: 96ac 0abd 6aa5 3fbe 5fbf 21be 9772 fbbd
00000050: 8e33 e9be 8c58 d9be 830e fabe 272a 42bf
00000060: 52cb d73e dd82 533f 7663 18be 5a48 f63d
00000070: 58fc 263d cd2c f2bf a610 e7bd 9213 433f
00000080: 8c95 b6bc 214b bbbd 7ea0 44be ce38 0dbe
00000090: b4b0 0bbf e662 df3e 434c 34bd 1e52 973f
000000a0: b32e 35be cf2e 37bc 42d6 b33d b1f1 45be
000000b0: 9375 403e ca45 4bbe 6730 c1bc 3b52 3ebc

ian_model.model_ianet.down3.1.conv.5.running_var f4 [48]
1.2969887 1.5861274 4.8142047 0.8127153 0.056652863 1.2665848 0.66552985 1.0022094
1.5691149 0.12085164 2.5094743 0.13175878 0.25781652 0.6228093 0.6112849 5.4317117
0.5743362 1.0655524 0.82045656 0.62999904 0.21947624 0.07049539 2.1407595 1.5967953
0.17702246 2.372874 0.21304797 0.5027519 0.0722783 0.8930892 0.53023934 0.30743074
0.6971769 0.3250123 0.13086486 0.055828582 3.6946669 2.5940137 0.12406349 1.0168296
0.44242954 0.16424608 0.15625033 2.2573416 1.4513112 1.107313 0.74859214 0.18952471
00000000: ba03 a63f 3906 cb3f f70d 9a40 1c0e 503f
00000010: d50c 683d 731f a23f 2a60 2a3f 6648 803f
00000020: c2d8 c83f 1181 f73d 3a9b 2040 c6eb 063e
00000030: 8700 843e 6e70 1f3f 2b7d 1c3f 95d0 ad40
00000040: b207 133f 0564 883f 7109 523f 9e47 213f
00000050: 61be 603e e35f 903d 3402 0940 ca63 cc3f
00000060: 6045 353e 2bdd 1740 3f29 5a3e 59b4 003f
00000070: a506 943d 7ea1 643f c4bd 073f 9067 9d3e
00000080: 2f7a 323f 0368 a63e 7001 063e 83ac 643d
00000090: 6c75 6c40 5204 2640 0015 fe3d 7927 823f
000000a0: 2086 e23e 2030 283e 1600 203e 4978 1040
000000b0: 91c4 b93f 6fbc 8d3f bca3 3f3f c412 423e

ian_model.model_ianet.down3.1.conv.5.weight f4 [48]
1.0738809 1.0452033 1.0105208 0.5846477 0.93717885 0.9540396 0.87882566 1.0919181
1.1945937 1.2409891 1.0460441 1.2669767 0.97703594 0.47213718 1.1763171 1.4610538
0.7740874 0.97352344 0.98721164 1.0031971 1.198891 0.77523094 0.88735014 1.1212624
0.8797259 0.8810143 1.1402543 0.85018367 1.4837117 1.0120505 0.7305303 0.9980079
0.9249255 0.69804186 0.7596513 1.040211 1.1965271 0.8895732 0.9772222 0.845827
0.4248358 0.76495177 1.4052479 1.1254368 1.0005093 1.0673876 0.59144694 0.8801116
00000000: ee74 893f 39c9 853f bf58 813f 79ab 153f
00000010: f4ea 6f3f f03b 743f b8fa 603f f9c3 8b3f
00000020: 72e8 983f bbd8 9e3f c6e4 853f 4b2c a23f
00000030: 071f 7a3f f7bb f13e 8f91 963f d003 bb3f
00000040: 982a 463f d538 793f e7b9 7c3f c368 803f
00000050: 4375 993f 8975 463f 6129 633f 8785 8f3f
00000060: b735 613f 278a 613f daf3 913f a3a5 593f
00000070: 44ea bd3f df8a 813f 0904 3b3f 727d 7f3f
00000080: ebc7 6c3f dfb2 323f 8278 423f a225 853f
00000090: cd27 993f 12bb 633f 3c2b 7a3f 1e88 583f
000000a0: 1484 d93e e1d3 433f 2adf b33f 500e 903f
000000b0: b010 803f 28a0 883f 1169 173f fe4e 613f

ian_model.model_ianet.down3.1.conv.5.bias f4 [48]
-0.4453013 -0.36357224 -0.040485978 -0.6163526 -0.6831279 -0.08823001 -0.20315719 -0.10804069
-0.052819762 -0.52703166 -0.34155434 -0.14713393 0.19667874 -0.6039118 0.15314634 -0.06662905
-0.6669152 0.18223232 -1.6030724 -0.31919298 -0.29654032 -0.8820782 0.19617379 -0.12645648
0.09161869 -0.10660666 -0.23262715 -0.08997221 0.22528706 -0.25651073 -1.1540025 -0.1521597
-0.24856493 0.03834486 -0.077311106 -0.33762258 0.1274284 -0.386501 1.6509677 0.2207362
-0.2932808 -0.50952834 0.07253961 -0.24478544 -0.22920966 -0.07805464 -0.30637607 -0.13243976
00000000: 88fe e3be 2426 babe a0d4 25bd 49c9 1dbf
00000010: 78e1 2ebf efb1 b4bd 7008 50be 7044 ddbd
00000020: 8959 58bd 8ceb 06bf 36e0 aebe 47aa 16be
00000030: 2766 493e f799 1abf 65d2 1c3e d074 88bd
00000040: f4ba 2abf 1c9b 3a3e 7a31 cdbf 436d a3be
00000050: 22d4 97be e0cf 61bf c8e1 483e cf7d 01be
00000060: 94a2 bb3d 9854 dabd d035 6ebe 5a43 b8bd
00000070: a7b1 663e 6055 83be 5bb6 93bf c1cf 1bbe
00000080: ce87 7ebe 800f 1d3d 4955 9ebd dedc acbe
00000090: 977c 023e 76e3 c5be e952 d33f ac08 623e
000000a0: e728 96be 7370 02bf a68f 943d 09a9 7abe
000000b0: f0b5 6abe 1cdb 9fbd 53dd 9cbe 4a9e 07be
