Additional/Mobile/Bread_onnx_mobile_ian_optimized.onnx (onnx, 606154 bytes, 87 tensors)

model_ianet.in_conv.0.conv.3.bias f4 [16]
0	0x3f2e3862	0.68054783
1	0xbf632045	-0.88721114
2	0xbd8fe5b7	-0.070262365
3	0x3d6ae8b2	0.05735082
4	0x3f0e6866	0.5562805
5	0xbf32b43a	-0.69806254
6	0xbf39da57	-0.72598785
7	0x3f06cda0	0.5265751
8	0x3e916bbd	0.2840251
9	0x3f2f9fd8	0.6860328
10	0x3f497a66	0.7870239
11	0x3d9c0afa	0.07619281
12	0x3f104d1b	0.56367654
13	0x3da756bc	0.0817084
14	0x3f095089	0.5363851
15	0xbc669bdd	-0.014075247

reorder_token_88 f4 [32, 192, 1, 1]
0	0x3c76ffd0	0.015075639
1	0x3b846a41	0.0040409868
2	0xba963ebc	-0.0011462788
3	0x3cbc588f	0.022991447
4	0x3cf843db	0.030305794
5	0x3bccce87	0.006250206
6	0x3ca75590	0.020426542
7	0xbc4e6b04	-0.012598757
8	0xbc88299f	-0.016621409
9	0x3bfb3105	0.0076657557
10	0x3c27b70e	0.010236515
11	0x3b800d7c	0.0039078575
12	0x3cb7a660	0.022418201
13	0x3cae91a3	0.02130968
14	0xbca4d2cb	-0.020120045
15	0x3a015202	0.00049331796
16	0xbc05850a	-0.008149395
17	0xbb417d4b	-0.0029524143
18	0xbd09b7e3	-0.033622634
19	0x3d627624	0.05528845
20	0xbc9eede2	-0.01940054
21	0x3b68cf59	0.003552398
22	0x3b5aed1f	0.0033405495
23	0xbb568062	-0.003273033
24	0xbc34667c	-0.011010762
25	0x3c6eb1f6	0.014568796
26	0xbcc45441	-0.023965957
27	0xbc67da34	-0.014151145
28	0x3c0ce1d6	0.008598765
29	0x3c2d0668	0.010560609
30	0x3c8bff3d	0.01708948
31	0xbc3ebd4a	-0.01164181
32	0x3d38be41	0.045103315
33	0x3ce33f62	0.027740184
34	0xbc7bbe13	-0.015365141
35	0x3da16015	0.07879654
36	0x3c27ca37	0.010241083
37	0x3cfd724f	0.030938296
38	0x3b731931	0.0037093873
39	0xbb6a0b07	-0.003571214
40	0xba572078	-0.00082064373
41	0xbbd3890b	-0.006455546
42	0xbcebc84a	-0.028782029
43	0x3ce64b18	0.02811198
44	0xbd021264	-0.03175582
45	0xbcbd8bb1	-0.0231379
46	0xbb4b7cc5	-0.003104971
47	0x3c8f6447	0.01750387
48	0x3d170671	0.036871377
49	0x3bbc030e	0.005737669
50	0xbd0461a4	-0.03231968
51	0x3ce3e6ad	0.027819956
52	0xbc02256a	-0.0079434905
53	0x3c104399	0.008805179
54	0xbc0beeeb	-0.008540849
55	0x3c9f499f	0.019444285
56	0x3c9749bb	0.018467775
57	0xbc4a1c73	-0.012335884
58	0xbb5b17d7	-0.0033430958
59	0x3cef2f95	0.029197494
60	0xbc38b45e	-0.011273472
61	0xbcb40167	-0.021973325
62	0xbc0cf732	-0.008603858
63	0x3d0bb58f	0.034108695
64	0xbb103fa5	-0.0022010591
65	0xbd4fab8d	-0.050700713
66	0x3d0aafa3	0.033858906
67	0xb761b22c	-1.3452529e-05
68	0x3c4af57a	0.012387628
69	0xbc862fb8	-0.016380176
70	0x3c8f952d	0.017527187
71	0xbafcc36d	-0.0019284316
72	0xbc3727a3	-0.011178884
73	0x3c9b78fc	0.018978588
74	0x3c9c865d	0.019107038
75	0xbc935dab	-0.017989
76	0x3c504670	0.012712106
77	0x3c92e2d0	0.017930418
78	0xbbdf780f	-0.006819732
79	0xbc8c23e7	-0.017106963
80	0xbb9b030a	-0.004730587
81	0x3c669c2a	0.014075318
82	0xbc26c07b	-0.010177727
83	0x3caa736e	0.020806994
84	0xbbbffb34	-0.005858803
85	0x3d95c856	0.07313602
86	0xbc29ece8	-0.010371424
87	0xbcc49b87	-0.023999942
88	0xbd099961	-0.03359354
89	0x3d0be9ff	0.034158703
90	0x3c780648	0.015138216
91	0x394bc07c	0.00019431295
92	0x3c99b137	0.01876126
93	0x3b29a93e	0.002588823
94	0x3cdde423	0.027086323
95	0xbcfd6055	-0.030929724
96	0xbc7d306b	-0.015453438
97	0x3d6f7f8e	0.058471255
98	0xbd0fa0af	-0.03506535
99	0x3b0321ce	0.0020009163
100	0x3ca9696e	0.020680156
101	0x3d0d4e36	0.034498416
102	0x3ab9e605	0.0014182931
103	0xbc7fd0a0	-0.015613705
104	0xbcb1b889	-0.021694439
105	0xbbb55d89	-0.005534832
106	0xbc20ee1e	-0.009822397
107	0x3b77c9c1	0.0037809464
108	0x3c0523ad	0.008126182
109	0xbd14d36f	-0.03633445
110	0xbc488578	-0.012238853
111	0xbbcfbb1e	-0.006339445
112	0x3c946d43	0.018118506
113	0xbace905b	-0.0015759574
114	0x3bc1be16	0.0059125526
115	0x3bf65cbf	0.0075183804
116	0x3ce69ef1	0.028151961
117	0x3c0dbe6b	0.008651356
118	0x3cde24a9	0.02711709
119	0x3b9235f9	0.0044620004
120	0xbbdcde9a	-0.0067404034
121	0xbbe2580a	-0.0069074677
122	0x3d475026	0.04866042
123	0x3bb450a8	0.005502779
124	0xbbbfb5eb	-0.0058505437
125	0xbc58c730	-0.013231084
126	0xbd167864	-0.036735907
127	0x3b51d770	0.003201928
128	0x3c2b3e80	0.010451913
129	0x3c693c1c	0.014235523
130	0xbc8ac423	-0.016939228
131	0x3c8a355b	0.016871145
132	0x3cf37f2f	0.029723732
133	0xbc8d8f0c	-0.017280124
134	0x3c6546a8	0.013993897
135	0x3b57727e	0.003287464
136	0xbc3b0cd5	-0.011416634
137	0xbc74a547	-0.014931983
138	0x3d0c6822	0.034278996
139	0x3c78e52f	0.01519136
140	0x3ca37174	0.01995156
141	0xbc06388c	-0.008192193
142	0xbd4bce77	-0.049757447
143	0xbc469362	-0.0121201
144	0xbc699c5b	-0.014258469
145	0x3cc3c8a3	0.023899382
146	0xbbb90cc3	-0.0056472733
147	0x3c56453a	0.013078028
148	0xbb1c1d81	-0.0023821297
149	0x3da17c42	0.078850284
150	0x3b675393	0.0035297617
151	0xbcb0a88d	-0.021564746
152	0xbd6c3202	-0.05766488
153	0x3d26492d	0.04059713
154	0x3cd6cae5	0.026219795
155	0xbbd7fada	-0.006591183
156	0x3c1d71bd	0.009609637
157	0x3ca4f311	0.020135434
158	0xbbc4c3ec	-0.006004801
159	0xbc6e21df	-0.014534443
160	0x3ca77dec	0.020445786
161	0x3ce88659	0.028384374
162	0xbbf964d0	-0.0076108947
163	0x3d13a063	0.03604163
164	0xb98d909f	-0.00027001367
165	0x3d11f28c	0.0356317
166	0x3c3f106e	0.011661632
167	0x3b0029ee	0.0019556242
168	0x3b87903b	0.0041370667
169	0x3c2026b8	0.009774856
170	0xbcb019f6	-0.021496754
171	0x3d31e205	0.04342844
172	0xbc614582	-0.013749482
173	0xbcee7620	-0.02910906
174	0x3d3970cc	0.045273587
175	0xbc6d2551	-0.014474229
176	0xbd0bde86	-0.03414776
177	0x3bae530f	0.00531996
178	0xbca41ad2	-0.02003232
179	0x3d66f027	0.05638137
180	0x3c2e3535	0.010632803
181	0xbc3fb042	-0.011699738
182	0x3c5c3d3b	0.013442333
183	0xbd09e3c6	-0.033664487
184	0xbcc34f84	-0.023841627
185	0x3c9e0270	0.019288272
186	0xbd16baaa	-0.03679911
187	0xbbd88edd	-0.0066088275
188	0x3ca9f0ed	0.020744765
189	0xbc23cdad	-0.009997767
190	0xbcc6b0c0	-0.024254203
191	0xbd15c2f5	-0.03656288
192	0x3bc43464	0.0059876908
193	0x3b943b2d	0.004523656
194	0x3c22b881	0.0099316845
195	0xbbb91e70	-0.0056493804
196	0x3d2506b9	0.040289614
197	0xbb6b7c3e	-0.0035932208
198	0x3ce5cb4d	0.028051043
199	0xbc5704e9	-0.013123729
200	0xbafd96cf	-0.0019347313
201	0xbb47f93c	-0.0030513545
202	0x3d826add	0.06368039
203	0x3a9680ab	0.0011482438
204	0x3cad9aac	0.021191917
205	0x3c283f7c	0.010269042
206	0xbd015eda	-0.031584598
207	0x3b96a577	0.0045973617
208	0xbccfaf9b	-0.02535229
209	0x3d2b7297	0.04185733
210	0xbd3b884b	-0.045784276
211	0x3d32bde3	0.04363812
212	0x3c2df70a	0.010617981
213	0xbbba2e33	-0.005681777
214	0x3d036826	0.032081746
215	0xbc83286e	-0.01601049
216	0xbc4f5bad	-0.012656135
217	0xbb8996d6	-0.0041988892
218	0x3d8f6dd5	0.07003371
219	0x3c497be9	0.012297609
220	0x3c6cab74	0.0144451745
221	0xbc2b5146	-0.010456389
222	0xbce0bdf3	-0.027434325
223	0xbc16485a	-0.009172523
224	0x3c964991	0.018345626
225	0x3c27972f	0.010228916
226	0xbc2b0cf6	-0.010440102
227	0x3cec30c1	0.028831841
228	0x3d2183b5	0.039432246
229	0xbc65b4cc	-0.014020156
230	0x3c9ef2d5	0.0194029
231	0x3a3f1790	0.0007289583
232	0xbc9d9cf1	-0.019239875
233	0xba23c38d	-0.0006247096
234	0x3cb755db	0.022379806
235	0x3c2222c9	0.009895989
236	0x3c71da00	0.014761448
237	0x3be84190	0.007087894
238	0xbd60dd8a	-0.054898776
239	0xbbb28592	-0.0054480517
240	0xbd1818cf	-0.037133034
241	0x3c167a33	0.009184408
242	0x3ba9a225	0.0051768
243	0x3d99dec1	0.0751319
244	0x3cb2552e	0.021769132
245	0xbc8f4611	-0.017489465
246	0x3c99ee7d	0.018790478
247	0xbd04264d	-0.03226309
248	0xbc8adb9d	-0.016950423
249	0x3d17fed1	0.037108246
250	0xbd5de075	-0.054169137
251	0x3b742b95	0.0037257422
252	0x3b5c66ef	0.003363069
253	0xbcb030f4	-0.021507718
254	0x3bc78f87	0.006090108
255	0xbd0c762e	-0.034292392

bn_B_token_66 f4 [192]
0	0xbed6e48a	-0.41971236
1	0xc0101c8a	-2.251742
2	0xbf1c53e4	-0.61065507
3	0xbe6eb1d0	-0.23310018
4	0xbe839786	-0.2570154
5	0xbfca56ea	-1.5807774
6	0xbfe9e11a	-1.827182
7	0xbf8762fc	-1.0577083
8	0xc0090a51	-2.1412547
9	0xbf193833	-0.5985138
10	0xbf26473c	-0.64952445
11	0x3d184570	0.037175596
12	0xbfc9eeb0	-1.5775967
13	0xbeb8ed0d	-0.36118355
14	0xbf24c1d2	-0.64358246
15	0xbec3a187	-0.38209173
16	0xbf3e1847	-0.74255794
17	0xbf283c4a	-0.65716994
18	0xbf12037e	-0.5703658
19	0xbf07aa25	-0.52993995
20	0xbfd21e80	-1.6415558
21	0xbfd4ab42	-1.6614764
22	0xbf7865ba	-0.9703022
23	0xbfafd8f9	-1.373809
24	0xbee05829	-0.4381726
25	0xbf1b2148	-0.6059766
26	0xbee8e6c4	-0.4548856
27	0xbfc6eb54	-1.5540566
28	0xbf35a9c9	-0.70962197
29	0xbfc37a03	-1.527161
30	0xbed92454	-0.4241053
31	0xbeaf7cf0	-0.34275007
32	0xbf05cd33	-0.52266234
33	0xbf961b76	-1.172713
34	0xbf3376d9	-0.7010322
35	0xbf42cf9c	-0.76098037
36	0xbf3baa8c	-0.7330711
37	0xbfed32d8	-1.8531141
38	0xbfdda768	-1.7316713
39	0xbf3f5b88	-0.7474904
40	0xbf58c8da	-0.84681475
41	0xbf20f9ec	-0.6288135
42	0xbfa85cb8	-1.3153296
43	0xbf10eb1e	-0.5660876
44	0xbfd28357	-1.6446332
45	0xbebf2183	-0.37330255
46	0xbf05e2aa	-0.52298987
47	0xbf104be5	-0.56365806
48	0xbfba7efd	-1.4570004
49	0xbec2f1b2	-0.38075024
50	0xc001f75a	-2.0307221
51	0xbf102f1b	-0.5632188
52	0xbf62aa9d	-0.88541585
53	0xbf44692d	-0.76722986
54	0xbfd2d2d3	-1.6470588
55	0xbf2eaade	-0.6822947
56	0xbf2dea41	-0.6793557
57	0xbf121ea8	-0.5707803
58	0xbee47fdc	-0.446288
59	0xbf676950	-0.9039507
60	0xbf1032a6	-0.56327283
61	0xbfd662f3	-1.6748947
62	0xbf0a0344	-0.5391123
63	0xbec945d7	-0.39311096
64	0xbf5c1ec9	-0.85984474
65	0xbf081e11	-0.5317088
66	0xbfaa723b	-1.331611
67	0xbed9d9b6	-0.42548913
68	0xbf159314	-0.5842755
69	0xbef6d914	-0.48212492
70	0xbeca99fc	-0.39570606
71	0xbf09a9c2	-0.53774655
72	0xbfcf975c	-1.6218066
73	0xbf77af2e	-0.9675168
74	0xbfb62003	-1.4228519
75	0xbfe1ae13	-1.7631248
76	0xbf28910f	-0.6584634
77	0xc018d056	-2.3877158
78	0xbfeb1bcc	-1.8367858
79	0xbea02ac0	-0.31282616
80	0xbfdc4c92	-1.7210867
81	0xbe9cbe78	-0.30614066
82	0xbf58ad34	-0.84639287
83	0xbfb98b70	-1.4495678
84	0xbf16845f	-0.5879573
85	0xbf38a735	-0.7213014
86	0xbf223672	-0.63364327
87	0xbfe51e48	-1.7899866
88	0xbff04cbf	-1.8773421
89	0xbe864a61	-0.26228622
90	0xbffaab43	-1.9583515
91	0xbff78500	-1.9337463
92	0xbfdc63ea	-1.7217991
93	0xbf0e598f	-0.55605406
94	0xbfbcab88	-1.4739847
95	0xbff5348b	-1.915666
96	0xbfbc9054	-1.4731545
97	0xbf0638fc	-0.524307
98	0xbfa639c6	-1.2986381
99	0xbf1312a0	-0.57450294
100	0xbf364d14	-0.7121136
101	0xbf1f963c	-0.62338614
102	0xbfbd6b0c	-1.4798293
103	0xbf89039b	-1.0704225
104	0xbf4d55ca	-0.8020903
105	0xbfbc7e63	-1.472607
106	0xbf276ca3	-0.6540014
107	0xbf30f6a0	-0.6912632
108	0xbf2142a6	-0.6299232
109	0xbf02dbf5	-0.5111688
110	0xc003445b	-2.051047
111	0xbf348c89	-0.7052694
112	0xbf2e4c3a	-0.6808506
113	0xbf410471	-0.753974
114	0xbf3918d8	-0.72303534
115	0xbf19e6ad	-0.6011761
116	0xbefc28d3	-0.49249896
117	0xbfaf593d	-1.3699108
118	0xbefd33c2	-0.4945355
119	0xbf26cb28	-0.6515374
120	0xbf9c9388	-1.2232523
121	0xbed594d4	-0.4171511
122	0xbf574a96	-0.84098184
123	0xbf101c7e	-0.56293476
124	0xbed90ec1	-0.4239407
125	0xbee9e020	-0.45678806
126	0xbeb80027	-0.35937616
127	0xbf20a0f8	-0.6274562
128	0xbf3c3bf3	-0.73528975
129	0xbef8acce	-0.4856934
130	0xbfb6962a	-1.4264576
131	0xbff06b50	-1.8782749
132	0xbf8dc719	-1.1076385
133	0xbff5c8cd	-1.9201905
134	0xbfa37868	-1.277112
135	0xbf0749a3	-0.52846736
136	0xbfa6ac6a	-1.3021367
137	0xbed5f219	-0.41786268
138	0xbfebd54c	-1.8424468
139	0xbf296efa	-0.6618496
140	0xbf267659	-0.65024334
141	0xbfd621d9	-1.672908
142	0xbf05e758	-0.5230613
143	0xbf3989e2	-0.7247602
144	0xbfa49ef3	-1.2861007
145	0xbf07cc12	-0.5304576
146	0xbf2d3bc8	-0.67669344
147	0xbec2e5f1	-0.38066056
148	0xbf1e587a	-0.61853755
149	0xbec4206a	-0.3830598
150	0xbfd4f58c	-1.6637435
151	0xbf8351d5	-1.0259348
152	0xbffc40b3	-1.9707245
153	0xbef81e6d	-0.48460713
154	0xbfc6e0d3	-1.5537361
155	0xbf17f0ba	-0.59351695
156	0xbedee20c	-0.43531835
157	0xbf4115a0	-0.7542362
158	0xbffd6774	-1.9797196
159	0xbee3c231	-0.44484094
160	0xbffd1dc5	-1.977471
161	0xbfbe7f10	-1.4882526
162	0xbf3b6b14	-0.73210263
163	0xbff54a21	-1.9163247
164	0xbeff2972	-0.49836308
165	0xbf463ec6	-0.77439535
166	0xbfedaf6b	-1.8569158
167	0xbf54cbb8	-0.8312335
168	0xbf1f5234	-0.62234807
169	0xbefc7184	-0.49305356
170	0xbff28075	-1.8945452
171	0xbfb924f0	-1.4464397
172	0xc0109258	-2.258932
173	0xc0012830	-2.0180779
174	0xbf3cd71b	-0.73765725
175	0xbf83ef08	-1.0307322
176	0xbf3e7da4	-0.7441046
177	0xbe8916e0	-0.26775265
178	0xbec016fa	-0.3751753
179	0xc14b9ea7	-12.7262335
180	0xbfffeaa9	-1.9993488
181	0xc00effca	-2.2343621
182	0xbeffc019	-0.49951246
183	0xbebd05f4	-0.36918604
184	0xbf12c7e2	-0.57336247
185	0xbe9b1d05	-0.30295578
186	0xbf86b83d	-1.0524975
187	0xbf52bfe8	-0.82324076
188	0xbf223bae	-0.63372314
189	0xbf9e044c	-1.2345061
190	0xbfcf6834	-1.6203675
191	0xbf06ac84	-0.5260699

bn_B f4 [16]
0	0xbf7ebeda	-0.99509966
1	0xbf87fdf4	-1.0624375
2	0xbf7f86ae	-0.9981488
3	0xbf129865	-0.57263786
4	0xbf6eacab	-0.9323222
5	0xbf2a8199	-0.66604
6	0xbf80eb7e	-1.0071867
7	0xbf51baa8	-0.8192544
8	0xbf714b6d	-0.94255716
9	0xbed937ac	-0.42425287
10	0xbf913bf8	-1.1346426
11	0xbf89e467	-1.0772828
12	0xbf533949	-0.82509285
13	0xbfa36830	-1.276617
14	0xbf3ebd96	-0.74508035
15	0xbf7b1a87	-0.9808735

reorder_token_38 f4 [32, 96, 1, 1]
0	0x3cfe242c	0.031023107
1	0x3c8a54db	0.016886165
2	0x3d0e4ecf	0.034743126
3	0x3da70032	0.08154334
4	0x3d073938	0.033013552
5	0xbc25a155	-0.010109265
6	0x3d9e7f1c	0.07739088
7	0xbd3b67af	-0.045753177
8	0xbdac3de5	-0.08410243
9	0x3d568988	0.052377254
10	0x3c143552	0.009045916
11	0xbc67d526	-0.01414994
12	0xba883485	-0.0010391629
13	0xbc9e902f	-0.019355861
14	0xbd4e00e1	-0.050293807
15	0x3cc15edb	0.0236048
16	0x3d180575	0.03711458
17	0x3d9a80d8	0.07544106
18	0x3ddb6656	0.107128784
19	0xbe788dab	-0.24272792
20	0xbc06077f	-0.008180498
21	0xbd150a75	-0.036386926
22	0xbd86e759	-0.06587095
23	0xbd8732d5	-0.06601492
24	0xbdaa651d	-0.08320067
25	0x3e182d39	0.14861001
26	0x3dd6ff44	0.10497907
27	0x3e3501b0	0.17676425
28	0xbc2dd84e	-0.010610653
29	0xbd9899b6	-0.07451193
30	0xbda65d54	-0.0812327
31	0x3d7d017c	0.061768994
32	0x3d25d144	0.040482774
33	0x3d132cf1	0.03593153
34	0x3e01d3d0	0.12678456
35	0xbddf6829	-0.10908539
36	0xbe45e294	-0.19324714
37	0xbd01bfa0	-0.03167689
38	0xbdc05083	-0.093903564
39	0xbe30514a	-0.1721851
40	0xbda8ffa2	-0.08251883
41	0x3dfb0cbe	0.1225829
42	0xbc559ab4	-0.013037372
43	0x3e197bc5	0.1498862
44	0x3d48015d	0.048829425
45	0xbd1d1c44	-0.038357034
46	0xbd149574	-0.036275342
47	0x3d631574	0.05544038
48	0xb9eca565	-0.00045136656
49	0x3d1fa8df	0.038979407
50	0xbd9856c8	-0.07438427
51	0x3c54bf1d	0.012985018
52	0xbc89528d	-0.016762996
53	0xbcda6240	-0.026658177
54	0xbab3755f	-0.0013691596
55	0xbd23eafc	-0.04001902
56	0x3cf71b2b	0.030164322
57	0x3d794f23	0.060866486
58	0x3d3425cd	0.043981362
59	0x3ddbe8fe	0.10737799
60	0xbdabfda9	-0.08397991
61	0x3b8c3081	0.004278243
62	0xbc8912ce	-0.0167326
63	0xbc2eb7d7	-0.010663948
64	0x3d074178	0.03302142
65	0x3d688d38	0.0567753
66	0x3cdac879	0.026706921
67	0x3e32fe54	0.17479831
68	0xbb2cda97	-0.0026375407
69	0xbd9b95af	-0.07596909
70	0xbc5aa56b	-0.013345103
71	0x3d636325	0.055514473
72	0xbd2cba27	-0.042169716
73	0x3c73a93f	0.014871894
74	0x3da8388e	0.08213912
75	0x3d0357d4	0.03206618
76	0xbd0b3708	-0.03398803
77	0x3d39c35f	0.045352336
78	0xbd1b96d8	-0.037985653
79	0x3da70f90	0.08157265
80	0x3d804910	0.062639356
81	0x3d87c1f5	0.06628791
82	0x3c909d22	0.017653052
83	0x3db031c0	0.08603239
84	0xbdbcbefb	-0.09216114
85	0xbd536874	-0.051613286
86	0xbb257714	-0.0025247978
87	0xbd986286	-0.07440667
88	0xbcd753dc	-0.026285104
89	0x3c90d29e	0.017678555
90	0x3c97ea5e	0.018544372
91	0x3dbed6dd	0.09318326
92	0xbd0eed70	-0.034894407
93	0xbd66d4b4	-0.056355193
94	0xbd025996	-0.031823717
95	0xbd0a80d9	-0.033814285
96	0xbbbaa7dd	-0.0056962804
97	0x3c6158c8	0.013754077
98	0xbd7da7de	-0.06192767
99	0x3c895188	0.01676251
100	0x3c8da722	0.01729161
101	0xbd0ea23a	-0.03482268
102	0xbc51d6ee	-0.012807591
103	0x3ccb2b9b	0.024801066
104	0xbcf6786e	-0.030086722
105	0xbd5b1c10	-0.05349356
106	0xbd9209e7	-0.07130795
107	0xbd1e9dda	-0.038724758
108	0x3af144fd	0.0018407401
109	0xbccaafb5	-0.024741987
110	0xbd0e5b3c	-0.034754977
111	0x3cc528de	0.024067339
112	0x3c5f87bc	0.013643201
113	0x3d4680a0	0.04846251
114	0x3da3f36b	0.08005413
115	0xbc6e8532	-0.014558123
116	0xbddea2c7	-0.10870891
117	0xbda08081	-0.0783701
118	0xbcf14fbc	-0.029456966
119	0xbc50dccf	-0.012747957
120	0xbd33bf1d	-0.04388343
121	0x3e1c1624	0.15242821
122	0x3d9bcd2a	0.07607491
123	0x3d7ca657	0.06168207
124	0xbbc6ac64	-0.006063031
125	0xbc21c1f6	-0.009872904
126	0xbcb1f7ec	-0.021724664
127	0x3d98bcdb	0.07457896
128	0x3d37a2cf	0.044833
129	0x3d749dbc	0.05972074
130	0xbc4d394d	-0.012525869
131	0x3dfbe962	0.123003736
132	0x3c6b3d82	0.014357926
133	0xbbac8e1e	-0.005265965
134	0x3d8bdc58	0.068291366
135	0x3c875392	0.016519342
136	0xbd24523c	-0.040117487
137	0x3d27be3d	0.04095291
138	0xbbe91cee	-0.0071140444
139	0x3d490c7f	0.049084183
140	0xbc139daa	-0.009009758
141	0xbda36c01	-0.079795845
142	0xbd945068	-0.07241899
143	0x3d12a688	0.035803348
144	0x3c0d2339	0.008614355
145	0x3bff9718	0.007799994
146	0xbde0d5bb	-0.10978266
147	0x3de26327	0.11054068
148	0x3cc24ba2	0.023717705
149	0xbdb1944f	-0.08670866
150	0xbdb2b63b	-0.08726164
151	0x3d51210a	0.0510569
152	0x3d774f5a	0.06037841
153	0xbd17966c	-0.037008688
154	0xbd678f1e	-0.05653297
155	0x3c370abd	0.011171994
156	0xbc82f938	-0.015987977
157	0x3d185bf0	0.037197053
158	0xbcdbb7ca	-0.026821036
159	0xbdc6247b	-0.09674927
160	0x3ca132d5	0.019677559
161	0x3da88a6c	0.08229527
162	0xbd011484	-0.031513706
163	0xbcb292f4	-0.021798588
164	0x3c856ed1	0.016288193
165	0xbd3122dc	-0.043246135
166	0xbc874673	-0.016513085
167	0x3d122002	0.035675056
168	0x3a903e4c	0.0011004894
169	0x3cc46a0f	0.023976354
170	0xbc92f531	-0.017939182
171	0xbc82f9f9	-0.015988337
172	0xbd1ec145	-0.038758535
173	0xbd8e8eb7	-0.069608144
174	0xbd8ac995	-0.0677673
175	0x3c63e26f	0.013908966
176	0xbd14b6f5	-0.036307294
177	0xbd3ae6b8	-0.045630187
178	0xbdcabc91	-0.098992474
179	0x3e9d9269	0.30775765
180	0x3dbb47b0	0.09144533
181	0x3da7bb22	0.081899896
182	0xbc9b2149	-0.01893677
183	0x3df926ee	0.121656284
184	0x3d55c70e	0.052191786
185	0xbdc73683	-0.09727194
186	0x3c3cd73b	0.011525924
187	0xbdc40887	-0.09571939
188	0xbb050205	-0.0020295393
189	0x3cb4eaa5	0.022084543
190	0x3d86fb05	0.06590847
191	0xbc5af170	-0.013363227
192	0xbbb9a75a	-0.005665702
193	0xbd08ea91	-0.033426825
194	0x3cdb20f6	0.026749115
195	0x3e358469	0.17726292
196	0xbd8e20d4	-0.06939855
197	0x3b87b11e	0.004140987
198	0xbe1071cb	-0.14105909
199	0xbdadb4cb	-0.08481749
200	0x3d2ced3d	0.042218436
201	0x3d0f981d	0.035057176
202	0x3aba5124	0.0014214856
203	0xbd942fa3	-0.072356485
204	0x3d7ef2c1	0.062243227
205	0x3d5160e2	0.051117785
206	0x3bab7cb4	0.0052333716
207	0x3df02797	0.11726301
208	0x3d336d3c	0.043805346
209	0x3c31920d	0.010838044
210	0x3cf42455	0.02980248
211	0xbe497534	-0.19673616
212	0xbd34a70e	-0.04410463
213	0xba242cd4	-0.00062627834
214	0x3c363aff	0.011122464
215	0xbe4a7316	-0.19770464
216	0xbd503d34	-0.050839618
217	0x3c9a40b2	0.018829677
218	0xbd6b276e	-0.05741065
219	0x3d53d415	0.05171593
220	0x3b4e8ab9	0.003151579
221	0xbd5a06ef	-0.05322927
222	0x3c995f24	0.018722124
223	0xbe0bbf91	-0.13647296
224	0xbd53e9d1	-0.051736657
225	0xbcc0acd5	-0.023519913
226	0xbc41fbff	-0.011839866
227	0x3db73a75	0.08946697
228	0x3d9ca055	0.076477684
229	0xbc6c64b9	-0.014428311
230	0xbd3b5f77	-0.04574534
231	0xbc274fa1	-0.010211856
232	0x3cd0ecd8	0.02550356
233	0xbd65970d	-0.056052256
234	0x3ccfe705	0.025378713
235	0xbd8e7833	-0.0695652
236	0xbd0cc6ca	-0.034369268
237	0x3d76d72c	0.060263798
238	0x3cd3e662	0.025866691
239	0xbd0b76a0	-0.034048676
240	0xbcd2253b	-0.025652518
241	0xbd2bafa1	-0.04191554
242	0xbd3c0048	-0.045898706
243	0x3e40d15d	0.18829866
244	0xbbfb5554	-0.007670084
245	0xbdb354a9	-0.08756382
246	0xbdf694bd	-0.12040088
247	0x3c524597	0.012833974
248	0x3d0f04ba	0.034916617
249	0xbd096d03	-0.033551227
250	0xbc9dfdd4	-0.019286074
251	0xbd8f0fb3	-0.06985416
252	0x3c204614	0.009782333
253	0x3cc853b9	0.024453985
254	0x3b763cae	0.003757279
255	0x3c2e992a	0.010656634

reorder_token_62 f4 [192, 32, 1, 1]
0	0x3cdd14f5	0.026987532
1	0x3ce264f8	0.027636036
2	0x3d405e43	0.046964895
3	0xbd1d54f8	-0.03841111
4	0xbda9006a	-0.08252032
5	0x3da25661	0.07926632
6	0xbc67277e	-0.014108537
7	0xbdf9fe7f	-0.122067444
8	0x3c54639d	0.012963203
9	0xbd74872c	-0.059699222
10	0x3d5d7abd	0.05407213
11	0x3d19fc96	0.0375944
12	0x3c82faba	0.015988696
13	0xbd6a75b7	-0.057241168
14	0x3d8ea3d7	0.06964844
15	0xbe1808bb	-0.1484708
16	0xbcc1b1c1	-0.02364433
17	0x3c2acd16	0.010424873
18	0x3e04fe04	0.12987524
19	0xbd94e95a	-0.07271071
20	0x3da7a252	0.08185257
21	0x3d9bd3f0	0.07608783
22	0xbcfd8bfd	-0.03095054
23	0xbe91994e	-0.28437275
24	0xbc991da4	-0.018690892
25	0x3bbb4380	0.0057148337
26	0xbd3b90ef	-0.045792516
27	0xbba6a43a	-0.0050854953
28	0x3b38f0f0	0.0028219782
29	0xbd068453	-0.032841038
30	0xbde5b5c2	-0.11216308
31	0x3dae75db	0.08518573
32	0x3e402dd9	0.1876749
33	0x3c7374a3	0.014859351
34	0x3d335761	0.043784503
35	0x3c4d3ec5	0.012527172
36	0xbc9044b8	-0.017610893
37	0x3d4c4ed3	0.04987986
38	0xbcb39c0a	-0.021924991
39	0x3f7c8617	0.98642105
40	0xbc5a2f57	-0.013316951
41	0x3d37737c	0.04478787
42	0xbc06eeec	-0.008235674
43	0x3cc8181d	0.02442556
44	0xbb851657	-0.004061501
45	0xbbedfdaf	-0.0072629075
46	0xbe23222c	-0.15931004
47	0x3d44e5e1	0.048070792
48	0x3e700ef2	0.23443201
49	0xbc54abd2	-0.012980418
50	0xbd718c25	-0.058971543
51	0x3cb480db	0.0220341
52	0x3c85b4d6	0.01632158
53	0x3c9421a4	0.018082447
54	0xbc4114e0	-0.011784762
55	0x3e77e793	0.24209432
56	0xbc4e5cdb	-0.012595381
57	0x3d50cf41	0.050978903
58	0x3e867167	0.26258394
59	0x3d86fd46	0.06591277
60	0x3a558a64	0.0008145927
61	0x3d099d36	0.033597194
62	0xbda3b260	-0.07993007
63	0xbc83abd4	-0.016073145
64	0x3e0b0432	0.13575819
65	0x3cb0fecf	0.021605877
66	0x3d6c8c4c	0.057750985
67	0x3ded11a7	0.115756325
68	0x3db03d78	0.08605474
69	0xbe5f2b30	-0.21793818
70	0xbd08f28e	-0.033434443
71	0xbedb4d17	-0.42832252
72	0xbbd7750c	-0.0065752324
73	0x3dacd094	0.084382206
74	0x3dc74695	0.09730259
75	0xbcd7a6be	-0.026324626
76	0x3c8796b5	0.016551355
77	0x3d6fa791	0.058509413
78	0x3dd48332	0.10376586
79	0x3cfe066f	0.031008927
80	0x3cadc4c6	0.021211993
81	0xbcf5b135	-0.029991725
82	0x3de2a94b	0.11067446
83	0x3cbf2e87	0.023337616
84	0x3e01736f	0.1264169
85	0x3ddb18fe	0.10698126
86	0xbd695b33	-0.05697174
87	0x3d339542	0.043843515
88	0xbd56b473	-0.052418184
89	0x3c2b5948	0.010458298
90	0x3e17603d	0.14782806
91	0x3c6d569d	0.014485982
92	0xbd691792	-0.056907244
93	0x3dc5c55a	0.096567824
94	0xbc4d47f0	-0.012529358
95	0x3e0c67ba	0.13711444
96	0xbd4f504e	-0.050613694
97	0x3d2f1c2a	0.04275147
98	0xbdf56230	-0.119816184
99	0x3e683510	0.22676492
100	0xbd27f377	-0.04100367
101	0x3e127f07	0.1430627
102	0x3b986adf	0.004651412
103	0x3ed65873	0.41864356
104	0x3d976f4c	0.07394275
105	0xbd5e244c	-0.054233834
106	0xbd0822be	-0.033236258
107	0x3e0b31fc	0.13593286
108	0x3d6bd9d6	0.05758079
109	0x3d03a66e	0.03214114
110	0xbb9c4391	-0.0047687967
111	0xbd9c0b49	-0.0761934
112	0xbe15baec	-0.14622086
113	0xbb9e62bc	-0.0048335474
114	0x3cbd4bb8	0.023107395
115	0xbdd0d8f6	-0.10197632
116	0xbcd0a7fa	-0.025470722
117	0xbd90190b	-0.070360266
118	0x3c005235	0.0078321
119	0xbd1e38d6	-0.03862842
120	0x3cdd05c9	0.026980298
121	0x3cd763c8	0.026292697
122	0x3c250eaa	0.010074297
123	0x3c62096d	0.013796193
124	0xbba1337f	-0.004919469
125	0xbdde76cc	-0.108625025
126	0xbdfeb7dc	-0.12437412
127	0xb8ad99f3	-8.277958e-05
128	0x3dc62d3a	0.09676595
129	0xbd099cff	-0.03359699
130	0xbaa1b24c	-0.0012336462
131	0xbe57f0b3	-0.21087913
132	0x3d80543a	0.06266065
133	0xbe5b4b53	-0.21415453
134	0xbd1c4e78	-0.03816077
135	0xbcde47b5	-0.027133802
136	0xbcd27ec2	-0.025695208
137	0x3d9788d0	0.07399142
138	0xbd945c0f	-0.07244121
139	0xbddecfc7	-0.10879474
140	0xbd2aa71e	-0.04166328
141	0xbc72961f	-0.0148062995
142	0xbbefc0b4	-0.007316673
143	0x3e084439	0.13307275
144	0xbd53def8	-0.05172631
145	0x3d30344e	0.04301863
146	0xbd4f7f37	-0.05065843
147	0x3c0cac9c	0.008586075
148	0xbca3adf0	-0.0199804
149	0x3e7fd219	0.2498249
150	0x3ce77e28	0.028258398
151	0xbd868c11	-0.06569684
152	0x3b837d61	0.004012749
153	0x3d66e88c	0.056374118
154	0xbc9dd1c2	-0.01926506
155	0xbc098019	-0.008392357
156	0x3d54f627	0.05199256
157	0xbdf82bdb	-0.1211774
158	0xbdc11152	-0.09427132
159	0xba2b78e4	-0.00065411464
160	0xbd52eba5	-0.05149426
161	0xbd38683b	-0.045021277
162	0x3e109e59	0.14122905
163	0xbd3303d8	-0.043704838
164	0xbc99c07b	-0.01876854
165	0x3de5cb6d	0.11220441
166	0xbcc649a4	-0.024205036
167	0xbd0f5c5c	-0.03500019
168	0xbc9d9329	-0.01923521
169	0x3dd05905	0.10173229
170	0x3ce90833	0.028446293
171	0x3db6e4ca	0.08930357
172	0xbcbed0e9	-0.023292976
173	0x3d64c744	0.055854097
174	0xbdbf7728	-0.09348899
175	0x3d351e1d	0.04421817
176	0xbc1993c7	-0.009373612
177	0xbca02a41	-0.019551398
178	0x3d9726e5	0.073804654
179	0x3c871eea	0.016494233
180	0x3cde6554	0.027147926
181	0x3e27615d	0.16345735
182	0xbc525696	-0.0128380265
183	0xbadb976c	-0.0016753501
184	0xbd05433d	-0.032534827
185	0x3d28ba3c	0.041193232
186	0x3a986c8d	0.001162903
187	0xbd0031fa	-0.03129766
188	0xbc0176a6	-0.007901823
189	0xbae43aa1	-0.0017412492
190	0xbcf2be0e	-0.02963164
191	0xbd1f1d83	-0.038846504
192	0x3d0cccf4	0.034375146
193	0x3bae148e	0.005312509
194	0xbe56bdd3	-0.2097085
195	0x3da69fb4	0.0813593
196	0xbdbf48ca	-0.09340055
197	0xbe3af5a2	-0.18257764
198	0x3d10fbd4	0.035396412
199	0x3d63b18c	0.055589244
200	0xbb4e3116	-0.0031462363
201	0x3d10feb0	0.03539914
202	0xbca26923	-0.019825524
203	0x3d8ae8be	0.06782673
204	0xbc6d3754	-0.014478523
205	0x3cb8c598	0.022555158
206	0x3c743301	0.014904738
207	0xbd901372	-0.07034959
208	0x3e033705	0.12813957
209	0x3a8f4d80	0.0010933131
210	0x3d4288a4	0.047493592
211	0xbde1d15e	-0.11026262
212	0x3d0fe89c	0.035133943
213	0xbc849110	-0.016182452
214	0xbd222d90	-0.039594233
215	0xbe8b875e	-0.27251714
216	0xbce7fbcc	-0.028318308
217	0x3d6059fe	0.054773323
218	0x3d58737f	0.05284452
219	0x3cbb8154	0.022888817
220	0xbc8a3de4	-0.016875215
221	0xbcf833a8	-0.03029807
222	0x3d64e608	0.055883437
223	0xbcc45064	-0.023964114
224	0xbe0947e5	-0.13406332
225	0x3d1e1d42	0.03860212
226	0xbd76699e	-0.06015932
227	0x3d0a7c8f	0.033810195
228	0xbd1ff4e4	-0.039051905
229	0x3d338c6a	0.04383508
230	0x3c5640a0	0.013076931
231	0x3e16657e	0.14687154
232	0x3d6963ad	0.056979824
233	0x3d040d77	0.032239404
234	0xbdfd7f5b	-0.12377807
235	0xbe14e959	-0.1454214
236	0x3d3c3d0c	0.045956656
237	0xbda2907d	-0.07937715
238	0x3cbca783	0.023029095
239	0xbd57c300	-0.0526762
240	0xbb8e2704	-0.004338147
241	0x3d3c44d2	0.04596407
242	0xbc87edad	-0.016592825
243	0x3cba4695	0.022738734
244	0x3bd36c4e	0.00645212
245	0x3e8bf74c	0.2733711
246	0x3d8da5ae	0.069163665
247	0x3deb438e	0.114874944
248	0x3d3f8107	0.04675391
249	0xbb5d3ddc	-0.0033758795
250	0xbc56ccc2	-0.0131103415
251	0xbc2c221b	-0.010506178
252	0x3d59d238	0.053178996
253	0xbd8f03eb	-0.06983169
254	0xbd7853ef	-0.06062692
255	0xbdd8e5cb	-0.105907045

reorder_token_140 f4 [16, 4, 1, 1]
0	0xbf3be727	-0.73399585
1	0xbf1071c7	-0.5642361
2	0x3db3f4d5	0.087869324
3	0x3f34e84a	0.70666945
4	0x00000000	0.0
5	0x00000000	0.0
6	0x00000000	0.0
7	0x00000000	0.0
8	0x00000000	0.0
9	0x00000000	0.0
10	0x00000000	0.0
11	0x00000000	0.0
12	0x00000000	0.0
13	0x00000000	0.0
14	0x00000000	0.0
15	0x00000000	0.0
16	0x3ecb97af	0.39764163
17	0x3f6e5ee3	0.93113536
18	0x3cf6d9e6	0.030133199
19	0x3eac5be7	0.33663866
20	0x00000000	0.0
21	0x00000000	0.0
22	0x00000000	0.0
23	0x00000000	0.0
24	0x00000000	0.0
25	0x00000000	0.0
26	0x00000000	0.0
27	0x00000000	0.0
28	0x00000000	0.0
29	0x00000000	0.0
30	0x00000000	0.0
31	0x00000000	0.0
32	0xbea57719	-0.32317427
33	0x3eda5a88	0.42647195
34	0x3e85ae26	0.26109427
35	0xbeaa4fa3	-0.33263883
36	0x00000000	0.0
37	0x00000000	0.0
38	0x00000000	0.0
39	0x00000000	0.0
40	0x00000000	0.0
41	0x00000000	0.0
42	0x00000000	0.0
43	0x00000000	0.0
44	0x00000000	0.0
45	0x00000000	0.0
46	0x00000000	0.0
47	0x00000000	0.0
48	0xbe45d388	-0.19318974
49	0x3d53ea8f	0.051737364
50	0xbd7fee5d	-0.06248318
51	0x3f67fc0f	0.90618986
52	0x00000000	0.0
53	0x00000000	0.0
54	0x00000000	0.0
55	0x00000000	0.0
56	0x00000000	0.0
57	0x00000000	0.0
58	0x00000000	0.0
59	0x00000000	0.0
60	0x00000000	0.0
61	0x00000000	0.0
62	0x00000000	0.0
63	0x00000000	0.0

bn_scale_token_95 f4 [192, 1, 1, 1]
0	0x3fbd7929	1.48026
1	0x3ffaf2a3	1.9605297
2	0x3f982efe	1.1889341
3	0x3f48363b	0.7820775
4	0x3fc19e77	1.5126485
5	0x3fbe9972	1.4890578
6	0x400ea113	2.2285812
7	0x3f96ebfb	1.1790766
8	0x4007c209	2.121218
9	0x3fd7295f	1.68095
10	0x4022033b	2.5314472
11	0x4012dfaf	2.2949026
12	0x3fe1cc81	1.7640535
13	0x4027c19d	2.6211922
14	0x3fabd3aa	1.342397
15	0x3f7467cd	0.9547089
16	0x3f8b734d	1.0894562
17	0x4014ba72	2.3238797
18	0x3fafae68	1.37251
19	0x3feee842	1.866463
20	0x3f8a4ba2	1.0804331
21	0x3fe03fa0	1.7519417
22	0x40a5b59f	5.1784205
23	0x41301980	11.006226
24	0x3fe6d8b8	1.8034887
25	0x3f906211	1.1279927
26	0x4001da6a	2.028956
27	0x3f966c17	1.1751736
28	0x3fbf6171	1.4951612
29	0x3f46a72e	0.77598846
30	0x40012b94	2.0182848
31	0x3fa2a7a7	1.2707413
32	0x4030bc34	2.761487
33	0x3fdffd78	1.7499228
34	0x3febb9af	1.8416041
35	0x3f98f247	1.1948937
36	0x3fe881df	1.8164634
37	0x3f84a66d	1.0363289
38	0x40858850	4.1728897
39	0x402447b7	2.5668771
40	0x3f7b86f4	0.982528
41	0x40575e5d	3.3651345
42	0x4053ae8e	3.307529
43	0x3f65d2ad	0.8977459
44	0x408e6ced	4.4507966
45	0x3fbe592d	1.4870964
46	0x3fe26888	1.768815
47	0x40407948	3.0074024
48	0x404aee16	3.1707816
49	0x3ff07f72	1.8788893
50	0x4009c47f	2.1526182
51	0x40834bc2	4.102998
52	0x4023b621	2.5579913
53	0x401fbad6	2.4957786
54	0x3f8bcf2b	1.0922598
55	0x4010ef3f	2.2646024
56	0x3fd146b4	1.6349702
57	0x3fd4c171	1.6621534
58	0x3fe0b4cd	1.7555176
59	0x3fbcf302	1.476166
60	0x40741536	3.8137946
61	0x3fbf6de4	1.4955411
62	0x40126733	2.2875488
63	0x3fa6f1a1	1.3042489
64	0x3fdc61be	1.7217329
65	0x3fecfbce	1.8514345
66	0x415dc8d1	13.861527
67	0x401a5385	2.4113476
68	0x3fa7760a	1.3082898
69	0x3fd51440	1.6646805
70	0x402c4b4f	2.6920965
71	0x40331394	2.79807
72	0x3fae681d	1.3625523
73	0x3ff8f25a	1.944896
74	0x3f9b48c0	1.2131577
75	0x3fc8c572	1.5685256
76	0x3fd604ce	1.6720216
77	0x3f855893	1.0417656
78	0x3fa02a30	1.2512875
79	0x40759929	3.8374732
80	0x3fa98c4a	1.3245938
81	0x408d7f69	4.421803
82	0x3fb9fc17	1.4530057
83	0x3febcd3d	1.8422009
84	0x3f48f0df	0.7849254
85	0x3fcff332	1.6246092
86	0x400b9299	2.1808226
87	0x3f9462cf	1.1592654
88	0x3fc78988	1.5588846
89	0x40119811	2.2749064
90	0x3fc8a719	1.5675994
91	0x401b4bee	2.4265094
92	0x3fb5cf35	1.420386
93	0x407d9840	3.9624176
94	0x404b38fc	3.175353
95	0x405aa928	3.4165745
96	0x4000841e	2.0080638
97	0x4009c4e4	2.1526423
98	0x41d7d69c	26.97979
99	0x3f922344	1.1417012
100	0x3fb211bd	1.3911663
101	0x40115820	2.2710037
102	0x3fbf9ff4	1.4970689
103	0x3fefd88e	1.8737962
104	0x3fb4c167	1.4121522
105	0x4024c5ed	2.5745804
106	0x3f949594	1.1608148
107	0x3fe22015	1.7666041
108	0x3fc36966	1.526654
109	0x402ea6d0	2.7289314
110	0x3f9e7d46	1.238198
111	0x3fd9cb20	1.7015114
112	0x4038b851	2.8862498
113	0x3f86cd87	1.0531472
114	0x3f9117da	1.1335404
115	0x3fb6b2de	1.4273336
116	0x40020c62	2.0320058
117	0x3e8f8e3c	0.28038204
118	0x3fe7ac80	1.8099518
119	0x402391b8	2.555769
120	0x3fa557bc	1.29174
121	0x3f5e7836	0.8690218
122	0x3fbfdac9	1.4988643
123	0x3fd789e8	1.6838961
124	0x3fddd1be	1.7329633
125	0x3f8cfaaf	1.1014003
126	0x3fa7af12	1.3100302
127	0x40a28d0f	5.079719
128	0x3f8deb0a	1.1087353
129	0x3f8174be	1.0113752
130	0x3f4a6a8d	0.79068834
131	0x3fd1b930	1.638464
132	0x3f914e0d	1.1351944
133	0x407797ec	3.8686476
134	0x3fe80ce4	1.8128934
135	0x3fda0358	1.703227
136	0x3ff63f69	1.9238101
137	0x403507fd	2.8286126
138	0x3fadb968	1.3572206
139	0x3f9bbff0	1.216795
140	0x3f8dc88b	1.1076826
141	0x3fe34cd7	1.7757825
142	0x3fcc3cca	1.5956051
143	0x40185218	2.3800106
144	0x3fb1017b	1.3828577
145	0x40526942	3.2876744
146	0x3f9ef036	1.2417057
147	0x40499d98	3.1502438
148	0x400de5a8	2.217142
149	0x4055b9fc	3.3394766
150	0x40461c62	3.0954823
151	0x3fabc5c3	1.3419727
152	0x3fc0de84	1.5067906
153	0x406a5ebb	3.662032
154	0x405dde25	3.4666836
155	0x40702a5c	3.7525854
156	0x4038b156	2.8858237
157	0x3f9248be	1.1428449
158	0x4048800c	3.1328154
159	0x3fab06f2	1.3361495
160	0x40a98b44	5.29825
161	0x40405240	3.0050201
162	0x3f80138b	1.0005964
163	0x3fd1986c	1.637464
164	0x409b5144	4.85367
165	0x3fc55bd3	1.5418648
166	0x3f8aaf3c	1.0834727
167	0x3fe93008	1.8217783
168	0x401a2565	2.4085324
169	0x404426c6	3.0648665
170	0x40289cf6	2.6345801
171	0x400d0204	2.203248
172	0x3f983d60	1.189373
173	0x3feb97e6	1.8405731
174	0x3fdd721e	1.7300451
175	0x3fb1a815	1.387942
176	0x3fde6a72	1.7376235
177	0x402b350a	2.6751122
178	0x4013df44	2.310502
179	0x3f87d408	1.0611582
180	0x405328c2	3.2993627
181	0x3f618a1c	0.88101363
182	0x3f61128f	0.87918943
183	0x3fc562cd	1.5420777
184	0x403f5c0e	2.9899936
185	0x4037f0ac	2.8740644
186	0x4003820e	2.054813
187	0x3fbd316e	1.478071
188	0x3fc53ec6	1.5409782
189	0x4013dbe8	2.310297
190	0x3fbdff5d	1.4843556
191	0x3fb9c5f6	1.4513538

reorder_token_18 f4 [16, 48, 1, 1]
0	0x3cca644d	0.02470603
1	0x3d211c7c	0.039333805
2	0xbe42c42d	-0.19020148
3	0x3c6f8a7e	0.014620421
4	0xbd8d91d7	-0.06912582
5	0xbcf6c7ea	-0.030124623
6	0x3e7ad182	0.24493983
7	0x3d6cf9d2	0.057855435
8	0xbc71d66b	-0.014760594
9	0xbe79186f	-0.24325727
10	0x3d645dad	0.0557534
11	0x3bc400ce	0.0059815412
12	0xbdd06138	-0.10174793
13	0x3cc633a4	0.024194546
14	0xbde5f511	-0.11228383
15	0x3e5a1d80	0.21300316
16	0x3c93af06	0.018027794
17	0xbe8f9513	-0.28043422
18	0xbd0e6ebb	-0.03477357
19	0xbd678689	-0.056524787
20	0xbdab20bd	-0.08355854
21	0xbe94eff9	-0.29089335
22	0x3ee6341e	0.44961637
23	0x3e397462	0.18110803
24	0xbd0b867c	-0.0340638
25	0xbdf9b104	-0.12191966
26	0x3c2bfd36	0.010497382
27	0x3ccbb02b	0.024864277
28	0xbdb436cf	-0.087995164
29	0x3e02d543	0.12776665
30	0x3d3985d2	0.045293637
31	0x3e74b015	0.23895295
32	0xbcc7dd7c	-0.024397604
33	0xbd8cc472	-0.068734065
34	0xbeac37ff	-0.33636472
35	0xbc986b22	-0.018605772
36	0x3da79a3d	0.081837155
37	0x3b5b5ea5	0.003347316
38	0xbddac858	-0.10682744
39	0xbb17cf53	-0.0023164346
40	0x3c964bfe	0.018346783
41	0xbe837312	-0.2567373
42	0x3cecde27	0.028914524
43	0xbdac3576	-0.08408634
44	0xbd8b0dce	-0.067897424
45	0xbdab0a4e	-0.08351575
46	0xbe40e979	-0.18839063
47	0x3e4b9ab8	0.1988324
48	0xbb9e9c92	-0.004840442
49	0xbe447336	-0.19184574
50	0x3d5d9d82	0.05410529
51	0xbd171244	-0.036882654
52	0x3dd6373b	0.10459753
53	0x3e1faada	0.15592518
54	0xbe122f77	-0.14275919
55	0xbe21c26e	-0.15796825
56	0xbdc26cc3	-0.09493401
57	0x3df3ebcb	0.11910208
58	0x3dfa29c7	0.12215
59	0xbdb001e2	-0.08594109
60	0x3c4458bc	0.011984047
61	0xbda13a49	-0.07872445
62	0x3cfc4f4c	0.03079953
63	0xbe24cba7	-0.16093312
64	0x3de81f3c	0.113340825
65	0xbe794997	-0.24344479
66	0x3e206123	0.15662055
67	0xbe2b9a18	-0.16758001
68	0x3e1c834b	0.1528446
69	0xbe03aaaa	-0.12858072
70	0x3eafb6c6	0.34319133
71	0x3c0d743e	0.008633671
72	0xba4f07a2	-0.0007897561
73	0xbd263651	-0.040579144
74	0x3c9d8471	0.019228192
75	0xbd1c3d9e	-0.0381447
76	0xbe930bb9	-0.2871988
77	0xbe37430a	-0.17896667
78	0x3cc9b4c2	0.024622325
79	0x3d7e4960	0.062081695
80	0x3c269535	0.01016741
81	0x3e1fab31	0.15592648
82	0xbd990c3e	-0.07473038
83	0x3db107d2	0.0864407
84	0xbe298d74	-0.16557866
85	0xbc57d542	-0.013173403
86	0x3e6c73a7	0.23090993
87	0xbc486b2c	-0.012232583
88	0xbe1bbec0	-0.15209484
89	0x3dfd7c86	0.123772666
90	0x3e048a96	0.12943491
91	0xbdd355cb	-0.10319098
92	0xbe207a68	-0.15671694
93	0xbd79c2ec	-0.060976908
94	0x3d526ec2	0.051375158
95	0x3ded636a	0.11591227
96	0x3ad950e5	0.0016579895
97	0xbd74a183	-0.059724342
98	0xbd8f6b43	-0.070028804
99	0xbdba8a78	-0.09108442
100	0x3d657341	0.056018118
101	0xbe8a89bc	-0.27058208
102	0x3e462985	0.19351776
103	0x3cfff81f	0.031246243
104	0xbc6594e2	-0.014012547
105	0xbdf752ae	-0.12076317
106	0xbd23e2d4	-0.040011242
107	0xbac24a09	-0.001482309
108	0xbe4526c6	-0.19253072
109	0xbe223afc	-0.15842813
110	0xbdd73656	-0.10508411
111	0x3e01ef07	0.12688838
112	0xbdb0095c	-0.08595535
113	0xbd2a1a62	-0.041529067
114	0xbe30551d	-0.17219968
115	0x3c1fde29	0.009757557
116	0x3d0e3fd0	0.034728825
117	0x3e2649dd	0.16239114
118	0x3e8e6fff	0.2781982
119	0xbdc98d15	-0.098413624
120	0xbcc28af4	-0.023747899
121	0xbdddde3c	-0.108334035
122	0x3de43de1	0.11144615
123	0xbd21c8a9	-0.039498005
124	0x3d9803a9	0.07422573
125	0xbd6002b7	-0.05469009
126	0xbd85cf81	-0.06533719
127	0xbda97204	-0.082737
128	0x3e1455d5	0.14485867
129	0x3ca6a9f6	0.020344716
130	0xbe30d80f	-0.1726992
131	0xbdf1ea67	-0.11812287
132	0xbe548fe8	-0.20758021
133	0xbeabf7ea	-0.3358758
134	0x3e73c0f4	0.23804075
135	0x3e7f2d78	0.24919689
136	0xbc76fe77	-0.015075318
137	0x3d0235a7	0.031789448
138	0xbdaac076	-0.0833749
139	0x3d5034d6	0.05083164
140	0xbdad5a17	-0.08464449
141	0xbe165028	-0.14679015
142	0xbddac5d0	-0.10682261
143	0xbdb61d3e	-0.08892296
144	0xbc4680a0	-0.0121156275
145	0xbe819e59	-0.25316122
146	0x3de852a3	0.11343887
147	0xbc56e6cd	-0.013116551
148	0x3d84c844	0.0648351
149	0x3bf48175	0.0074617215
150	0xbdd42752	-0.10359062
151	0xbe2114e9	-0.15730633
152	0xbdd5c0ec	-0.104371876
153	0xbd8a26c0	-0.06745672
154	0xbcb0a6cf	-0.021563916
155	0x3c9ea9ba	0.019368041
156	0xbe3f7ebc	-0.18700689
157	0xbe09f34e	-0.1347172
158	0xbc31d357	-0.01085361
159	0x3e8a801e	0.2705087
160	0x3de6d99b	0.11271974
161	0xbeb58ee6	-0.35460585
162	0xbea87323	-0.32900342
163	0x3e3c4430	0.18385386
164	0x3f3fe543	0.749592
165	0xbe06cd8e	-0.1316435
166	0x3efdf61d	0.49601832
167	0x3d60f141	0.054917578
168	0xbbd282a4	-0.006424265
169	0xbc8db32b	-0.017297348
170	0xbdeace7f	-0.11465167
171	0x3e908146	0.28223628
172	0xbe1bc7af	-0.15212892
173	0x3dc87011	0.09787
174	0x3e1cd955	0.1531728
175	0x3ecac5a8	0.39603925
176	0xbe34006b	-0.17578284
177	0xbd9be366	-0.07611732
178	0xbe333678	-0.17501247
179	0x3e3eb284	0.18622786
180	0xbcab42b3	-0.020905828
181	0xbf01c2f7	-0.5068812
182	0x3e8edef1	0.27904466
183	0xbc81098c	-0.015751623
184	0x3cedc97c	0.02902674
185	0xbe8ccd00	-0.27500153
186	0x3d5eae54	0.05436547
187	0x3d848438	0.06470531
188	0x3db8d654	0.09025255
189	0xbe16b7a9	-0.14718498
190	0xbd91039a	-0.07080765
191	0xbe512e90	-0.20427918
192	0x3c6cd058	0.01445397
193	0xbe74ef4d	-0.23919411
194	0x3e5cd23b	0.21564572
195	0x3d8a2da9	0.0674699
196	0xbccf3874	-0.025295474
197	0x3e54f17d	0.20795245
198	0x3da9fac1	0.08299781
199	0x3c86a527	0.016436173
200	0xbd8dbcdc	-0.06920788
201	0x3d523cf6	0.051327668
202	0xbc9ceab1	-0.019154878
203	0x3b8606cf	0.004090167
204	0xbde3b410	-0.111183286
205	0x3c860efb	0.016364565
206	0x3d503251	0.050829235
207	0x3e9b4986	0.3032953
208	0x3d27688d	0.04087119
209	0xbe322707	-0.173977
210	0xbd6102d5	-0.05493434
211	0xbd9b3b3d	-0.07579658
212	0xbde27f9d	-0.110594966
213	0x3df3e558	0.11908978
214	0x3e36758b	0.17818277
215	0xbd8a8911	-0.067644246
216	0xbddede6f	-0.108822696
217	0xbde0de29	-0.10979874
218	0x3d959d8e	0.07305442
219	0xbe017a3f	-0.1264429
220	0xbded029c	-0.11572763
221	0xbd4ed77e	-0.050498478
222	0x3d4d8ea5	0.050184865
223	0x3d5bb50f	0.053639468
224	0xbdd12b03	-0.10213282
225	0xbe8870f7	-0.26648685
226	0xbd9a68c1	-0.075395115
227	0x3d7a8bc2	0.06116844
228	0x3da34d8a	0.07973774
229	0xbe98be9b	-0.2983292
230	0x3f04411b	0.51661843
231	0xbc339c59	-0.010962569
232	0xbc88f479	-0.016718136
233	0xbe29bc61	-0.16575767
234	0xbbf9d888	-0.0076246895
235	0x3e2cfb2a	0.16892686
236	0x3e2cb4c2	0.16865829
237	0x3cc5e241	0.024155738
238	0xbb8ca476	-0.004292066
239	0xbe185e1e	-0.14879653
240	0x3d2f0ef0	0.042738855
241	0xbe3c3c3c	-0.18382353
242	0xbc6b38d2	-0.014356809
243	0xbe394b0d	-0.18095036
244	0xbe410c22	-0.18852285
245	0xbda407a3	-0.08009269
246	0x3e4d4a95	0.20047982
247	0x3de1df76	0.1102895
248	0x3cfe54d8	0.031046316
249	0xbe7f28f0	-0.2491796
250	0xbce2a3c8	-0.027665988
251	0xbc32ae06	-0.010905748
252	0xbc1a1753	-0.009404975
253	0xbc8b6941	-0.017017962
254	0xbe3c82c4	-0.18409258
255	0x3d55b8ec	0.05217831

reorder_token_102 f4 [384, 64, 1, 1]
0	0xbd7cf855	-0.061760265
1	0x3d21a967	0.039468195
2	0xbce4c6ee	-0.027926888
3	0xbc2de595	-0.010613819
4	0xbcf951e1	-0.03043455
5	0xbbed281d	-0.007237448
6	0x3c5525dc	0.013009515
7	0x3dafabe2	0.08577706
8	0x3a517b22	0.00079910655
9	0xbbd14623	-0.006386535
10	0x3c168fc5	0.009189551
11	0x3d0c9719	0.034323785
12	0x3ce90b34	0.028447725
13	0xbb151a57	-0.0022751295
14	0x3d8a7da5	0.06762246
15	0x3a9a217b	0.0011759246
16	0x3d80ce83	0.06289389
17	0x3cd4a2ce	0.025956538
18	0x3c87bfcf	0.016570954
19	0xb832a433	-4.259143e-05
20	0x3e14c3e6	0.14527854
21	0x3c688979	0.014192932
22	0x3d27f4a6	0.0410048
23	0x3d8d9182	0.06912519
24	0x3c4e5745	0.012594049
25	0x3cc5ceec	0.02414652
26	0x3b2154b7	0.0024617144
27	0x3bbc3d06	0.0057445792
28	0x3da42008	0.08013922
29	0x3d10ed1b	0.03538237
30	0x3d10b14f	0.035325345
31	0xbd910fc2	-0.07083084
32	0x3e2ef4dd	0.17085595
33	0x3dbca59b	0.09211274
34	0xbc69cc0e	-0.014269842
35	0xbcc1a595	-0.023638526
36	0xbdb1087e	-0.08644198
37	0xbbce22db	-0.006290776
38	0x3cff5d46	0.031172406
39	0xba48b603	-0.00076565164
40	0x3c63b0bc	0.013897117
41	0x3cd29d45	0.025709758
42	0x39a73e6a	0.00031899224
43	0xbc1d16a7	-0.00958792
44	0xbdc9f531	-0.0986122
45	0x3e26229d	0.16224141
46	0x3e12e1f0	0.14344001
47	0xbd2bb454	-0.04192002
48	0xbd87c8b2	-0.066300765
49	0xbca00e1f	-0.019537983
50	0x3c577785	0.013151054
51	0x3b758574	0.0037463577
52	0x3d6fad18	0.058514684
53	0xbb5203f6	-0.0032045818
54	0xbd84272c	-0.06452784
55	0xbb9f7999	-0.0048667905
56	0x3c438a82	0.011934878
57	0x3d0584aa	0.03259722
58	0xbca05134	-0.01956997
59	0x3c46fcfc	0.012145277
60	0xbd05edcc	-0.032697484
61	0x3cc1341c	0.023584418
62	0xbdca392b	-0.09874185
63	0xba327186	-0.00068070774
64	0xbda89eed	-0.08233438
65	0x3d350b94	0.044200495
66	0x38dab3f6	0.000104285704
67	0x3c959692	0.018260274
68	0x3e064d2a	0.13115373
69	0x3d13f0cb	0.03611831
70	0xbc9fa4ec	-0.01948782
71	0xbd0e81aa	-0.034791626
72	0x3bda8556	0.006668727
73	0xba777c8a	-0.000944086
74	0x3aa1d908	0.0012348006
75	0x3c232fc6	0.009960121
76	0xbc8fdeb8	-0.017562255
77	0x3ce8855c	0.028383903
78	0x3d922aa1	0.07137037
79	0x3d4025a9	0.046910916
80	0x3d24a11c	0.04019271
81	0xbcc47c50	-0.023985058
82	0x3d5a5950	0.05330783
83	0x39a1784c	0.0003079794
84	0x3e222faa	0.15838495
85	0x3d1adbb2	0.037807174
86	0xbcced253	-0.025246775
87	0xb9c9d187	-0.00038493818
88	0x3b121e38	0.0022295844
89	0x3c15f048	0.009151526
90	0xbb07e83d	-0.002073779
91	0xba40b328	-0.0007350915
92	0x3c84dbcb	0.016218087
93	0x3ca2721c	0.019829802
94	0xbc3bd8e9	-0.01146529
95	0xbdaee6ce	-0.08540116
96	0xbda1a7a0	-0.078933
97	0xbda75a9b	-0.081715785
98	0xbc5d7c84	-0.013518456
99	0xbcce3616	-0.025172275
100	0xbd94e7f9	-0.07270808
101	0xbd4efecf	-0.050535973
102	0xbd1d95fd	-0.038473118
103	0xbd0457c5	-0.032310266
104	0xbbb95b33	-0.0056566237
105	0x3ca03caf	0.019560186
106	0xbc5c8742	-0.013459982
107	0xbc5e02b3	-0.013550448
108	0xbd89013a	-0.06689687
109	0xbc02c293	-0.00798096
110	0x3d0e165a	0.034689285
111	0xbcaa023f	-0.020753024
112	0x3e52a545	0.20570858
113	0x3c2a5480	0.010396123
114	0x3d84dfa1	0.06487966
115	0x3d4825b7	0.048864093
116	0x3d2cd6a4	0.042196885
117	0x3cab0074	0.02087424
118	0x3d0593ad	0.032611538
119	0x3d4a4691	0.049383704
120	0x3d27b1be	0.040940993
121	0x3ca53681	0.020167591
122	0x3c5bbe1c	0.013412025
123	0x3c4a2ce9	0.012339809
124	0x3dd81585	0.105509795
125	0x3d393fa0	0.045226693
126	0x3d128e1f	0.03578007
127	0x3dd1b543	0.10239651
128	0x3c0f1cbf	0.008734881
129	0xbbb6da8d	-0.0055802525
130	0x3d8f321a	0.06991978
131	0xb9fa9424	-0.0004779409
132	0x3de6eb9a	0.11275406
133	0x3d9ed008	0.077545226
134	0xbc1c8263	-0.009552571
135	0xbcdaca8a	-0.026707906
136	0x3c87b5c8	0.016566172
137	0xbc1fe419	-0.009758973
138	0x3b319fdf	0.0027103347
139	0xbb6bf8f9	-0.0036006554
140	0x3d53e93f	0.051736113
141	0xbc394911	-0.011308924
142	0x3d55a30a	0.05215744
143	0xb99ff6c4	-0.00030510698
144	0x3e141071	0.14459397
145	0x3c63979e	0.013891129
146	0xbbc5a177	-0.006031211
147	0xbbecb85c	-0.007224126
148	0xbd31ae29	-0.043378983
149	0xbc818de5	-0.01581473
150	0x3c276c44	0.010218684
151	0x3c3419c9	0.010992476
152	0x3c29874e	0.010347201
153	0xbcd9f57e	-0.026606318
154	0x3b77b251	0.0037795494
155	0x3c4d5f48	0.012534924
156	0x3c459dc8	0.012061544
157	0xbd00eb85	-0.03147461
158	0xbd8bfc20	-0.068351984
159	0xbd5b218e	-0.053498797
160	0x3dc0136f	0.09378707
161	0xbc9706db	-0.018435886
162	0x3bf2a994	0.007405469
163	0x3ce36934	0.027760126
164	0x3e03d597	0.12874447
165	0x3ccf20e7	0.025284244
166	0x3b916c7a	0.0044379802
167	0x3dfc2c3e	0.12313126
168	0x3d00eff2	0.03147883
169	0x3cf74ef2	0.030189011
170	0x3b04c93b	0.0020261544
171	0x3ccfe44f	0.02537742
172	0xbaf97b6b	-0.0019033974
173	0x3985a875	0.00025493247
174	0x3dbdb78d	0.09263525
175	0x3d98cfb4	0.07461491
176	0x3cf722e8	0.030168012
177	0xbdc6a29a	-0.096989825
178	0x3d266a6a	0.040628828
179	0x3cb4a928	0.022053316
180	0x3db894e7	0.09012776
181	0x3b977b5b	0.0046228594
182	0x3d3ee982	0.04660941
183	0x3d54a19c	0.051911935
184	0x3c78a0fd	0.015175101
185	0x3bad143e	0.005281954
186	0xba9588e6	-0.0011408597
187	0x3c910fc2	0.01770771
188	0x3c0937ca	0.008375118
189	0x3d6f49b6	0.058419906
190	0x3d9968df	0.07490706
191	0x3b69bb87	0.0035664754
192	0x3d21139e	0.03932535
193	0x3de4dffd	0.11175535
194	0xbc987c1e	-0.018613871
195	0xbd30fae9	-0.043208037
196	0x3ceca792	0.028888498
197	0xbd250e72	-0.04029698
198	0xbd2a157f	-0.041524407
199	0xbd92652e	-0.07148205
200	0xbd23c4ba	-0.039982535
201	0xbc8fadcc	-0.017538927
202	0xbba1d95b	-0.004939241
203	0xbd0e11fe	-0.034685127
204	0xbdc580d6	-0.09643714
205	0xbd3dcb67	-0.046336558
206	0xbdb7a632	-0.08967246
207	0x3d808142	0.06274654
208	0xbaebfab9	-0.0018003798
209	0xbcb0b3b7	-0.02157007
210	0x3c95ca24	0.018284865
211	0xbacc9696	-0.0015608843
212	0x3dcd6835	0.100296415
213	0x3b81b3f5	0.00395822
214	0x3cff6140	0.031174302
215	0x3c0acc6e	0.008471591
216	0x3b53102d	0.0032205686
217	0x3d1307d8	0.035896152
218	0x3bc1f641	0.0059192483
219	0x3bbd9d52	0.0057865763
220	0x3b579606	0.0032895817
221	0xbca4ac24	-0.020101614
222	0x3d7ccf0f	0.061720904
223	0xbcc93dc9	-0.024565594
224	0x3dc97778	0.0983724
225	0xbd1abd14	-0.037777975
226	0x3cc2cca5	0.023779223
227	0x3c8be221	0.0170756
228	0xbdc4bde8	-0.09606534
229	0xbd49cee1	-0.04926956
230	0x3ce9d5d3	0.028544342
231	0xbcf62581	-0.03004718
232	0xbbba2d0a	-0.0056816386
233	0xbc7ec51a	-0.015549922
234	0x3c58eaf2	0.013239609
235	0x3ca44d4a	0.020056386
236	0x3c408826	0.01175121
237	0xbceeba65	-0.029141614
238	0xbc03bf03	-0.008041146
239	0x3daa4977	0.083147936
240	0x3d72bb20	0.059260488
241	0xbc9283de	-0.017885145
242	0xbd4585c3	-0.04822327
243	0xbc74629e	-0.01491609
244	0xbd3043a1	-0.043033246
245	0xbcf711b6	-0.030159812
246	0xbd3d1027	-0.046157982
247	0x3cc154f0	0.023600072
248	0xbc7c3623	-0.015393767
249	0xbc8bfbba	-0.017087806
250	0xbbfa1182	-0.0076314816
251	0xbcd0450f	-0.025423555
252	0x3cad882d	0.021183098
253	0xbc07ada2	-0.008281143
254	0x3d786a81	0.060648445
255	0xbd8c26a3	-0.06843307
