MauiDemo/Resources/Raw/.onnx (onnx, 595717 bytes, 87 tensors)

model_ianet.in_conv.0.conv.3.bias f4 [16]
000000 d8 06 e0 be 0a a2 a3 be ce 9d 44 3f d0 91 ad 3c
       -0.4375522 -0.31959563 0.7680329 0.021187693
000010 64 fd a4 3e 13 1b a9 3e c6 15 73 3e 13 77 8a be
       0.32224572 0.33028468 0.23738775 -0.2704397
000020 e3 70 b8 be 69 c7 09 bf 80 0a e9 3e c2 7e 36 bf
       -0.36023626 -0.538199 0.45515823 -0.7128717
000030 cc 79 17 be 60 b5 0e 3f 47 e5 35 3f a3 33 d2 3d
       -0.14792556 0.55745506 0.71052974 0.10263755

reorder_token_77 f4 [32, 192, 1, 1]
000000 f0 b2 68 3d ec 02 d6 3b d9 6f 86 3d 00 4f 83 3d
       0.056811273 0.00653111 0.06564302 0.064115524
000010 32 80 e3 bc b1 93 b2 bc 85 26 8e 3b 32 8b d9 bb
       -0.02777109 -0.02179894 0.004338088 -0.006638908
000020 d1 7b 01 bd fb 63 ac 3c 64 96 d1 3d b4 a5 0a bc
       -0.03161222 0.021043768 0.10233763 -0.008462358
000030 21 94 22 3d ee 28 9c bc 54 3a 34 bd 2d f7 18 3c
       0.039692048 -0.019062486 -0.04400094 0.009336275
000040 33 e7 ad 3b 85 7a 35 bc f9 01 98 bd 34 36 7d bb
       0.005307102 -0.011076574 -0.07422251 -0.0038637044
000050 5e b0 80 3b d1 6e ef 3c 3e df 5e 3d 25 6d 74 bb
       0.0039272746 0.029227646 0.05441212 -0.00372965
000060 9a da 86 bc 74 e8 b2 3b ef 15 a4 3d 71 2d 4c 3c
       -0.01646166 0.0054598395 0.08011996 0.012462006
000070 d9 a3 bc 3b de 2f 86 39 c2 c3 10 ba 42 ff c0 bb
       0.005756837 0.00025594136 -0.0005522334 -0.005889804
000080 d3 8e 01 bd 51 d6 44 bc 34 1f b2 bb 1c ba 08 bd
       -0.03163035 -0.012013988 -0.0054358486 -0.033380613
000090 b9 35 fc 3c 92 ae e4 3c 15 bc c0 3c 69 de ef bb
       0.030787336 0.027915273 0.023527185 -0.0073202145
0000a0 9f f4 06 3b 9e 9d 33 bc c1 21 26 bc 63 3e ab bd
       0.0020592583 -0.010962872 -0.0101398835 -0.08361509
0000b0 ea b3 16 3d f4 47 53 3d 98 30 c0 3c c9 bc ee bc
       0.036792673 0.05158229 0.023460671 -0.029142754
0000c0 98 a8 b2 3b 7d 27 1b bd dc 5c 83 bd 26 c8 06 3d
       0.005452227 -0.037879456 -0.06414196 0.03290572
0000d0 b1 e4 68 bc 81 8d 71 3c 00 8b 84 3d eb fd 0d 3c
       -0.0142146805 0.01474321 0.06471825 0.008666496
0000e0 fd 40 60 3c ea fb e9 39 dd a8 d3 3c b2 8c e1 3c
       0.013687369 0.00044628914 0.025837356 0.027532909
0000f0 01 2c 15 bc 24 c5 b9 3b 50 21 c3 bc d3 3d 76 bc
       -0.00910473 0.005669253 -0.023819596 -0.0150293885
000100 ec b7 4f 3c a6 e1 72 bc 10 99 56 3d f7 94 01 bd
       0.012678128 -0.014824307 0.052392066 -0.031636205
000110 82 b2 56 3c 7c 5c 3c bc f0 2c 55 bc 59 8a 71 bc
       0.013104083 -0.011496659 -0.013011202 -0.014742457
000120 a8 f5 d9 3b 7f 48 19 3d ee 70 91 3c e2 19 29 3d
       0.006651599 0.037422653 0.017754044 0.04128445
000130 97 99 2e 3d 35 c7 7f bc a7 e2 8f 3c 01 5c a2 3b
       0.042626943 -0.0156114595 0.017564131 0.0049548154
000140 30 d6 8d 3c 09 0c 5f 3b b4 08 6f bc d4 b3 1e bd
       0.017314047 0.0034034273 -0.014589477 -0.038745716
000150 f7 5c 49 3c 61 45 0d bc 03 0e ad bd 74 7f e7 3c
       0.012290231 -0.008622498 -0.08449938 0.028259017
000160 43 fa fd bc f3 a5 77 3c f8 db 07 3d 6e 62 dc b9
       -0.031003123 0.015115249 0.033168763 -0.00042035006
000170 b6 92 16 3d 71 b1 63 bc ef 18 02 bd 9f 57 1b 3c
       0.03676101 -0.013897286 -0.03176206 0.00948134
000180 e1 d3 96 bc 88 4b 2b bb dd 83 16 3d f1 2e 06 bc
       -0.018411579 -0.002613755 0.03674685 -0.008189903
000190 88 e9 ef 3b 84 e5 b8 bb e3 e1 33 bc 9c e9 11 bc
       0.0073215403 -0.005642595 -0.010979149 -0.0089057945
0001a0 e2 16 5d bd b5 27 b0 3c 79 78 a1 3d b9 3a 8f 3d
       -0.0539769 0.021503309 0.078843065 0.06993622
0001b0 43 55 cb 3c e2 38 4f bc bc eb 26 3d 56 22 bd 3a
       0.02482093 -0.012647839 0.040752158 0.0014429789
0001c0 9d 02 65 bc 7c 9d 85 bc 40 fc 72 bc 59 d5 d7 3c
       -0.013977674 -0.016310446 -0.014830649 0.02634685
0001d0 c8 c4 ea 3b 00 eb 86 3c fc 85 a0 3c bc 14 d1 3b
       0.0071645714 0.016469479 0.019595139 0.0063806456
0001e0 ae ec 3e bd f6 c2 c0 3c 7b 62 bf 3c 53 6e 20 bc
       -0.046612434 0.023530465 0.023362389 -0.009791928
0001f0 0e f8 e2 3c 8c 6c a7 bc c5 14 20 bc 7a 3f 46 bb
       0.027706172 -0.020437501 -0.009770577 -0.0030250237
000200 7e b0 99 bd 60 1b a7 3c 75 5c 3a 3d db 21 4c 3d
       -0.07504366 0.020398796 0.04549833 0.049836975
000210 c8 04 ce 3c cb 41 88 bc 07 50 09 bd 86 24 89 3c
       0.025148764 -0.016632935 -0.033523586 0.016741049
000220 cb 9d 38 bd 86 4d 47 3b ee 57 3e 3d 08 f4 0a bb
       -0.045072358 0.0030411198 0.046470575 -0.0021202583
000230 94 1a 26 3d be 2e 4a bb 64 49 99 3a df cc 8b 3b
       0.04055269 -0.0030850614 0.0011694846 0.004266366
000240 24 86 93 bb c2 4c 06 bc 1a 11 e6 bb 6a 9d 2e bd
       -0.004502075 -0.008197011 -0.0070210816 -0.04263059
000250 38 bf a2 3b 25 60 0d 3c 0f 4c 19 3d 1a 60 60 bc
       0.0049666427 0.00862888 0.03742605 -0.013694787
000260 22 79 e5 bb 64 eb 8b b9 56 a8 3e bd 19 f2 d5 3b
       -0.0070029655 -0.00026687526 -0.046547256 0.0065291044
000270 5d 50 15 3b 8b 4e 08 3c 7b f3 3a 3d 87 82 2d bc
       0.0022783496 0.008319507 0.045642357 -0.010590202
000280 8e f1 1c 3d d8 7d a6 bc e0 6c 23 bd ae 95 96 3c
       0.038316302 -0.020323679 -0.039898753 0.01838192
000290 97 30 3e bd be 6f d3 3c 27 f9 14 3d c7 fe fd bc
       -0.046433058 0.025810119 0.036370423 -0.031005276
0002a0 7a 85 f5 bc 10 54 f0 bb 1a b4 3d 3d 3e f1 18 3b
       -0.029970873 -0.00733424 0.046314336 0.002333715
0002b0 7c e5 bc 3c dc b1 3d 3c 73 ca 8b bc b6 36 e8 bb
       0.023058645 0.0115780495 -0.017064309 -0.0070866
0002c0 2f 5a d7 3b ac 9f 24 bc 64 35 7c 3d 37 35 4a bd
       0.00657203 -0.010047834 0.061574355 -0.049367156
0002d0 2f f2 e2 bb b2 24 ff 3b 3a f9 6e 3c f4 1b 82 bc
       -0.006925843 0.007786357 0.014585787 -0.01588247
0002e0 de 41 5a 3d 48 44 91 bc 61 1e c3 bd 00 0b 0a 3d
       0.053285472 -0.017732754 -0.09527279 0.033701897
0002f0 5d 8a 6c bb dd d3 18 3d bb 6e cc 3d a1 68 07 bc
       -0.0036093213 0.037311424 0.09982058 -0.008264692
000300 fe ce 3a ba ec c5 8e 3a 0b 7b 3d bc 24 4e 9c 3c
       -0.0007126181 0.0010892726 -0.01156498 0.01908023
000310 f0 83 88 3c da ba dd bb df bf b0 bc ac fe 06 bc
       0.016664475 -0.006766659 -0.021575866 -0.008239429
000320 50 cc ad bc c8 c8 02 3c 52 08 d8 3c ba 4e b4 bb
       -0.021215588 0.00798244 0.026371155 -0.005502549
000330 9d c0 07 3c df b5 16 3b ef 3e 6e bc 73 a6 f6 bb
       0.008285669 0.0022996587 -0.014541372 -0.0075271665
000340 56 21 96 3c 84 d5 5b bc b7 6a 04 bd 75 ae 5a 3d
       0.018326443 -0.013417605 -0.032328334 0.05338903
000350 e0 be 76 3c 14 46 b3 3a fc b0 ae 3d c0 f5 4b bc
       0.015060157 0.0013677501 0.08529851 -0.012448728
000360 67 25 3a bd b7 94 80 3b 8e ef a2 3d bf db b7 3b
       -0.045445826 0.003923978 0.07955848 0.0056109126
000370 25 89 99 3c a9 23 c4 3a c7 57 3b bc d0 eb 1a bc
       0.018742153 0.0014964241 -0.011434502 -0.009455636
000380 09 ad e4 bc 6b 7a 11 3d bf 79 3c 3d 20 b2 37 bd
       -0.02791454 0.035517137 0.046014544 -0.044847608
000390 85 c1 db 3c 88 02 78 bc 46 34 8f bd 18 86 ca 3c
       0.026825676 -0.015137322 -0.06992392 0.024722144
0003a0 1b 6a 6c 3b ca b2 1f bd 38 3e 8e bd 52 91 1a 3d
       0.0036073986 -0.038988866 -0.06945461 0.037736244
0003b0 10 f8 b6 bc f4 a2 7a 3c ac 25 a5 3d 86 2c fc bb
       -0.022335082 0.01529764 0.08063826 -0.0076957373
0003c0 00 d7 81 3b 59 72 6e 3c 03 f3 b2 bd 8a 16 85 3d
       0.0039623976 0.01455363 -0.08737757 0.064984396
0003d0 05 15 04 3d 6e 37 f9 bc 10 8f fc bc cb c5 f3 3c
       0.03224661 -0.030421939 -0.030829936 0.029757401
0003e0 b4 b2 20 bc 32 fa a9 bb 20 20 54 3d 5b 8e 7b 3c
       -0.009808231 -0.0051872963 0.05178845 0.015353764
0003f0 d1 03 ca bb 33 0c 0a bc af 0d c2 bc 8f df 04 bc
       -0.0061650057 -0.00842576 -0.023688165 -0.008109941

reorder_token_91 f4 [192, 32, 1, 1]
000000 45 a1 aa 3d 0e 60 33 bd fb bf 49 3e 4e 0a 12 be
       0.08331541 -0.043792777 0.19702141 -0.14261743
000010 af 92 2a bd ca e4 8a 3d 89 49 3a 3d 85 41 a0 bd
       -0.041643795 0.06781919 0.045480285 -0.07824997
000020 ec 35 2a 3c 5c cb 05 bd ec 50 2c 3d 68 ae 3e bd
       0.010388833 -0.03266464 0.04206936 -0.046553046
000030 c9 3b 0f 3d 14 11 80 bd 27 78 83 3d 3d 99 0e 3d
       0.034969125 -0.062532574 0.064194016 0.03481411
000040 f0 ad c4 3c 5b 97 fc bd 0b 02 80 3b ce be 97 bc
       0.024008721 -0.12333556 0.0039064935 -0.0185236
000050 05 54 b9 bd 41 f2 91 3c 22 61 dd 3d c2 9d 84 3d
       -0.090492286 0.017815711 0.10809542 0.064754024
000060 e6 d3 9c bb 69 c8 f7 bc 3c 36 ac 3b d8 ca a2 bd
       -0.0047860024 -0.03024693 0.0052554887 -0.079488456
000070 67 63 f9 bd f8 09 51 bc 71 de 23 bc 06 67 20 be
       -0.121771626 -0.012758724 -0.010001765 -0.156643
000080 a5 57 a6 3c 58 63 e9 3c 17 8f 75 3d 3b 44 57 bd
       0.020305464 0.028489754 0.059950914 -0.052555304
000090 99 1c 1d bc cf df 87 3d 96 1f 7d bd 38 93 8c 3b
       -0.009589338 0.06634485 -0.0617977 0.004290011
0000a0 3a ae 4f bd 88 50 b1 3d a1 7c cc 3c b4 c8 4e bd
       -0.050703265 0.08657938 0.024961771 -0.050484374
0000b0 26 62 41 3d 73 76 d9 bc af f9 16 3c 96 03 43 be
       0.047212742 -0.026545739 0.009214803 -0.19044337
0000c0 6b bb 7d 3d 85 96 e6 bd bf cb b7 bd ac fd 28 3d
       0.061946314 -0.11259178 -0.08974408 0.041257545
0000d0 c6 56 f1 bd 2a 2f af bb 3a 86 dd 3c 22 c8 af 3d
       -0.11784129 -0.0053461986 0.027041543 0.08583094
0000e0 4d fd ea bd 2b 3a 83 3b e6 c9 0b be 23 12 96 3c
       -0.114740945 0.004004737 -0.13651237 0.018319195
0000f0 dc c9 1e bc 6d 6a 54 bd 19 cd ce 3b 8b 7c ed bd
       -0.009691682 -0.051859308 0.0063110706 -0.1159602
000100 b0 75 4e be c2 9b c1 bc a1 a9 8f 3d 53 01 54 3d
       -0.20162082 -0.023633841 0.07014776 0.051759075
000110 ec 51 45 3c 57 0c 82 3c 1a 1e 5c bd 61 57 c7 bd
       0.0120434575 0.015875025 -0.053739645 -0.09733463
000120 ff 4a b6 bd 1d 6d f6 3c c2 6b f8 bd 63 bc ad 3d
       -0.08901023 0.030081326 -0.12129928 0.084831975
000130 81 97 6c bd 53 2e 9d bd 11 c4 95 3d f2 e1 5c 3d
       -0.057761673 -0.07674851 0.07312787 0.053926416
000140 17 08 d1 3d 01 41 c5 3d dd c0 90 3d 5b 4b 3f 3d
       0.10206621 0.09631539 0.07068036 0.046702724
000150 1f cf d7 3d 6c 74 1e bb b4 39 41 bd bc 89 0d 3e
       0.10537552 -0.002417828 -0.04717417 0.13822073
000160 29 8d ad bd fa 48 03 3c 6e ec 29 be a9 c4 54 3e
       -0.0847419 0.008013004 -0.16594097 0.20778145
000170 45 ec 98 3c da 1a c0 bd 2f 2b 23 bd 06 6b 03 3e
       0.01866735 -0.093801215 -0.039836105 0.12833795
000180 d4 00 df bd fb da 87 3d 5e 1d 4b bc e9 94 de 3d
       -0.1088883 0.06633564 -0.012397138 0.10868246
000190 81 3d 27 3d 0f e0 9d bc 96 63 c9 bc df 2c 86 bc
       0.04083014 -0.019271879 -0.02458362 -0.016378818
0001a0 c3 6b 85 bb a3 d5 f1 bd 27 b5 dc 3b f6 d1 f6 bc
       -0.004071684 -0.11808326 0.006735462 -0.030129414
0001b0 16 0a c8 bc fd fe 43 3a 4b e7 f8 3d eb 10 06 3d
       -0.024418872 0.0007476656 0.12153491 0.032730978
0001c0 79 e1 ac 3b e7 74 64 3d 30 17 95 3d 7a f9 4b bd
       0.005275902 0.05577555 0.07279813 -0.049798466
0001d0 81 08 71 3d 4f 4e 93 bc f2 cb e7 bb b5 dd 15 3d
       0.058846 -0.017981676 -0.0070738727 0.03658839
0001e0 81 c2 f7 bd 5e d6 9b bc 20 7e 6a bd 98 aa bd bc
       -0.120976456 -0.019023117 -0.05724919 -0.023152635
0001f0 35 d4 83 3c 9d 62 22 3c 48 57 78 bc 67 e7 b1 bd
       0.0160924 0.009911207 -0.015157528 -0.086867146
000200 b3 10 d9 3d e9 42 a8 bc dd a4 8b 3d 1d d4 35 3c
       0.10598888 -0.020539718 0.068185546 0.011097935
000210 d1 df c5 bc 8a cb 9c 3b ea 12 5c bd 67 2a 02 bd
       -0.024154576 0.004785006 -0.053728975 -0.03177872
000220 00 b4 61 bd c6 0b 49 3d 0c 77 0d 3e c2 de 03 be
       -0.055103302 0.049083494 0.13814944 -0.12877944
000230 b5 d0 eb bc 93 f5 83 3d 61 96 09 bd 7f 5e 4d bd
       -0.028786043 0.06443324 -0.033590678 -0.050138947
000240 2a 47 00 be 5a b4 38 3e 76 67 db 3c a9 81 a0 3c
       -0.12527147 0.18037549 0.026782732 0.019593077
000250 06 7e 72 3e 4d e1 be bc fd be 86 bd 13 cb 35 bc
       0.23680887 -0.023300791 -0.06579397 -0.01109578
000260 38 07 06 bd 50 56 e6 3d f4 60 0c bd 16 15 e2 3c
       -0.032721728 0.112469316 -0.03427215 0.027597945
000270 f9 f9 b5 3d db 08 63 3c 07 72 f9 bc 40 55 58 bd
       0.08885569 0.013857092 -0.03044988 -0.052815676
000280 31 75 9d 3d b0 a6 53 3d 3a f0 a4 3d e4 57 5b 3d
       0.07688368 0.051672637 0.08053632 0.053550616
000290 3d 5a a2 3c 33 b3 05 bc 20 a8 c5 bc 3b 99 db 3d
       0.01981842 -0.0081604 -0.02412802 0.10722586
0002a0 e4 b9 15 bd ce 05 9d bd d8 52 63 3a 47 0e 96 bd
       -0.036554232 -0.07667123 0.00086717075 -0.07326942
0002b0 4e 8e d0 bd b3 b1 d0 3c bb 8f e9 3c f6 63 c0 3d
       -0.101833925 0.025475359 0.028510919 0.09394066
0002c0 d9 92 f2 3c 11 38 ce 3c f9 66 c9 3d f0 86 22 3d
       0.029611038 0.025173219 0.098340936 0.039679468
0002d0 74 a0 86 3d f2 5e bc 3c a3 5c 12 bc 63 ed 06 3e
       0.06573573 0.022994492 -0.008933219 0.13176493
0002e0 36 b0 c9 3c 0b 2f ed bd c0 6a 9b bd aa e7 4f bd
       0.024620157 -0.11581238 -0.0758872 -0.05075804
0002f0 4b 74 9c bd 97 15 83 bb 7d ad ef 3c 64 a3 70 3d
       -0.076393686 -0.0040003764 0.02925753 0.05874957
000300 57 54 5f 3d 32 02 05 3c d2 11 39 bd 8d 11 06 be
       0.054523792 0.008118199 -0.04518301 -0.13092633
000310 89 22 18 3d f9 fb fd 3c f5 86 d3 3c 76 38 03 bd
       0.03714231 0.031003939 0.025821188 -0.032036267
000320 93 f6 a5 3d 95 ba a3 bc e1 e9 db 3c 83 63 f7 3c
       0.08103671 -0.01998643 0.02684492 0.030198818
000330 0a 08 9e 3b 06 fc 2b 3d b5 0f 6b 3d 04 03 bf bc
       0.0048227357 0.041988395 0.057388026 -0.023316868
000340 21 b0 ca bc c3 76 19 be 7d 55 2e bd e4 52 8d 3d
       -0.024742188 -0.1498671 -0.042561997 0.06900576
000350 19 e9 39 be 0b 7a 17 bc 7f ee 18 3d 9f eb 3a 3d
       -0.18155326 -0.009245406 0.037336823 0.045634862
000360 ec 15 08 bd c4 e1 78 bd 2b fa e6 bc 85 83 0e bd
       -0.03322403 -0.060762182 -0.028195461 -0.034793396
000370 39 07 c7 bc c8 51 f6 bc 2e 96 cf 3d 51 5b 98 bd
       -0.024295436 -0.030068293 0.101360664 -0.07439292
000380 53 ff 6e bc 84 f9 bb bd 10 07 28 bd 01 e5 94 3d
       -0.014587241 -0.09178451 -0.04102236 0.072702415
000390 e8 10 be bc 81 d8 1b bd 6f 92 f8 3d a3 f7 c7 bd
       -0.02320142 -0.03804827 0.12137305 -0.0976403
0003a0 e6 e4 13 3c f6 1e bf bd 50 df 0f 3d 11 b2 09 be
       0.009026742 -0.09332077 0.035125077 -0.13446833
0003b0 c1 a5 e1 bc 74 2e 36 3d e6 77 8d 3c 9e f1 6b bd
       -0.027544858 0.044477895 0.017269086 -0.05760347
0003c0 46 0d a1 3c 09 91 4c bc 21 15 32 bd 9e 5a b1 bd
       0.01965965 -0.012485751 -0.04347718 -0.08659862
0003d0 4b 5c a5 3c e3 0a cb 3a a5 72 e9 bb ea bf 79 bc
       0.02018561 0.0015490915 -0.0071242624 -0.01524351
0003e0 b1 b6 38 bd fa e4 00 3c a4 6a 09 3d 12 60 72 bd
       -0.045096103 0.007867092 0.033548966 -0.05917365
0003f0 60 34 0a bd f2 31 a7 3c ee 3b 17 3c 48 82 e5 bd
       -0.033741355 0.020409558 0.009230597 -0.1120649

reorder_token_67 f4 [32, 192, 1, 1]
000000 3e 12 4c 3d a4 22 04 bc ab 07 1d 3d 29 c8 b7 bc
       0.049822085 -0.0080649 0.03833739 -0.022434311
000010 5e 8d d3 3c 6b 96 00 bd 3d d9 9b bc 54 ad 50 3d
       0.025824245 -0.03139345 -0.019024486 0.05094655
000020 64 45 bd 3c e9 28 0d bd 56 0a 92 bb 06 57 73 bc
       0.023104377 -0.034462843 -0.0044567985 -0.014852291
000030 57 8b cf 3b e5 50 d4 bc 01 cc 85 bc 07 dd d7 3b
       0.0063337493 -0.02591748 -0.016332628 0.006587628
000040 fe be 00 bc d9 65 08 bd 1e 2a 5c 3d 3e 35 21 bd
       -0.007858036 -0.033300254 0.053751104 -0.039357416
000050 e5 ed d5 bb ec 5f 15 bd 6a 29 1d bd 5f c6 30 3d
       -0.0065286034 -0.03646843 -0.038369574 0.04315793
000060 45 98 8f 3c 8a b7 57 bb 86 d9 c8 3d b1 af a6 bc
       0.017528662 -0.0032915794 0.09807114 -0.020347448
000070 62 67 b9 bc 7a a1 c3 3b 3f c4 55 bc 22 65 3e bb
       -0.022632305 0.0059701772 -0.013047277 -0.002905198
000080 b5 fd 1d bc 45 0c 1d bc 36 9c 08 3d c4 b0 eb bc
       -0.009643008 -0.009585445 0.0333521 -0.028770812
000090 86 30 0c 3d 38 d4 70 bc 5d 8f cb bc b6 a9 26 3d
       0.034225963 -0.014699034 -0.024848634 0.040689193
0000a0 0b d9 b3 bc 14 25 81 bc d1 0a b7 bc 8c 63 89 bc
       -0.02195408 -0.01576475 -0.022344025 -0.0167711
0000b0 ed 0d 90 3c ab 9b 47 bc c4 45 c6 bc f9 29 86 3c
       0.017584765 -0.01218311 -0.024203189 0.016377436
0000c0 6b 8a fe 3b 87 49 30 bc c4 75 15 bd b0 65 90 bc
       0.0077679656 -0.010759718 -0.036489263 -0.017626613
0000d0 c8 6a 84 3c 55 65 3a bc ee e8 44 bb 90 d0 76 3c
       0.016164199 -0.0113766985 -0.0030046063 0.015064374
0000e0 37 6a 19 bb 73 7e 62 b9 0d c1 62 3b ed f9 f4 bb
       -0.0023409256 -0.00021600146 0.003459993 -0.0074760825
0000f0 ef b2 33 bd cf 0d 51 bb 66 b3 a8 3b 44 76 a3 3c
       -0.043871816 -0.00318991 0.005148339 0.019953854
000100 58 36 b8 3c 57 b1 cc bc 41 29 f0 bc e2 a0 a4 bc
       0.02248685 -0.024986906 -0.029316546 -0.020096246
000110 c7 81 4f bc 7b 57 43 bc 0f 42 13 bc 2d da 0a 3b
       -0.012665219 -0.011922712 -0.008987918 0.0021187172
000120 e1 58 b1 bc 13 69 c9 bb 47 11 44 bd cb 6a f3 bb
       -0.021648826 -0.006146559 -0.04786804 -0.007428502
000130 17 cd 72 bd 30 4b ca bc 56 47 66 3b 45 cf 9f 3b
       -0.05927762 -0.024694055 0.0035137734 0.0048770034
000140 95 f5 91 3d f3 d3 1a bc bd 87 64 3d b9 f7 1a bb
       0.07126919 -0.009449947 0.055793513 -0.002364619
000150 70 81 cd 3a 31 bb 3e bc ca f2 37 bd cb 3d 87 3c
       0.0015678834 -0.01164131 -0.044909276 0.016508957
000160 68 65 44 3d 1d 41 b1 bc 7f f5 26 3a ac b3 08 bd
       0.04794827 -0.021637494 0.0006368979 -0.033374473
000170 b8 41 93 3c b3 81 b9 bc ed 26 55 bc 30 c1 50 3d
       0.017975673 -0.022644853 -0.013009769 0.050965488
000180 32 ad 92 bc 8c 80 a4 3b 18 84 f7 3c 89 e0 95 bb
       -0.017904852 0.005020207 0.030214354 -0.004573886
000190 0f b6 82 bb 7f bc bb 3b 83 68 18 bc b8 b1 53 3b
       -0.003988988 0.0057292576 -0.009302261 0.0032301974
0001a0 1f 97 a4 bc ca db ef 38 bf 77 d4 bc d9 f1 e1 bb
       -0.020091591 0.00011437347 -0.025936006 -0.0068952856
0001b0 d2 ae 26 bc 5b 76 9d bc 0c e8 9d bb d2 5e 1c 3c
       -0.010173516 -0.019221475 -0.004818922 0.009544091
0001c0 46 d9 f2 3c 48 4f cf bc 66 a0 a6 3d 66 44 aa bc
       0.02964462 -0.025306359 0.08136062 -0.020784568
0001d0 4f ba c8 3c 16 57 b4 bb fd 3e e5 bb 77 1b 1b 3d
       0.024502901 -0.0055035455 -0.006996034 0.03786799
0001e0 61 d7 5c bd f5 b1 0d ba 6c 6d e2 bd 65 9e 07 3c
       -0.05391634 -0.0005405241 -0.11056027 0.00827751
0001f0 56 3c c7 bb f0 d7 97 bc 73 60 8b 3c ba 6c 0f 3c
       -0.0060801907 -0.018535584 0.017013764 0.00875395
000200 4f b2 78 3c 18 71 3c bc c8 39 ec 3c ca fb 0d bd
       0.015179231 -0.011501573 0.028836146 -0.034663953
000210 08 c6 e7 ba 25 87 e7 bc 80 8c f0 bc fe e2 df 3c
       -0.0017682919 -0.028262684 -0.02936387 0.027329918
000220 93 76 b7 3c d1 04 1f bc aa f1 85 3b 36 99 cb bc
       0.022395408 -0.009705738 0.0040876465 -0.02485333
000230 79 59 8f bc 7b b5 16 bc 1a 19 90 bc 7b 80 31 3c
       -0.017498719 -0.009198542 -0.017590094 0.010833855
000240 9a 14 e2 3c 86 5c ff bb 99 a9 9c 3c 84 ea bd bc
       0.027597714 -0.007793012 0.01912384 -0.023183115
000250 c3 83 0b 3d bc 8e 07 bd 0a 1d 68 bc 4e 08 5d 3d
       0.034061205 -0.033095106 -0.01416708 0.053962998
000260 c3 a6 ed bc 26 78 19 bb ba 5a ca 3c 9d 6e ca bb
       -0.029010182 -0.0023417561 0.024701465 -0.006177737
000270 96 cc 0b bd 22 bd 29 bc fd a8 f9 b9 a1 68 fb bb
       -0.034130655 -0.010360034 -0.00047618887 -0.007672385
000280 d3 7a 5f 3c 64 67 4a bd 07 7b 83 3c c9 e4 2e bd
       0.013640123 -0.049415007 0.016049875 -0.042698655
000290 60 1b 9a bc 09 65 03 bd d8 29 83 bb 1b 84 0f 3d
       -0.018811882 -0.032078777 -0.004002791 0.035038095
0002a0 fc 20 36 3d 5d d1 81 3b 12 a4 9f 3d f9 2c ad ba
       0.04446505 0.0039617256 0.07794966 -0.0013212255
0002b0 d2 73 07 bd aa 9c a1 3c 75 85 86 3b bd f5 6a bc
       -0.03306944 0.019728024 0.004105265 -0.014340815
0002c0 6c 5c 50 38 b0 bc 80 bc f0 93 26 bb 13 cc e3 bc
       4.967714e-05 -0.015714973 -0.0025417767 -0.027807271
0002d0 d9 35 06 bb dc 21 e2 bc 79 65 b2 bb 8c 39 06 3d
       -0.0020478873 -0.027604036 -0.0054442254 0.032769725
0002e0 ef 2a ab bc e2 60 dc 3b 77 7b 9c 3d d6 78 13 bc
       -0.020894496 0.0067254165 0.076407366 -0.0090009775
0002f0 9e 83 d6 ba 5c af 73 bb 19 dc 88 bc cd 97 05 bb
       -0.0016366129 -0.003718338 -0.016706513 -0.002038467
000300 b8 7c cd 3c 66 c9 3a bd 91 51 5a 3d 0a 19 0e bd
       0.025083885 -0.045602225 0.053300444 -0.034691848
000310 c3 1c d9 bc e4 bf 02 bd 80 5f 75 bc 5b c8 0e 3d
       -0.026502972 -0.031921282 -0.014976382 0.034859043
000320 a7 01 3d 3d e6 bf 8c 3b f1 a0 19 3e f9 3d 73 3c
       0.046144154 0.004295337 0.150028 0.014846318
000330 f4 42 92 bc d5 80 9b 3c cd de 2f bb a9 81 18 bc
       -0.017854191 0.01898233 -0.002683568 -0.009308257
000340 9f 9f 6c 3c 5c ae 1b bc 57 ce 92 3d 1d fd 34 bc
       0.0144423535 -0.00950202 0.071682625 -0.011046675
000350 a7 6b c2 3b d7 cb 66 3c 30 f2 31 bc b8 0a ab 3c
       0.0059332433 0.014086685 -0.010860965 0.020879135
000360 e8 a6 ac 3d 97 15 e7 3a f7 d6 58 3d 70 1d 05 3b
       0.08430272 0.0017630336 0.05293938 0.0020311736
000370 cb 67 1b bd 3c c2 bc 3c 61 7e 2c 3c 3d d5 75 3b
       -0.03794078 0.023041837 0.010528178 0.0037511133
000380 73 a3 b1 3c 99 81 c4 bc c9 41 90 3d d5 82 98 bc
       0.021684384 -0.023987578 0.070437975 -0.018617073
000390 68 ea 98 3c 7c 0d f7 bb ea 3a e5 bc ca b8 b8 3c
       0.018666461 -0.0075394493 -0.027982194 0.022549052
0003a0 17 ce 37 3d 11 9d 56 bc 9a f3 2b 3d ea 1f bb 39
       0.044874277 -0.013098971 0.041980363 0.00035691197
0003b0 6c f9 41 3c d4 43 43 bc e3 3e f9 3b a9 be 8f 3c
       0.011839252 -0.011918027 0.0076063736 0.017546969
0003c0 4a 14 dc bc c6 82 26 bc d5 b7 c6 3c a7 86 bb bb
       -0.026865143 -0.010163015 0.02425758 -0.005722839
0003d0 3d 31 a2 bc 28 09 60 bc dd f3 ca bb b6 8c a3 3c
       -0.01979887 -0.013674058 -0.0061936215 0.019964557
0003e0 f2 4e 9b 3c 44 92 45 bc bb 78 21 3c fd 2b 7f b9
       0.018958542 -0.012058798 0.009855445 -0.00024335082
0003f0 5f 94 eb 3b 17 a6 08 bc d0 2e a3 bc f7 0d e7 3c
       0.007189318 -0.00834038 -0.019919783 0.028204901

reorder_token_8 f4 [8, 16, 1, 1]
000000 35 ea 88 3d 41 2d 08 be d7 13 06 be fc 53 0f 3e
       0.066852964 -0.13298513 -0.13093506 0.13996881
000010 9d 2b 96 bd 01 14 57 3e ca 14 4d 3d c6 dc dc be
       -0.07332537 0.21003725 0.050068654 -0.43137187
000020 d3 f0 05 bd b5 c2 a1 be 92 7d 3e bd 2c ba 17 3e
       -0.03270037 -0.31593862 -0.046506472 0.14817113
000030 34 5e a1 3e 36 c5 b4 bd dd 8d 93 3c da 51 4b 3e
       0.31517184 -0.088266775 0.018011982 0.19855443
000040 a5 53 9f 3e 61 53 4d 3e 53 fe 50 bf 46 92 37 be
       0.31118503 0.20051338 -0.8163807 -0.17926893
000050 e2 bf 55 bd f1 ff 90 3e c2 d7 5b be 03 be da bc
       -0.052184947 0.28320268 -0.21469024 -0.026701933
000060 2c fe 3a be e7 53 9e be ee c5 8c bd b9 26 75 3e
       -0.18261021 -0.30923387 -0.068736896 0.23940553
000070 ba 38 84 3e 83 87 70 be c4 18 2a 3e ee 39 49 be
       0.2582453 -0.23489194 0.1661101 -0.19651005
000080 ef ef d9 3d 3c ea 8a be e9 b5 4a be f9 40 f8 3c
       0.10641467 -0.27131832 -0.19795956 0.030304419
000090 f9 25 e6 3c 0b e8 73 be 4d 46 e4 3d a3 70 bf bd
       0.028094279 -0.23818986 0.11146221 -0.093476556
0000a0 d9 f5 21 bd 05 b1 a9 bd fe 47 51 3e 75 5c 21 3e
       -0.0395411 -0.08285717 0.20437619 0.15757926
0000b0 5d fe ec bd 72 d8 94 bc eb ad eb 3c 18 aa 3c bf
       -0.115719534 -0.018169615 0.028769454 -0.7369704
0000c0 61 4c 89 be d6 2d 65 be 2f de 44 3e 45 00 c4 3d
       -0.26816085 -0.22380766 0.19225381 0.09570364
0000d0 92 c0 e4 3d 28 81 d3 bd 8e e2 90 3e 02 10 39 be
       0.11169542 -0.10327369 0.28297848 -0.18072513
0000e0 d4 6f c9 3d 0a 9f 51 3d e8 ea 23 3e fe d5 51 3e
       0.09835783 0.051177062 0.16007578 0.20491788
0000f0 41 6b 3e 3c 6b 79 89 bd c4 a1 90 3d d5 11 5b be
       0.011622251 -0.06712612 0.07062104 -0.21393521
000100 fd dd fb bd 24 97 7e be 54 d4 48 bd 28 d8 db 3d
       -0.122982 -0.24862343 -0.049030617 0.10734588
000110 1d 7d 94 3e f4 b7 f7 bd c9 f4 10 3e 77 e5 88 3e
       0.29001704 -0.12095633 0.14155878 0.26737568
000120 80 47 08 be a7 81 23 3d c4 6c 97 be 24 91 2f 3e
       -0.13308525 0.039918568 -0.2957517 0.1714521
000130 93 96 ae 3e 92 f7 46 be 1a 85 f1 3d 1f 1c 54 bc
       0.34099254 -0.19430378 0.11792965 -0.012946158
000140 e3 4a 95 be e0 42 80 3d 69 c7 8d 3d e0 35 52 3e
       -0.29158697 0.062627554 0.069228 0.20528364
000150 5e e8 a7 3e 8d a3 f0 bd 46 64 28 3e 66 6e 67 be
       0.3279447 -0.11749945 0.16444501 -0.22600707
000160 06 42 2a 3d 12 55 7e be 28 bb 4e be 25 7d 0a be
       0.04156687 -0.24837139 -0.20188582 -0.13524301
000170 e1 ed 42 3e d6 10 32 3e f6 c0 07 be e5 23 19 be
       0.19036056 0.17389235 -0.13257203 -0.14955099
000180 da 3e 90 bd 6d 4e 73 bd 30 82 8e be 81 bf 5c 3e
       -0.07043238 -0.059400965 -0.278337 0.21557428
000190 61 51 83 3e ba cf 08 be 07 e7 66 bd 80 ad 45 3d
       0.25648025 -0.13360491 -0.05637267 0.048261166
0001a0 dc 6e 8f bd e8 7a 04 bd d2 87 ac be 2a 4f ec 3c
       -0.070035666 -0.032343775 -0.33697373 0.028846342
0001b0 7d be 3d be 61 59 22 3e f1 a5 22 3c 8b 62 22 3e
       -0.18529697 0.15854408 0.009927259 0.15857904
0001c0 af cc a5 3e 5c e8 fc 3d a0 06 c0 be 09 e0 3d 3e
       0.32382724 0.123490065 -0.37505054 0.18542494
0001d0 e2 7c 75 be 3b b0 80 3d 01 34 66 bd dd cd 30 bf
       -0.2397342 0.06283613 -0.05620194 -0.6906412
0001e0 0f 62 67 be ec cf 00 be 2c 47 d9 3e 72 f2 58 3e
       -0.22596 -0.12579316 0.42437112 0.21186236
0001f0 a9 e3 c5 3d 8d 5e 48 be cf 29 3f 3e d4 8a 42 3e
       0.09662563 -0.19567318 0.18668292 0.18998271

reorder_token_41 f4 [192, 32, 1, 1]
000000 b3 19 75 bc d9 fc 8c 3d b1 2b c0 3d 80 33 a7 bc
       -0.01495974 0.06884164 0.093833335 -0.0204103
000010 cb de 87 3d 8e 73 0e be e2 fa 09 be 90 d9 e1 3a
       0.06634291 -0.13911268 -0.1347461 0.0017230976
000020 3b b8 98 bd d4 11 19 bd d1 da 77 bb 17 2f cd 3c
       -0.07457014 -0.037370518 -0.0037819634 0.025046868
000030 d1 ba 01 3d f7 d7 1d bd e6 59 ef bd 7e 82 0c bd
       0.031672303 -0.03853604 -0.11687069 -0.034304135
000040 d8 69 16 3e 89 68 e6 3d 57 80 54 3d c5 b3 a5 bd
       0.14688814 0.11250407 0.051880207 -0.08090929
000050 88 b4 be 3c 16 a2 83 3d cd d9 80 3e 95 9f e6 3c
       0.023279443 0.064274 0.2516617 0.028152267
000060 fa b2 04 3d 93 41 d5 bd 0b 17 7d 3c 9d f6 96 3d
       0.032397248 -0.10412898 0.015447388 0.073712565
000070 b3 1c 56 bd 06 1c 30 3d 75 6a b1 3d 60 7b f9 3c
       -0.052273463 0.042995475 0.08662883 0.030454338
000080 2d b0 95 bc 3d 93 99 bd 04 ce 72 3e f8 65 f7 bc
       -0.018272484 -0.074987866 0.23711401 -0.03019999
000090 41 06 ca 3d 01 7a 50 bd 73 0a 2d 3d de 20 06 be
       0.09864474 -0.050897602 0.042246293 -0.13098475
0000a0 1b 9d 39 bd 06 16 5a 3d 9e 3d 9d 3d b3 5e b3 3c
       -0.045315843 0.05324366 0.07677768 0.021895742
0000b0 82 33 e1 3d 01 51 69 3c d7 b0 8e 3d 1e 34 ab 3c
       0.109961525 0.014240504 0.06967323 0.020898875
0000c0 c8 bd 94 bd 34 dc 92 3d 07 7b fb bb b6 64 b6 3c
       -0.072627604 0.07170907 -0.007674578 0.02226482
0000d0 47 f1 42 bd 77 1b a0 bc 58 d1 a8 bd fa 4c 0f 3d
       -0.04759338 -0.019544346 -0.08243054 0.03498552
0000e0 2e 0f 82 bd cb ce a7 bb 1a a3 e0 3b b7 31 cc bc
       -0.063505515 -0.005121087 0.0068553807 -0.02492605
0000f0 21 a7 f6 bc 7d 02 fc bd 28 fc ce bd ae cc b9 bd
       -0.03010899 -0.12305162 -0.10106689 -0.09072243
000100 42 2a 80 3b 63 c8 5f 3d a2 7c d3 bd 51 28 4c 3d
       0.0039112875 0.054634463 -0.10326506 0.049843136
000110 bf 98 40 bd 6d c8 6d bd e0 f9 92 3a fb 78 25 3d
       -0.04702067 -0.05805247 0.0011213385 0.04039858
000120 11 fa 1b bc 10 a6 f7 3c f4 8f 32 bd 70 8f 30 bd
       -0.00952007 0.030230552 -0.043594316 -0.043105543
000130 8c a5 95 3a 0e 83 82 3b 5b 08 db bd 45 ff 92 3d
       0.0011417135 0.003982908 -0.10694953 0.07177595
000140 83 c8 a4 bc 45 86 08 3e 87 66 8e 3d 2d 7f ff 3c
       -0.020115143 0.1333247 0.06953149 0.031188572
000150 57 c3 b9 bd 77 99 92 bc 5b bf db 3d 9a 8e bd bc
       -0.09070461 -0.017895443 0.107298575 -0.023139287
000160 07 68 20 3d 6f 6f 12 3e 7e 48 75 3d 5d b2 bb bd
       0.03916171 0.14300321 0.059883587 -0.091648795
000170 d9 58 80 3d da 15 94 3c 1d cf 0a 3d a4 f7 36 3d
       0.06266946 0.018076826 0.033888925 0.044669762
000180 ee af 70 3d 66 16 00 bd b0 80 9d bd 5b 9f 1b bd
       0.05876153 -0.03127136 -0.07690561 -0.03799377
000190 bd fc 18 bd 16 49 46 3c f2 46 01 3e fa 00 ae bc
       -0.037350405 0.012102386 0.1262472 -0.0212407
0001a0 89 50 7c 3d 5a 4a 9c 3e f5 70 23 bd 23 c8 87 bd
       0.06160024 0.30525476 -0.039902646 -0.0662997
0001b0 24 15 a7 bd 13 ee 21 bd 76 68 a2 3d c1 31 ea 3d
       -0.08158329 -0.039533686 0.079300806 0.11435271
0001c0 b8 9f a4 bc 26 16 e5 bd 6d 50 92 3d b9 50 d1 bb
       -0.020095691 -0.11185865 0.07144246 -0.0063877967
0001d0 d9 3e 49 bc e4 e9 f6 3c 9f a6 83 bb 71 9e 29 3d
       -0.01228305 0.030140825 -0.0040176655 0.041410867
0001e0 1d d4 b2 bd 38 ab 70 be fa 54 48 3d c1 ae bc bc
       -0.08731864 -0.23502815 0.048909165 -0.023032548
0001f0 65 4c 5e bd a2 5f 30 bd 48 29 01 bc 29 e3 b4 bd
       -0.054272074 -0.043059953 -0.007883377 -0.0883239
000200 c7 82 82 bd ba 24 fb bd 14 3d bc 3d a2 c0 e4 bd
       -0.063726 -0.122628644 0.09191337 -0.11169554
000210 97 e8 96 3c 5b cc fa bc f0 97 57 3c 35 2f a4 3d
       0.018421454 -0.030615022 0.013158783 0.080168165
000220 f7 17 09 3e 8b 2a 7a bd fa 5a 05 3d d3 e2 99 3c
       0.13388048 -0.06107573 0.032557465 0.018784916
000230 ae 37 df bc a8 76 a0 3c 0f 94 15 3e 6e eb 05 be
       -0.02724823 0.01958783 0.14607261 -0.1307809
000240 9f c0 a4 3d 63 7b 23 39 8b 59 54 bc d8 34 4f 3d
       0.08044552 0.00015590856 -0.012960802 0.050587505
000250 d7 9a a6 3d d1 15 85 3c 6d af 4a 3d 1f 97 1b 3d
       0.08135002 0.016245754 0.049483705 0.037985917
000260 dd e0 db bd 18 c2 26 be 44 5d 75 3e 29 65 36 bd
       -0.10736249 -0.16284978 0.2396136 -0.044530068
000270 2f 1d da bc 5a 46 a2 bc c3 71 e2 bd d7 09 3b be
       -0.026625244 -0.019808937 -0.110568546 -0.18265472
000280 ee e0 27 3e 78 b9 a1 3d e0 82 b3 3c 0a 6f 1e 3d
       0.16394398 0.078967035 0.021912992 0.038680114
000290 3c 5b 82 3d 0a ff d0 3d 15 f3 85 3e c3 63 ec 3c
       0.06365058 0.10204895 0.2616202 0.028856164
0002a0 bd 37 53 bd 0c 76 4a bd 59 4d bd 3d 93 43 31 bd
       -0.051566828 -0.049428985 0.092432685 -0.043277334
0002b0 15 de af 3d 01 4f 4b bc 1b 85 24 be a3 19 77 3d
       0.08587281 -0.012408973 -0.160664 0.060327183
0002c0 e9 c3 fe bc 81 b2 1a 3e 70 92 8c bc ab 7b e1 3c
       -0.031099277 0.15107156 -0.01715967 0.02752479
0002d0 45 4e 04 be 9d 4d 0e bd fc 29 98 bd 54 1e 8c 3c
       -0.12920482 -0.034741987 -0.07429883 0.017104305
0002e0 d8 cd 06 bd 06 44 16 be 15 ff 2a 3e a9 8d a0 3c
       -0.03291115 -0.14674386 0.16698869 0.019598799
0002f0 64 fb 03 3d 0c a4 34 3b 7e ec 45 be f6 f6 1f 3d
       0.032222167 0.00275636 -0.19328496 0.03905388
000300 5a e6 16 bd 95 34 88 3c 4a 65 a4 3d 09 ae 02 bd
       -0.036840774 0.016626636 0.08027132 -0.031904254
000310 3d 7b 4a bd 70 cc 27 3c 99 b9 a5 3d 0b 6a e9 3c
       -0.049433935 0.010241613 0.080920406 0.028492948
000320 1b f2 1b bd a6 fb a3 3d 92 30 8f bd e9 db fa bc
       -0.038072687 0.080069825 -0.06991686 -0.03062244
000330 6e 41 b8 3d a2 d0 af 3d ea 4f 86 3d 27 91 da 3d
       0.08996855 0.085847154 0.06558211 0.10672217
000340 fd a8 73 bc 35 9c 9e bb bf a3 23 3b df 00 3e 3d
       -0.014871833 -0.0048403987 0.0024969426 0.04638755
000350 2f 6f 15 3d 3c 8e 90 bd 6a a7 af bb 79 7f 4e be
       0.036482986 -0.07058379 -0.0053605335 -0.20165814
000360 1f 5e 14 3d 59 40 3a be b9 a2 0c 3d ec ef 1b 3d
       0.036222573 -0.18188609 0.034334872 0.038070604
000370 ef b4 43 3d 65 87 c1 3d 04 26 0f bd e8 6e 1f 3d
       0.047779974 0.094496526 -0.034948364 0.038924128
000380 1b 55 4f 3d e4 66 89 3d 09 f5 63 3d 9f 57 c6 3b
       0.050618272 0.06709078 0.055653606 0.0060529257
000390 31 12 b4 3d 29 dd e1 bc 0b 0c 72 3d 47 4e 0d be
       0.08792532 -0.027571278 0.059093516 -0.13799392
0003a0 e2 a3 35 3d cc f3 eb bc 74 8c 05 3e 6c 48 7b bd
       0.044345744 -0.028802775 0.1304186 -0.061348364
0003b0 87 d8 3f bd d5 22 4d 3c 1f fd 04 3d 4f 50 1c be
       -0.046837356 0.012520512 0.032467958 -0.1526501
0003c0 10 74 b9 3c 94 59 f6 bd 09 54 4a 3e ce 64 33 bd
       0.02263835 -0.120288044 0.1975862 -0.043797307
0003d0 f8 cd b9 bc 05 40 3e 3d 04 3a 81 bd 60 f3 1b be
       -0.022681221 0.046447773 -0.06309894 -0.15229559
0003e0 68 cc 8e 3d ca 54 60 be ba f8 ac bd 3d 42 89 3c
       0.06972581 -0.21907344 -0.08445878 0.016755218
0003f0 c9 22 b3 bd d3 98 18 3d c3 4a 7f b9 81 d4 8a 3d
       -0.08746869 0.03725512 -0.00024346546 0.06778813

bn_scale_token_64 f4 [192, 1, 1, 1]
000000 1f 25 73 40 93 1a d1 3e 9e 91 61 3f 67 0d 81 3f
       3.7991407 0.40840587 0.8811282 1.0082215
000010 48 01 9b 3f 9e 52 38 3f b5 f9 19 3f 1e 99 45 3f
       1.2109766 0.72001064 0.6014665 0.77186763
000020 f1 76 2f 3f 08 cf 06 40 64 35 c1 3f 0f 66 b4 3f
       0.68540865 2.1063862 1.5094419 1.4093646
000030 37 83 97 3f a9 05 4a 3f 06 14 40 40 07 1b ac 3f
       1.1836919 0.78914887 3.0012221 1.3445748
000040 02 9b 82 3f aa 81 cd 3f 25 b3 42 40 fa f1 8f 3f
       1.0203555 1.6055195 3.042184 1.124572
000050 86 a5 55 3f ea 32 79 3f dc ca a3 3f 43 28 b3 3f
       0.83455694 0.97343314 1.2796283 1.3996662
000060 ec ab 58 3f d7 3a e6 3f f3 1c 06 40 f7 a3 d5 3f
       0.8463733 1.7986706 2.095517 1.6690663
000070 af ac 27 3f 29 f1 43 40 74 99 6d 3f 6e 30 08 40
       0.6549787 3.0615942 0.92812276 2.127956
000080 cc 0f 38 40 9c 09 45 40 40 ed 0e 40 9e 3e 7f 3f
       2.8759642 3.0787115 2.2332306 0.9970492
000090 e1 3a 6a 40 68 70 a3 3f 15 39 99 40 40 b1 bd 3f
       3.6598437 1.2768679 4.788218 1.4819717
0000a0 a0 00 f4 3e a9 dd 2b 41 06 36 a6 3f 6a 17 cc 3f
       0.47656727 10.741616 1.2985237 1.5944645
0000b0 52 bc 41 3f 78 c1 3c 40 cc 69 e3 40 d9 21 f0 3f
       0.7567798 2.9493084 7.1066647 1.876033
0000c0 ba 55 5b 3f 49 d2 0c 3f 87 bf f5 3f 88 5b 87 3f
       0.85677683 0.5500837 1.9199075 1.0574808
0000d0 e2 c1 a4 3f 44 d3 0a 40 2b 17 28 40 51 64 86 3f
       1.2871668 2.1691446 2.626414 1.0499364
0000e0 4b 3a 16 3f 19 9e a2 3f cf ba 46 40 93 0d 5e 3f
       0.586827 1.2704498 3.105152 0.8673946
0000f0 fa 65 6c 3f c9 2a 12 40 74 55 83 40 df 2e 82 3f
       0.92343104 2.2838614 4.1041813 1.0170554
000100 95 32 97 3f 81 b6 d3 3e 6b bc f4 3e af 93 88 40
       1.1812311 0.41350177 0.47800002 4.268028
000110 c6 18 95 3f 26 eb 37 40 25 ff 37 40 9d 0b 9e 3f
       1.1648185 2.8737273 2.8749478 1.2347294
000120 c6 63 83 3f ab f5 2a 40 a3 60 77 3f 6d 6f 7e 3f
       1.0264823 2.6712444 0.9663183 0.9938877
000130 ca d6 4b 40 a3 82 26 40 64 26 3d 40 97 ce 54 40
       3.1849847 2.6017234 2.9554682 3.3251092
000140 60 02 05 40 c1 c9 41 40 b3 5f bb 3f d0 d2 35 40
       2.07827 3.027939 1.463858 2.840992
000150 9f 6b 1c 3f fe 38 14 3f 1a c4 8e 3f b4 95 10 3f
       0.61101717 0.57899463 1.1153595 0.5647843
000160 97 04 54 3f d0 8a e3 3f 30 9b 45 3f 40 d3 19 3f
       0.82819504 1.7776737 0.7718992 0.60087967
000170 04 a7 a0 3f 83 8e 0c 40 92 ae 9b 3f 7d 75 06 40
       1.2550969 2.1961982 1.216265 2.100921
000180 e3 16 a2 40 e3 cf 21 40 2c e9 54 3f 47 98 85 3f
       5.065294 2.5283134 0.8316829 1.0437096
000190 ea a0 36 3f 5f 09 3b 40 20 90 3e 3f b3 24 92 3f
       0.71339285 2.922447 0.7443867 1.141745
0001a0 04 0a 4d 3f 45 3e 2c 40 4a 09 88 3f b3 ce 6e 3f
       0.8009341 2.6913006 1.0627835 0.9328415
0001b0 be 5c 7c 3f c7 54 24 40 63 43 1b 3f 3e 88 24 40
       0.98579013 2.5676744 0.606497 2.5708156
0001c0 02 ca e2 3e fd 54 68 3f f4 17 e2 3f bc aa 6c 40
       0.44294745 0.9075468 1.766356 3.6979208
0001d0 50 f2 ca 3f 63 59 83 3f c9 c6 a1 3f 69 73 80 3f
       1.5855198 1.0261654 1.263879 1.003522
0001e0 b3 8b 9d 3f d6 f9 77 3f 35 01 d7 3f c8 db 2c 40
       1.2308258 0.96865594 1.6797243 2.7009144
0001f0 9e f1 3e 3f 2a 5d bd 3f 52 b8 75 3f 46 02 2b 40
       0.7458743 1.4794056 0.95984375 2.6720138
000200 55 f8 52 3f cb 9d 9c 3f 77 c6 11 40 21 41 5b 3f
       0.82410175 1.2235655 2.2777383 0.85646254
000210 db 5a 62 3f 04 94 75 3f 6a 5c a0 3f 94 23 84 3f
       0.88419884 0.9592898 1.2528203 1.0323358
000220 72 5d 22 40 a0 27 70 40 2d fe 6c 3f 1d d4 b5 3f
       2.5369534 3.7524185 0.9257534 1.4205357
000230 96 c1 14 3f b2 19 30 3f a7 9a 67 40 17 81 22 3f
       0.5810789 0.6878921 3.6188142 0.63478225
000240 39 bf 20 40 c4 3f 5b 3f 34 a2 97 3f 28 19 e7 3f
       2.5116713 0.85644174 1.1846375 1.8054552
000250 b8 eb 07 40 aa 15 45 3f c9 6c c0 3e 2b 28 6e 3f
       2.1237621 0.7698618 0.37582996 0.9303004
000260 34 d6 81 3f 6d f9 0d 3f b8 c3 20 3f a9 65 6b 3f
       1.0143495 0.5545872 0.62798643 0.91951996
000270 70 e3 95 3f 3f a0 d2 3f 05 48 36 3f d1 0a 51 40
       1.1710033 1.6455153 0.71203643 3.2662852
000280 5b 47 8a 3f c5 69 df 3f c1 48 94 40 fa 08 34 3f
       1.0803026 1.7454153 4.633881 0.703262
000290 dc 85 3a 40 1e dc 4c 3f fb 81 cf 3f ea dd b0 3e
       2.9144201 0.8002337 1.6211542 0.34544307
0002a0 2d f1 40 3f 79 db 31 3f bc 6a 3d 40 04 10 1b 3f
       0.75368005 0.69475514 2.9596395 0.6057131
0002b0 97 d4 60 3f 77 d1 42 40 64 9d d0 3f 56 4a 84 3f
       0.87824386 3.0440347 1.6298032 1.0335186
0002c0 f3 65 44 3f 4e 68 4a 40 33 46 21 3f 9a e6 ff 3f
       0.7671806 3.1626163 0.6299774 1.9992249
0002d0 e8 3e a6 3f c7 11 04 40 63 c9 3e 40 2c 73 ca 3e
       1.2987947 2.063585 2.9810417 0.39540994
0002e0 ed 12 7b 3f be 52 b4 3f f4 56 56 40 f7 4b 78 3f
       0.98075753 1.4087751 3.3490572 0.96990913
0002f0 ea 61 90 3f 4b 50 8f 3f 7f b1 61 40 f8 9b 52 3f
       1.1279881 1.1196378 3.5264585 0.8226924

bn_B_token_45 f4 [192]
000000 3e a1 30 bf 9a b8 23 bf 1f ce 4e bf dc 0e 26 bf
       -0.68996036 -0.63953555 -0.80783266 -0.64866424
000010 fe 48 35 bf 8b b3 60 bf 02 80 2c bf bd 1c 77 bf
       -0.708145 -0.8777396 -0.67382824 -0.96528226
000020 a0 06 30 bf 20 c3 31 bf 6a a4 4c bf 5c fe 37 bf
       -0.6876011 -0.6943836 -0.79938376 -0.71872497
000030 cd 4b 25 bf 63 b0 41 bf 3e 8f 30 bf da df 4c bf
       -0.6456879 -0.7565977 -0.6896857 -0.8002907
000040 fd 24 6b bf 38 a1 09 bf 2e 68 6c bf c8 cb 60 bf
       -0.91853315 -0.53761625 -0.92346466 -0.87810946
000050 28 f9 30 bf 7e 7b 42 bf c5 6f 12 bf be 3b c8 be
       -0.6913018 -0.75969684 -0.57201797 -0.3910808
000060 16 8e 20 bf f9 63 85 bf 1a a4 1a bf 1c 72 32 bf
       -0.62716806 -1.0421134 -0.6040665 -0.6970537
000070 82 67 2a bf 6a 1c 1f bf 77 98 59 bf 56 9d 1b bf
       -0.6656419 -0.6215273 -0.8499827 -0.6078695
000080 0e f8 3e bf 15 18 ed be 08 9c 0e bf b4 01 90 bf
       -0.7459725 -0.46307436 -0.55706835 -1.125052
000090 50 51 2f bf 0d 4a 53 bf b0 c8 84 bf 16 2a 7f bf
       -0.6848345 -0.8253487 -1.0373745 -0.99673593
0000a0 83 d3 2a bf de 07 57 bf 5a 10 54 bf b2 02 28 bf
       -0.6672899 -0.8399638 -0.8283745 -0.6562911
0000b0 6e 82 3e bf da b1 21 bf f5 dd 4b bf 1a 79 49 bf
       -0.7441777 -0.63162005 -0.79635555 -0.7870041
0000c0 a1 88 86 bf b4 a3 ee be 52 31 0b bf a0 0e 53 bf
       -1.0510446 -0.4660927 -0.5437213 -0.8244419
0000d0 12 0c 1d bf 09 ad 02 bf 1f bf 29 bf 25 01 47 bf
       -0.6134654 -0.5104528 -0.6630725 -0.7773612
0000e0 c4 73 07 bf 33 a6 b7 be 80 ae dc be ac cb 42 bf
       -0.5291102 -0.35868987 -0.43101883 -0.7609203
0000f0 b0 cf 60 bf 04 df 27 bf 0e 18 04 bf f1 aa 45 bf
       -0.87816906 -0.6557467 -0.51599205 -0.7721396
000100 86 e3 37 bf 18 1a 51 bf e2 12 46 bf 28 9b 22 bf
       -0.7183155 -0.8168044 -0.7737256 -0.63518
000110 ca a2 eb be 3c e3 33 bf d2 22 0e bf 5c fe 31 bf
       -0.46022636 -0.7026861 -0.5552188 -0.69528747
000120 1a 6d 15 bf 9e a9 2d bf 00 c5 32 bf 73 4e 28 bf
       -0.583696 -0.6783694 -0.6983185 -0.65744704
000130 fd c6 64 bf 47 f8 50 bf 52 17 0a bf 33 e8 31 bf
       -0.8936613 -0.8162884 -0.53941834 -0.6949493
000140 66 72 48 bf e8 bf 66 bf dc 36 85 bf 9c 55 38 bf
       -0.7829956 -0.90136576 -1.0407367 -0.7200563
000150 14 9a 63 bf 4a 3c 16 bf c8 eb 32 bf 01 39 04 bf
       -0.8890698 -0.58685744 -0.69891024 -0.5164948
000160 d6 ff f9 be 4c 2b f2 be da b8 2e bf 3f b9 3e bf
       -0.48828 -0.47298658 -0.6825081 -0.74501413
000170 4f 63 2e bf 35 d0 4e bf 62 b9 4c bf 64 2a f7 be
       -0.6812028 -0.8078645 -0.7997037 -0.4827453
000180 89 0e 29 bf d4 5e 0b bf 78 0c 36 bf 06 64 ef be
       -0.66037804 -0.5444157 -0.71112776 -0.46756
000190 67 c9 3e bf 6c 3d 55 bf 44 21 30 bf 3c 61 1c bf
       -0.74526066 -0.8329685 -0.6880076 -0.6108587
0001a0 5e a3 1d bf c0 cf 37 bf 62 c6 6d bf 87 dc 39 bf
       -0.61577404 -0.71801376 -0.92880833 -0.72602123
0001b0 3a 04 55 bf a2 01 ec be 90 44 d8 be 0f 49 27 bf
       -0.83209574 -0.46094996 -0.4223981 -0.65345854
0001c0 c7 a0 00 bf 05 fd 31 bf b5 2e 12 bf 2f cc 41 bf
       -0.50245327 -0.695267 -0.5710252 -0.75702184
0001d0 d6 e8 c6 be e2 4c 6a bf e3 c9 0b bf 42 45 4d bf
       -0.38849515 -0.91523564 -0.5460493 -0.80183804
0001e0 13 35 17 bf a5 7e 50 bf e2 95 33 bf 90 86 09 bf
       -0.5906536 -0.81443244 -0.7015058 -0.5372095
0001f0 0d fc 3b bf 3b 55 cc be 52 5f f0 be 00 c1 2b bf
       -0.73431474 -0.39908776 -0.46947724 -0.6709137
000200 cc 52 65 bf 6e 6b 5c bf 7f f9 4a bf 86 b2 1e bf
       -0.89579463 -0.86101425 -0.7928695 -0.61991155
000210 3a 99 2c bf 31 32 ed be 2c 96 2f bf d1 6f 33 bf
       -0.67421305 -0.46327356 -0.6858852 -0.70092493
000220 a4 f5 8c bf d6 25 8a bf 4f 4b 1a bf 12 25 5f bf
       -1.1012464 -1.0792797 -0.6027116 -0.8716594
000230 50 b2 3d bf 95 5f 17 bf 98 38 35 bf e7 0d 3e bf
       -0.7410021 -0.5913022 -0.7078948 -0.74239963
000240 bd 6a 5c bf f2 57 0e bf 67 4f 33 bf 13 c8 2f bf
       -0.8610037 -0.55602944 -0.70043033 -0.68664664
000250 4d 67 fc be db 3a 2d bf e8 a6 08 bf 98 51 4c bf
       -0.49297562 -0.6766793 -0.5337968 -0.79812
000260 df 19 f1 be 04 bf 5c bf 79 60 14 bf 48 89 38 bf
       -0.4709005 -0.86228967 -0.57959706 -0.72084475
000270 01 e5 2f bf 7c 19 28 bf 9c 40 14 bf 15 17 1c bf
       -0.6870881 -0.65663886 -0.57911086 -0.6097272
000280 6e a6 46 bf ac 64 06 bf 36 5f 19 bf f4 f0 1d bf
       -0.775977 -0.52497363 -0.59910905 -0.6169579
000290 b5 b0 2c bf 33 b2 69 bf 26 1c 14 bf 89 4b 1d bf
       -0.67457134 -0.91287535 -0.5785545 -0.6144338
0002a0 e4 ef 45 bf cc 55 1b bf 33 0c 7a bf b9 2d 37 bf
       -0.7731917 -0.6067779 -0.97674865 -0.7155414
0002b0 b4 1a 10 bf 76 8b 31 bf ea f5 29 bf 7f 43 31 bf
       -0.56290746 -0.69353426 -0.6639086 -0.69243616
0002c0 65 0f 88 bf 14 84 55 bf a3 e4 56 bf 7c 64 2e bf
       -1.0629698 -0.8340466 -0.8394262 -0.68122077
0002d0 b2 06 28 bf 64 65 5c bf 95 ce 30 bf 8b df 51 bf
       -0.65635216 -0.8609221 -0.6906522 -0.81981725
0002e0 c4 ec ca be d7 8b 26 bf 4a 7e 37 bf dc 2a 3d bf
       -0.39633763 -0.6505713 -0.71677077 -0.73893523
0002f0 3d 8b 2e bf 19 79 35 bf 31 5c 17 bf ba db 03 bf
       -0.6818121 -0.70887905 -0.5912505 -0.5150715

bn_B_token_95 f4 [192]
000000 05 ee 59 bf 75 de 0f bf c7 80 94 bf 15 0d ea be
       -0.85128814 -0.5619882 -1.16018 -0.45713106
000010 e4 63 08 bf e2 f1 b7 bf 43 78 c3 be b4 24 f6 be
       -0.5327742 -1.4370692 -0.3817769 -0.48074877
000020 89 a0 0b bf aa be 03 bf b7 5b 89 bf 0f 1f bc bf
       -0.5454183 -0.51462805 -1.0731114 -1.4696978
000030 d4 07 51 bf 1e 51 30 bf bc cc 33 bf 58 6e 2d bf
       -0.8165257 -0.68873775 -0.70234275 -0.67746496
000040 96 7f b4 be 65 0e 49 bf c0 84 4d bf 5e 7a 02 bf
       -0.3525359 -0.7853759 -0.80280685 -0.5096797
000050 c0 2b 0e bf c6 40 db be 14 2f 2f bf 4e 1c 16 c0
       -0.5553551 -0.42822856 -0.6843121 -2.3454776
000060 95 ee eb be 14 8f 95 be 60 a2 d2 be 9c 36 38 bf
       -0.4608046 -0.29210722 -0.41139507 -0.7195833
000070 94 6a e1 be a2 40 99 bf 42 83 12 bf c4 54 5f bf
       -0.44026625 -1.1972849 -0.57231534 -0.8723872
000080 35 37 46 bf ee e5 65 bf c9 43 90 be 60 74 59 be
       -0.7742799 -0.8980397 -0.28176716 -0.212358
000090 3a c9 f2 be 69 c4 3d bf b7 ce 27 bf e8 ad d0 be
       -0.4741915 -0.74127823 -0.65549797 -0.4075768
0000a0 01 7d 11 be c0 09 01 be 55 34 96 bf cb 6e 3e bf
       -0.14207841 -0.12601376 -1.173472 -0.74387807
0000b0 9f 40 05 bf 4c f5 24 bf 3a 73 5d bf 83 01 42 bf
       -0.5205173 -0.64436793 -0.86503947 -0.75783557
0000c0 f6 39 4f bf bb 7a 38 bf a8 56 a0 bf 8e 9a 13 bf
       -0.80947816 -0.7206227 -1.2526445 -0.57657707
0000d0 c8 74 21 bf e0 b7 7a bf 52 9f 7c bf 2e 98 24 bf
       -0.6306882 -0.9793682 -0.98680604 -0.6429471
0000e0 d3 8f 56 bf 32 bb 54 bf ea 4e 27 bf 73 61 2f bf
       -0.8381321 -0.8309814 -0.6535479 -0.6850807
0000f0 c9 fc 38 bf f3 4c 90 be a6 79 3b bf 59 0e 4f bf
       -0.7226072 -0.28183708 -0.73232496 -0.8088127
000100 8a 9a 4a bf 85 01 34 bf 7a 14 8f bf 64 d2 cd be
       -0.7914206 -0.7031482 -1.1178124 -0.40199578
000110 f4 4f 36 be c9 b4 3c bf 40 b2 2a bf 68 d0 7a bf
       -0.17803937 -0.73713356 -0.6667824 -0.9797425
000120 7a fb 46 bf ae 21 60 bf 64 55 04 be 9e 0c 05 bf
       -0.7772747 -0.8755139 -0.12923199 -0.5197238
000130 9d 43 34 bf e6 06 4e bf d7 d6 09 bf 22 71 43 bf
       -0.7041567 -0.80479276 -0.53843445 -0.763445
000140 f2 be 94 bf 22 8d 02 bf 76 4e 5e bf 89 a3 57 bf
       -1.1620772 -0.509966 -0.8683847 -0.8423391
000150 a4 4e a1 be 91 ba 65 bf 78 ba 1a bf 5b 0a fc be
       -0.3150531 -0.897378 -0.6044078 -0.4922665
000160 b5 be 39 bf 94 62 28 bf bc f2 a1 be e2 df f3 be
       -0.7255662 -0.6577542 -0.31630504 -0.47631747
000170 63 82 9d be b0 1d 45 be 30 63 37 bf 36 c6 f3 be
       -0.3076354 -0.19249606 -0.71635723 -0.4761216
000180 ed 87 6f bf 5a a6 16 bf e4 e9 e3 be 1e 2a 28 bf
       -0.9356678 -0.5884758 -0.44514382 -0.65689266
000190 1d 76 28 bf c9 d2 c7 be 82 57 93 be 6c ba 4f bf
       -0.65805227 -0.39028004 -0.287777 -0.8114383
0001a0 82 ab 18 bf 31 86 15 bf 1c db 4e bf 47 5c 47 bf
       -0.596367 -0.58407885 -0.80803084 -0.7787518
0001b0 30 5b 60 bf eb 40 84 bf 2c 81 5d bf 4a 02 89 bf
       -0.8763914 -1.0332311 -0.86525226 -1.0703824
0001c0 b5 a2 0c bf 9e 22 90 be 1d f0 be be 19 df 71 bf
       -0.5493577 -0.2815141 -0.37292567 -0.94481045
0001d0 fa b0 04 bf 5a 41 a0 bf 6a f0 01 bf 51 d2 be be
       -0.51832545 -1.2519944 -0.5075747 -0.37269834
0001e0 cb 14 ba be 3f 7b 4f bf 00 cd 41 bf 16 1f c1 bf
       -0.3634399 -0.81047434 -0.7570343 -1.5087612
0001f0 16 ed f1 be ca 00 a6 be 0c d4 6f bf 9c b3 93 bf
       -0.47251195 -0.32422477 -0.9368293 -1.1539187
000200 56 d0 3d bf f8 ed 47 bf ba 0b 9a bf cd 53 0b be
       -0.7414602 -0.78097486 -1.2034829 -0.13606186
000210 7e 88 ea be 17 de c9 be 37 32 32 bf 68 5c 24 bf
       -0.4580726 -0.39427254 -0.6960787 -0.642035
000220 ef 2c 4c bf e0 4c 96 bf b5 64 80 be bb 3d 36 bf
       -0.79756063 -1.174221 -0.25076833 -0.71187943
000230 13 37 4f bf 44 96 64 bf 16 75 48 bf 78 91 a6 be
       -0.8094341 -0.8929179 -0.7830366 -0.3253286
000240 b8 c6 72 bf ab e6 e2 be 2d 01 17 bf 97 b7 e6 be
       -0.9483447 -0.4431661 -0.5898617 -0.45061943
000250 ca 37 68 be 69 43 f8 be 19 df 8a be f1 bd e7 be
       -0.22677532 -0.4848893 -0.27123335 -0.452621
000260 94 4d a4 be 36 32 8e bf b6 22 11 bf e1 c8 3e be
       -0.32090437 -1.1109073 -0.5669359 -0.18631317
000270 04 c6 26 bf 20 b3 dd be 3c ac 08 be 00 09 1c be
       -0.651459 -0.43300724 -0.13346952 -0.15237808
000280 d9 a3 01 bf 25 f0 7f bf 40 19 f1 be ae 03 db be
       -0.50640637 -0.99975806 -0.47089577 -0.42776245
000290 a0 c4 c8 be a5 ac 35 bf ee 58 fb be 99 c3 5c bf
       -0.39212513 -0.7096656 -0.49091285 -0.8623596
0002a0 3f fe 33 bf 70 71 4c bf 93 a9 27 bf 6e 9a 38 bf
       -0.70309824 -0.7986059 -0.65493125 -0.7211064
0002b0 f4 6b 11 bf 9c 4b d5 be ea 0d 42 bf d9 16 5d bf
       -0.5680535 -0.41659248 -0.7580248 -0.8636299
0002c0 a0 dd 5e bf 71 50 15 bf ef 8f 0b bf f2 c5 51 bf
       -0.8705692 -0.5832587 -0.545165 -0.81942666
0002d0 6a 87 83 be 32 5a 1f bf 54 be 1f bf f6 6d 4d be
       -0.2568925 -0.62247 -0.6239979 -0.20061478
0002e0 02 20 d5 be 68 21 5c bf 04 2c f9 bd c4 2a 07 bf
       -0.41625983 -0.85988474 -0.121665984 -0.5279963
0002f0 10 f1 94 be af 9c 50 bf 6e b2 be be 00 d3 82 be
       -0.29090166 -0.8148908 -0.37245506 -0.25551605
