MauiDemo/Resources/Raw/Bread_onnx_fullres_new_test.onnx (onnx, 777447 bytes, 301 tensors)

ian_model.model_ianet.in_conv.0.conv.3.weight f4 [12, 1, 1, 1]
00000000: 7429 893f ab52 2ebf 07d3 fc3e 96cf 1b40
00000010: c27a 81be 4a4a e13f 5099 ce3e f768 0540
00000020: c1ed 673f 53fa b8be 99a7 7c3f af4c 633f
1.0715775 -0.6809489 0.4937975 2.434545 -0.2528897 1.7600796 0.40351343 2.0845315
0.9059716 -0.36128482 0.98693234 0.88788885

ian_model.model_ianet.in_conv.0.conv.3.bias f4 [12]
00000000: f48e eabd d187 5ebf 6889 c43e 8fe4 403f
00000010: 0b10 13bf 7ca0 42bf 8629 77bf 2923 71bf
00000020: b044 3bbf 4255 153f 44d4 6cbf d630 483e
-0.114530474 -0.8692599 0.38386083 0.7534875 -0.57446355 -0.7602613 -0.96547735 -0.94194275
-0.73151684 0.5833322 -0.9251139 0.1954988

ian_model.model_ianet.in_conv.1.conv.3.weight f4 [12, 1, 3, 3]
00000000: 2462 82bf 1d81 6ebf c7e8 e83e dd5f 1cbf
00000010: 38a2 923f 724c 11bf 441a 123f ceb9 813e
00000020: 76ec 20bf 5c45 343e f99c 1e3e 5842 663f
00000030: a1f7 ecbd 7bcd 313f fda6 0e3f f6fa 77be
00000040: defa e4be 5c95 183f b3df 8b3e 5258 5b3f
00000050: 6205 e4bd 00c0 2e3f fbfa d33e 4c4f 6c3f
00000060: 5557 3d3e ced7 a83d 75e9 09be 467e 453e
00000070: 50f3 d63e 9294 1bbe e022 79bd bb50 3abf
00000080: c650 423e ef44 0fbf b5c4 2ebf d6ac be3e
00000090: 0617 173e 2879 7a3d 558f 0a3f ad80 0f3f
000000a0: cbed 853f 5c32 6fbe 5145 8dbe 64ef bb3c
000000b0: a49c 8d3e 91e4 b9bd 1e5b 05bf 50b2 88be
000000c0: 5f3d b83e f346 2bbf 9272 e73e b148 e7be
000000d0: 62f9 003f 09c3 e4bd ca75 413e ab5e b8bd
000000e0: 29fe 993e 7976 153f b1fa 803f bd4e 8fbe
000000f0: e49f c93e 6d1b 333f 800b af3c b344 63be
00000100: c53c 403f fae7 803f 3f1e 8c3d 646c b0be
00000110: 8316 13bf 7172 993c 28d3 81be 37bc 3b3f
00000120: def1 643e 1e7f c83e 4625 d9be 99d2 92be
00000130: c171 bc3e 142d 973e 25c0 70bf 889a 203f
00000140: d6c2 123f 66bb dc3e 3736 723f fb68 c3be
00000150: f2c5 3a3f 04b0 a23e e244 0d3f 4b25 b93e
00000160: 0cdb 053f 84bb 463f 9860 033f fb81 953e
00000170: da60 cb3d 32e7 d83e c918 5ebe a759 46bf
00000180: 957f 89bf d173 6f3e c2b2 bcbf f2d9 c33d
00000190: ce47 89bf ed32 56bf 50e5 813e d882 aa3e
000001a0: 722c c1be 90d7 a2be f02f ca3e 4e9d d83e
-1.01862 -0.9316576 0.45490095 -0.61083776 1.1455755 -0.5675727 0.5707133 0.2533707
-0.6286081 0.17604584 0.15489568 0.8994498 -0.11570669 0.69454163 0.55723554 -0.24216828
-0.44722646 0.59602904 0.27319106 0.8568164 -0.11133839 0.6826172 0.4140242 0.923085
0.18490346 0.082442865 -0.13467963 0.1928645 0.41982508 -0.15193394 -0.060824275 -0.72779435
0.18976125 -0.5596456 -0.682689 0.37241238 0.14754876 0.0611507 0.5412496 0.5605572
1.0463194 -0.23359054 -0.27591947 0.022941299 0.2765857 -0.09076799 -0.5209216 -0.26698542
0.35984322 -0.66905135 0.45204598 -0.45172647 0.5038053 -0.111700125 0.18892589 -0.090024315
0.3007672 0.583839 1.0076505 -0.2798976 0.393798 0.69963723 0.021367788 -0.22194175
0.75092727 1.0070794 0.068417065 -0.34457695 -0.57456225 0.018731328 -0.25356412 0.7333407
0.2235789 0.39159483 -0.4241125 -0.28676298 0.36805537 0.2952658 -0.9404319 0.62735796
0.57328546 0.43111724 0.94613975 -0.3816603 0.7295829 0.31774914 0.5518323 0.36161265
0.52287364 0.77629876 0.51319265 0.2920073 0.09930582 0.42363888 -0.21689142 -0.7748055
-1.074206 0.23384024 -1.4742053 0.09563054 -1.0725038 -0.83671457 0.25370264 0.3330295
-0.37729222 -0.31805086 0.39489698 0.42307514

ian_model.model_ianet.in_conv.1.conv.5.running_mean f4 [12]
00000000: 0934 58be 51db 1f3f 91e5 d53e 7cf5 28bd
00000010: 4774 4a3f 55f1 66be 0d25 a33f 0d8a 663e
00000020: b3ab 6f3e 03b4 c43f e280 663d caa4 88be
-0.211136 0.62444025 0.41776708 -0.041249737 0.79083675 -0.22552998 1.2745682 0.225136
0.23405342 1.5367435 0.056275256 -0.26688224

ian_model.model_ianet.in_conv.1.conv.5.running_var f4 [12]
00000000: d82e 8c3f c142 8540 f703 563f c97a 7a3d
00000010: 9a00 a640 e1c8 9e3d 730d 2e40 2766 4f3e
00000020: a4fb 183e cc4f 0641 5d0b c93d a881 8e3f
1.0951796 4.1643987 0.835998 0.061152253 5.1875734 0.07753158 2.7195709 0.20253812
0.14939743 8.394482 0.098166205 1.1133318

ian_model.model_ianet.in_conv.1.conv.5.weight f4 [12]
00000000: 7cf6 6d3f 922c 643f 7ab5 913f f97d 883f
00000010: 3054 883f c0f0 683f cbb7 7b3f df94 823f
00000020: 0875 9c3f 4228 843f 8c63 8d3f 0eb6 853f
0.9295423 0.8913051 1.1383507 1.0663444 1.0650692 0.90992355 0.9832732 1.0201682
1.2223215 1.0324786 1.1046004 1.0446184

ian_model.model_ianet.in_conv.1.conv.5.bias f4 [12]
00000000: 8582 adbd 01e4 95be 78cf 293d ba44 3e3e
00000010: f86f 5fbd 69c8 c6be 4a55 aa3e 8cb2 493e
00000020: 06ff 9b3d 3d1a 933d 1f54 f5bd 0bd4 82be
-0.0847216 -0.29275516 0.041457623 0.18580905 -0.05455014 -0.38824776 0.33268195 0.19697016
0.07617001 0.07182739 -0.119789355 -0.255524

ian_model.model_ianet.down1.0.conv.3.weight f4 [6, 1, 3, 3]
00000000: 03c7 85bf f506 26bd 6933 87be 99e9 753f
00000010: d90c ffbc b0ba 513d f586 82be 1000 8ebe
00000020: 3f6f babe 887c 213d 8275 0f3f 3b43 c63e
00000030: 542e fa3e 095c 93be ece8 2f3d 459a 643f
00000040: 05e5 e83e de93 f0bd bcc4 2d3f 6d1e 103f
00000050: 73a6 bcbe e3ef 573e f161 05bf 0b14 2f3c
00000060: 38be 0fbf f79b 673e 2226 63bd 40fa 12be
00000070: adfd b4be 02fd 2dbe 77ba c73e e8cc d8bc
00000080: 6825 d53e 85fa d63e 57f4 c23f 380a b1be
00000090: e1b3 c5bd da43 bbbe f458 93be 0ebd 043f
000000a0: 519e 2f3e 265f fc3e df9a fe3e a40a 0a3f
000000b0: 75f6 6b3f 05ef aabe 040c ee3e b31b b83e
000000c0: 5513 42be f4fb 2a3f 9c4c 4fbf f2f2 76bf
000000d0: 010a 873e 8dd8 b6be
-1.0451359 -0.04053398 -0.2640641 0.96059567 -0.031134056 0.05120343 -0.2549359 -0.27734423
-0.36413 0.039425403 0.5603868 0.38723168 0.4886347 -0.28781155 0.04294674 0.89297897
0.45487228 -0.117469534 0.6787832 0.56296426 -0.3684574 0.21087603 -0.5210257 0.010685931
-0.56149626 0.2261809 -0.05545629 -0.14353275 -0.3534979 -0.16991046 0.3900945 -0.026464894
0.416301 0.41988006 1.5230817 -0.3457811 -0.0965345 -0.36575204 -0.28778803 0.51850975
0.17150237 0.49291342 0.49727532 0.53922486 0.9217294 -0.33385482 0.46493542 0.35958633
-0.18952687 0.667907 -0.8097627 -0.96464455 0.2637482 -0.3571209

ian_model.model_ianet.down1.0.conv.5.running_mean f4 [6]
00000000: c141 073c 64dd 3540 fbb9 9f3e a4eb 8f3f
00000010: b2f8 de3f b520 f23d
0.008255423 2.8416376 0.3119658 1.1243787 1.7419646 0.118226446

ian_model.model_ianet.down1.0.conv.5.running_var f4 [6]
00000000: 246d fd3e 4664 4441 dc35 c23e 1da2 aa40
00000010: 2f26 cd40 382c ba3e
0.4949733 12.274481 0.37931716 5.332289 6.410911 0.3636186

ian_model.model_ianet.down1.0.conv.5.weight f4 [6]
00000000: 4151 873f 2cfc 893f 9adb 7c3f c41a 803f
00000010: 0118 933f b5c1 713f
1.0571672 1.0780082 0.98772585 1.0008168 1.14917 0.944362

ian_model.model_ianet.down1.0.conv.5.bias f4 [6]
00000000: 9d2e 593e 47a6 6fbe f401 283d 5d3b 803d
00000010: 9669 11bd c730 d5bb
0.21209188 -0.23403274 0.041017488 0.06261323 -0.035501085 -0.006506059

ian_model.model_ianet.down1.1.conv.3.weight f4 [12, 1, 3, 3]
00000000: ca49 fabe 6b82 a1bf 4bbf 38bd f08a 713f
00000010: 723e 5dbe 6bab ce3e b21c fcbe 3f48 ee3e
00000020: f367 2d3d 8ba7 9c3e 8615 0d3f 829f 63be
00000030: 2157 543e 02c4 44be 9afa 3a3f 5d00 ee3e
00000040: 4d39 b9be 7be6 d73e 0ab4 e63e 3172 80bf
00000050: 72c0 00be c39d 7cbd 5e72 abbd eb1e 543e
00000060: 8019 113e d056 c4be 4825 c4be f4c8 c7bf
00000070: b416 213f abd6 ba3e 5404 073d 1d44 14be
00000080: bb48 a8bd 5b28 263f cd23 00bf d591 7fbe
00000090: 4450 2a3e a2b7 543e 396c 6b3f 6cf5 b8be
000000a0: 9581 af3e 5aa6 713e 8b44 063f 0dd3 6f3e
000000b0: 13ec 90be 33b5 05bf f5e5 623e 9cb5 50bf
000000c0: 849a 10bf 5998 a1be 383b 30be 5d28 1bbf
000000d0: c826 46bf b7b6 82bd bc1d 24bf dff5 be3e
000000e0: 513d a6be 77e2 b13e 63cc 05bf 701e 91bf
000000f0: c43f b6be aa97 fbbd 312c b83d d3a9 87be
00000100: 0033 1fbf e663 9bbc c7cf f9be 31c5 85bf
00000110: 78cd e53b 56b5 03bf b340 10bf 06ad 37bd
00000120: 5df1 ec3d 09be 333e 31be a43e 29c7 ae3e
00000130: 4cbb 113f be81 423d 127f 773e c926 c43e
00000140: 037f e33e a78d 0c3f b19f 6a3e d52d 2dbe
00000150: a546 783e 0a73 5b3e a17f 333f 4f4a f0be
00000160: b3fd ce3e 8c89 3cbe 3fa0 4f3f 514b c93e
00000170: 9824 6c3e a934 983e f800 b13e 95e3 b4bd
00000180: 64e5 873d dd82 a53e 7a9d 643f 03e0 acbf
00000190: ce0c 64bf b300 39bf 9704 a53d 3f12 37bd
000001a0: bd33 603e ae8e 3abe d784 01be 0229 473d
-0.48884422 -1.2617925 -0.045104306 0.94352627 -0.21605852 0.40365157 -0.49240643 0.46539494
0.04233546 0.30596575 0.5511097 -0.22228816 0.20736362 -0.19215396 0.7303864 0.46484652
-0.3617653 0.4216803 0.45059234 -1.0034848 -0.12573412 -0.06167389 -0.08371423 0.2071492
0.14169884 -0.38347483 -0.38309693 -1.5608201 0.6292527 0.36491904 0.032963112 -0.14479108
-0.08216997 0.6490533 -0.5005463 -0.24957974 0.16632181 0.20773175 0.9196201 -0.36124742
0.3427855 0.23598614 0.5244834 0.23420353 -0.2830511 -0.52229613 0.22158034 -0.81527114
-0.5648577 -0.31561545 -0.1721009 -0.60608464 -0.77402925 -0.06382506 -0.6410787 0.3729696
-0.32468656 0.3474309 -0.52264994 -1.1337414 -0.35595524 -0.12284787 0.08992804 -0.26496753
-0.62187195 -0.018968534 -0.48791334 -1.0450803 0.007013019 -0.5144857 -0.56348723 -0.044842742
0.11569474 0.17552961 0.32176355 0.34136322 0.5692642 0.047487013 0.24169567 0.3831084
0.4443284 0.54903644 0.2291248 -0.16912015 0.24245699 0.21430603 0.7011662 -0.46931693
0.40427932 -0.18411845 0.8110389 0.39315274 0.23060834 0.29727677 0.34571052 -0.0883247
0.0663555 0.32326403 0.8930279 -1.3505863 -0.8908204 -0.7226669 0.08057516 -0.044695135
0.21894737 -0.1821849 -0.1264833 0.048623092

ian_model.model_ianet.down1.1.conv.5.running_mean f4 [12]
00000000: e665 6fbe 404e fd3e 6c2e 18be 333d c2be
00000010: ca7e 6f3f 28e4 f4bf a5f8 79bf 74d3 a8be
00000020: b137 e73f 83e6 903f dd78 ec3f b51e 9cbf
-0.23378715 0.49473763 -0.14861459 -0.37937316 0.9355284 -1.9132128 -0.97645026 -0.32973826
1.8063871 1.1320347 1.8474385 -1.2196871

ian_model.model_ianet.down1.1.conv.5.running_var f4 [12]
00000000: bfad 993f 28e5 4640 4534 3e3f 37cb 123f
00000010: 34d4 1a3f aab0 c63f 11e1 f040 ee95 4f40
00000020: bf92 9d40 296e 5c40 0a26 3640 5a85 b33f
1.2006148 3.1077366 0.74298507 0.5734133 0.60480046 1.5522664 7.527474 3.243526
4.9241633 3.4442236 2.8460717 1.4025071

ian_model.model_ianet.down1.1.conv.5.weight f4 [12]
00000000: 9ecc 823f 91f4 763f ccc6 603f f50e 7d3f
00000010: e7f3 6f3f 114b 8b3f b837 7b3f 8bf6 6f3f
00000020: 92aa 963f 80e6 923f c306 573f 6fe2 883f
1.0218694 0.9646693 0.8780334 0.9885095 0.9373154 1.0882283 0.98131895 0.9373557
1.1770804 1.1476593 0.8399469 1.0694102

ian_model.model_ianet.down1.1.conv.5.bias f4 [12]
00000000: 227e a13d 49d4 01bf d004 383e 07fe 223f
00000010: c834 883a 7ae9 1b3e 4918 f33d 5dd0 53be
00000020: b3fa 1e3f 5211 143e 8001 643d 60cc c9be
0.07885386 -0.50714546 0.17970586 0.63668865 0.0010391707 0.15225783 0.118698664 -0.20684953
0.62101287 0.14459732 0.055665493 -0.39413738

ian_model.model_ianet.down2.0.conv.3.weight f4 [12, 1, 3, 3]
00000000: 9078 bd3e e243 04bf 1010 8bbe 6ea9 583e
00000010: a40e 5b3f 21c7 6fbf a029 b33e ed14 243f
00000020: c2c3 563e daef 9bbe 9b9b b33e 0f32 3e3f
00000030: e527 4cbf 4f4a 813f 32c2 8cbe 9680 fe3e
00000040: 123e 21be 1f50 3b3d 3ce5 c1bf f573 02bf
00000050: f001 f03c 8cea 2abd becf 443e 595a 07bf
00000060: aec1 22bd a520 eabe db95 893e a770 73bc
00000070: 0eb0 713e 7333 00bf 8a86 57bf a8b6 2b3f
00000080: 5f44 753f d8b0 dd3e 56bd 483f a4c9 a0be
00000090: da32 dfbe e064 5bbf 0792 2a3f 5253 523d
000000a0: 8ac3 cbbe 8e97 3abf 5b1d 963d f38f 993f
000000b0: b5ad 873c 87bf 093e d66a 8fbe 99be 7fbf
000000c0: a2d1 7bbe 2417 b23e e66a 453d 5e9a ff3e
000000d0: b946 583f 896e 08be 82b7 c83e 835a 2abf
000000e0: 3d55 6a3e 8e5a 0b3f c555 acbf 3748 1c3e
000000f0: be7b 43bf c62b 52be 2003 353e 0c3c 613f
00000100: 0824 56bf 114d 85be 36a8 99bd 1aee 3b3f
00000110: 1a2f 3cbd 626b 423f eead 00bf 7ede 01be
00000120: 4b18 fe3b 4a07 96bd 1905 853f dd68 0a3f
00000130: f1cd 913e c311 de3d 401f f1be a843 43be
00000140: e601 da3f 6f35 a23e 5498 c8be a32f e5be
00000150: e350 b0be a9c1 283f 96f2 a0be 3f3d 823f
00000160: 0da0 d03f d20b 87be 739c 0cbe f9d7 dfbe
00000170: 923c 533e 5229 5ebe 8971 84bf dc5c f53d
00000180: 9eac febe 9189 51bf 335f f0bd 533c a73e
00000190: 027c a53e d83e c33e c19d a63d e21a 443f
000001a0: 1c05 66be 4044 d63e fa82 cebe 78c5 b43c
0.37006044 -0.5166608 -0.27160692 0.21158382 0.85569215 -0.9366322 0.34992695 0.6409443
0.20973113 -0.3045643 0.35079655 0.74295133 -0.79748374 1.0100802 -0.2749191 0.49707478
-0.15746334 0.045730706 -1.5148082 -0.50958186 0.029297799 -0.041727588 0.19219872 -0.52872235
-0.03973549 -0.4572803 0.26872143 -0.014858401 0.23602316 -0.50078505 -0.84189665 0.67075586
0.9580745 0.43298984 0.78413904 -0.3140384 -0.43593484 -0.857008 0.6662907 0.05134899
-0.39797622 -0.72887504 0.07329818 1.1997055 0.016562322 0.13451968 -0.28011197 -0.99900204
-0.24591687 0.3478328 0.04819765 0.4992246 0.84482914 -0.13323416 0.39202505 -0.6654436
0.22884078 0.5443505 -1.3463675 0.15261923 -0.7636069 -0.2052451 0.17676973 0.8798225
-0.8364873 -0.2603536 -0.07502787 0.7341019 -0.045943357 0.75945103 -0.50265396 -0.1268253
0.007754361 -0.07325609 1.0392181 0.5406626 0.28477433 0.108432315 -0.47094154 -0.19068778
1.7031829 0.31681392 -0.39178717 -0.44762906 -0.34436712 0.659205 -0.31435078 1.0174941
1.6298844 -0.26376206 -0.13731556 -0.43719462 0.20628574 -0.2169545 -1.0347148 0.11980602
-0.4974107 -0.81850535 -0.11736908 0.3266321 0.32321173 0.38133883 0.08135558 0.7660352
-0.22462887 0.41848946 -0.40334302 0.022066817

ian_model.model_ianet.down2.0.conv.5.running_mean f4 [12]
00000000: 3d92 f13e a26d 7e3f 2665 a63e 8daa 803f
00000010: 3dd6 493f 5ad7 ac3e 75c7 fabe 353a 5f3f
00000020: f717 8abe 72fb 723f 3700 82bf ba4d 7b3f
0.47181883 0.99386036 0.32499045 1.0052048 0.78842527 0.3375805 -0.489803 0.8719819
-0.2697141 0.94914925 -1.0156316 0.98165476

ian_model.model_ianet.down2.0.conv.5.running_var f4 [12]
00000000: 4ed9 c83e 8b96 653f e765 ce3d 822d 1e40
00000010: 0dcf 913f f11f 293e 0c9d 803f 8aff ec3e
00000020: 4ff2 c83d 6861 6640 0e15 8540 51c5 f33f
0.3922829 0.89682835 0.1007803 2.4715276 1.1391312 0.16516091 1.0047927 0.4628871
0.09811842 3.5996952 4.15882 1.9044591

ian_model.model_ianet.down2.0.conv.5.weight f4 [12]
00000000: 54f2 633f e34a 673f d636 a03f 4893 823f
00000010: 8623 7c3f 7c36 783f c0ee 8a3f add1 703f
00000020: b1aa 823f 20dc 8f3f 1225 8d3f ca58 753f
0.8904164 0.90348643 1.2516735 1.0201197 0.98491704 0.96958137 1.0854111 0.9406994
1.0208341 1.1239052 1.1026938 0.95838606

ian_model.model_ianet.down2.0.conv.5.bias f4 [12]
00000000: 660e 0bbf d838 da3e acdb b43d c147 f6bd
00000010: 27a9 1c3f 1ee1 d13d 2855 853c d67f f73e
00000020: a462 d2be 5464 e4bd 65a6 2ebe 0dab c7be
-0.54318845 0.42621493 0.088309616 -0.12025405 0.61195606 0.10248016 0.016275957 0.4833972
-0.41090882 -0.111519486 -0.17055662 -0.3899769

ian_model.model_ianet.down2.1.conv.3.weight f4 [48, 1, 3, 3]
00000000: c62d e4bb beed d3bd ae08 1cbf 808f 113f
00000010: 20aa 2f3e 8dcd d6be d5b2 cf3c ace1 abbc
00000020: cdd5 ab3e 5a96 013f c44a 103e f315 0f3e
00000030: 974c 0f3e ea08 513f 70ad a2bf 33c3 363e
00000040: 7266 b0be 540c 14bf 1d68 833f 293a be3f
00000050: 1f63 593e 21bf a43e 2aac 84bd 62a5 8ebe
00000060: 02da 063f 550b 983e 8d87 f93d fee0 e6be
00000070: 3b20 dc3e 63d7 843e 259e 60bf 886a 03bf
00000080: c529 e03c d2b7 253e e65d 99be f112 123f
00000090: 2dfb cdbe 3c21 e8bc 1e98 a03e b952 303f
000000a0: a32f 97bf 4291 cf3d 9f4a a23c 8e3b 503e
000000b0: 9940 26bf 49c8 623d cebb e2bd 7e7d e4be
000000c0: 2c14 e1be 9e2c 063e 5268 2ebd b897 c6bc
000000d0: 9742 88bf 7bcf 54bf 0ea5 b2bd d413 88be
000000e0: cc08 ee3d a448 58bf 2bb4 50be 11ef 5dbf
000000f0: 93ff 04be 314e 463f 0cbd d43e 04de b0be
00000100: 6245 c3be b1be 1bbd c7b3 3abf d3a4 973e
00000110: 78a2 1ebe 6d81 dabe e2db a53e 0962 5c3f
00000120: 195b a93e a992 293f 7348 0c3f 2b38 3ebe
00000130: fdfc 023e 2999 22bf 3b2e fabe 514c 463e
00000140: 3eb7 18bf 83d3 383f 6732 3bbf 5697 2e3d
00000150: 39a9 433f 2a89 b3bf 208f de3e 9e74 453d
00000160: 2073 ecbe fedc 76be 3765 2abe b2de e8be
00000170: bebd 153f 4b52 d8be 33d3 21be 1e61 0abd
00000180: edd7 4ebe 6456 89bd 786a 073f a7ed 713d
00000190: 82ff 31bf 88d1 833e 806b 8cbf 866b 44bf
000001a0: bba3 8e3e 31c5 0b3f 4817 c33c f0af 4b3e
000001b0: 823b d93e 0c30 0a3e 4bd8 09bf ffc1 113f
000001c0: df5e db3e 6df1 eebd b331 25bf 6da0 f73e
000001d0: 85dc ec3e e21f 85bd 19fa eb3e d230 56bf
000001e0: 21e8 fabd e983 8d3e 8fa2 06bf 80ce 2fbf
000001f0: 7c97 f2be 7c64 543d 5678 783e 1eac 6bbf
00000200: 0b06 033f a7b7 7f3e 6ab1 07bf b33b 24bf
00000210: 8574 b7bd 713f 6fbe 13ef e83e 13c8 bd3e
00000220: 29a4 d4bd da3a 3fbf 0278 8d3f 1dee 2c3e
00000230: ae29 0e3f 689b 69bf c731 893e 000c 97be
00000240: 09f2 7d3c 81b4 163e 7338 6c3e 5600 b63f
00000250: 4fb6 113f bd11 9f3d 4739 073e 74d4 95bf
00000260: 0a06 69bd 302f 813e 8607 45bf a5eb 573e
00000270: c563 8dbf e81a 163e fda7 0cbf 0ccc 333f
00000280: bf1c 07be bc7d 38bf 0cb9 96be b32f 61be
00000290: 659d dabe 7907 74bf fa78 1a3f 2a28 e23d
000002a0: 9135 213f bcc5 72bf 74ec 4fbf 50bb 463e
000002b0: 51f4 a9be f577 c73e 19c9 093f 53c5 ccbe
000002c0: 334a a9bd c90b 3c3f fbc2 bb3d 687a 7b3f
000002d0: dacf 26bf ab07 273f 036a eb3e 0e01 d5be
000002e0: 87fa 07bd 321c 4dbe 8ba7 b53d 3af5 f8be
000002f0: 17e5 bbbd 3de5 2fbf 729d 3cbd 5fa0 093f
00000300: 1eac e13e 420f 3d3f 317e 153e dfa8 25be
00000310: 27ba 093f fa3a a0be 9d19 39bd bab2 a9bf
00000320: 0325 13bf 3cb5 b6be f163 dfbe c2b1 433e
00000330: 03be fd3e 1031 8dbf 695e 74bf e1f7 393d
00000340: 329b 83bf 6b12 283e d676 2d3d 05d9 bdbe
00000350: 24ae 78be b59c 583f 9aba b5be 8224 a9be
00000360: 6413 863d 3901 bcbe 85ac adbe 2548 8e3e
00000370: 0e69 013f 451b 4abf 25c6 05bf 05e8 0bbe
00000380: 9837 353f 9c80 213c 5689 4a3d 71ed 9bbe
00000390: a717 91bd bbd5 513d 8096 33bf 0055 61bc
000003a0: 4855 853f 1a63 da3d 25de 383e 608d 343f
000003b0: 2c9c 6ebe 7cff 41be 9ecb a43e 5d3f 67bd
000003c0: 8668 3b3f 4e6e c53d 6a2d f9be 8731 c2be
000003d0: e9b2 febd a346 ef3e 91b8 253f c985 a6be
000003e0: 3fff 23bf 8b78 c83e 3b95 4ebe e1ce eabe
000003f0: 07cd c03e cdde 3cbe bade 5abf 88fa 5c3e
-0.0069634644 -0.1034808 -0.60950744 0.5685959 0.17154741 -0.41953698 0.025353828 -0.020981632
0.33561555 0.50620043 0.14091021 0.13973217 0.1399406 0.81654227 -1.2709179 0.178479
-0.3445316 -0.5783131 1.0266148 1.4861499 0.21229218 0.3217707 -0.0647815 -0.27860552
0.52676404 0.29696146 0.121840574 -0.4509353 0.4299334 0.25945577 -0.8774131 -0.5133443
0.027363667 0.16183403 -0.2995445 0.5706015 -0.40230694 -0.02833616 0.31366056 0.68876225
-1.1811413 0.101351276 0.019810973 0.20335218 -0.6494232 0.055366788 -0.11070977 -0.44626993
-0.43960702 0.13102958 -0.042579956 -0.024242267 -1.0645322 -0.8312909 -0.08722888 -0.26577628
0.116227716 -0.8448584 -0.20381229 -0.8669291 -0.12988119 0.7746306 0.4155048 -0.34544384
-0.38138872 -0.038023654 -0.7293057 0.29617938 -0.15491664 -0.4267687 0.3239432 0.8608709
0.33077314 0.6623941 0.5479805 -0.18576114 0.1279182 -0.63514954 -0.48863396 0.1936505
-0.59654605 0.7219774 -0.7312378 0.042624794 0.7643009 -1.4026234 0.4346857 0.048206918
-0.46181583 -0.2410774 -0.16640173 -0.45482403 0.5849265 -0.42250285 -0.15803222 -0.033784024
-0.20199557 -0.06705931 0.52896833 0.059064534 -0.695305 0.25745797 -1.0970306 -0.7672657
0.2785929 0.54597765 0.023814812 0.19891334 0.42428213 0.13494891 -0.5384566 0.5693664
0.42845818 -0.11667142 -0.6452896 0.48364583 0.46261993 -0.06500222 0.46089247 -0.83668244
-0.12251306 0.27639702 -0.52591795 -0.6867447 -0.47381198 0.051853642 0.24264655 -0.92059505
0.51181096 0.24972402 -0.5300509 -0.64153594 -0.08957771 -0.23364045 0.454949 0.37066707
-0.103828736 -0.74699175 1.1052248 0.16887708 0.5553235 -0.91252756 0.2679579 -0.29501343
0.0154996 0.14717294 0.23068409 1.4218853 0.56918806 0.07767055 0.13205443 -1.170546
-0.056890525 0.25231314 -0.76964605 0.21085985 -1.1046072 0.14658701 -0.5494383 0.70233226
-0.1319456 -0.72066855 -0.29438055 -0.21990852 -0.42698207 -0.953239 0.60340846 0.11042817
0.6297236 -0.9483297 -0.81220174 0.19407392 -0.3319421 0.38958707 0.53822476 -0.39994296
-0.082661055 0.7345548 0.09168049 0.9823365 -0.65160906 0.65246075 0.45979318 -0.41602367
-0.033197906 -0.20030287 0.08869847 -0.48624593 -0.09174555 -0.68709165 -0.04604859 0.5376033
0.44076627 0.73851407 0.1459892 -0.161777 0.5379967 -0.31294996 -0.045190442 -1.3257668
-0.5747835 -0.35685146 -0.43630937 0.19110778 0.4955903 -1.1030598 -0.9545656 0.04540241
-1.0281737 0.16413276 0.04234966 -0.37079635 -0.2428518 0.84614116 -0.35493928 -0.33035666
0.06546667 -0.36719683 -0.33920684 0.27789417 0.50550926 -0.7894786 -0.5225547 -0.13662727
0.70787954 0.009857323 0.04944738 -0.3045459 -0.070845895 0.05122922 -0.7015152 -0.013753176
1.0416651 0.106634334 0.18053491 0.7052822 -0.23301762 -0.18945116 0.32186598 -0.056456912
0.73206365 0.096401796 -0.4866746 -0.3792841 -0.12436468 0.4673358 0.6473475 -0.32523945
-0.6406135 0.39154467 -0.20174114 -0.4586096 0.37656423 -0.18444367 -0.85496104 0.21579945

ian_model.model_ianet.down2.1.conv.5.running_mean f4 [48]
00000000: d2ac ba3b 5029 08be 4236 be3f 4f6e 4abe
00000010: 5768 d1be 8d57 cdbf eafe 40be cef3 30be
00000020: 5ab7 87bc bad3 bebd 9742 44be 515c babc
00000030: 9977 283e f0e5 23bf 16a5 a6be 6ca5 4e3e
00000040: 6bbb 23bd a5ba 3dbf df06 8cbf 91df d13e
00000050: 01a8 cabe 2df5 2e3f 4aa7 94bf 88fc f3be
00000060: 4f6e 4cbe f362 373c fd51 673e 95a8 33be
00000070: daed 7abe 3017 793e 3b67 cf3c 8bd2 f1be
00000080: d39e 1d3f 8844 c0bf e000 4f3b c8e0 7c3d
00000090: 9756 e4be 1b7a 22be 2a46 15bf 70ec 5fbf
000000a0: e827 a4be 289f 6abe 7126 843f 6723 72bd
000000b0: bc3d 12c0 2c03 de3c d070 323c 9d6e 5a3e
0.0056968713 -0.1329701 1.4860308 -0.19768642 -0.40899917 -1.6042343 -0.18847242 -0.17280504
-0.016566921 -0.093177274 -0.19166027 -0.022749098 0.16451873 -0.6402273 -0.32547826 0.20180291
-0.039973658 -0.7411292 -1.0939597 0.4099088 -0.39581302 0.6834286 -1.1613553 -0.47653604
-0.19963954 0.011193025 0.2258987 -0.17544778 -0.24504796 0.24325252 0.025317779 -0.47230944
0.6157047 -1.5020914 0.0031586215 0.061737806 -0.44597313 -0.15866892 -0.58310187 -0.8747015
-0.32061696 -0.22912276 1.0324231 -0.059115794 -2.285018 0.027101122 0.010891154 0.21331258

ian_model.model_ianet.down2.1.conv.5.running_var f4 [48]
00000000: e0f5 e63b 7030 333f f0b5 8040 0658 d23e
00000010: b65b 8a3f 9360 253f 377e 2b3f e63f f03e
00000020: 636c be3f f22e 103f c732 053f d9b0 fc3e
00000030: db9c 613f dcf4 4540 7280 fb3f cb9d 1740
00000040: 2ac2 9e3e 7737 4a40 6ea3 8c40 5635 ca3f
00000050: aba6 e53e b4f2 c43f 410d 9640 25b8 a13f
00000060: a00a 2b3f ffaf 4c3e 1bf4 813f 0584 233f
00000070: ccbd b33f 73c3 3f40 ea06 1b3f b30c ed3f
00000080: e209 0340 f8cc ea3f ee60 773e 25c3 913e
00000090: 01f4 1e40 6a7a e43e 3a12 8d3f 8adf 2e3f
000000a0: 0c69 573f d97b 913f 7117 8e3f 8c29 ab3e
000000b0: 1e3f 3040 d54b 933f 545a 093e a535 a13f
0.0070483536 0.69995785 4.022209 0.41082782 1.0809238 0.64600486 0.66989464 0.4692375
1.4876827 0.5632163 0.52030605 0.49353674 0.8812997 3.09307 1.9648573 2.369006
0.3100751 3.1596353 4.39495 1.5797527 0.4485372 1.5386567 4.689118 1.2634321
0.6681309 0.19989012 1.015262 0.6387332 1.4042296 2.9963043 0.60557425 1.85195
2.0474782 1.8343801 0.2415807 0.28469196 2.4836428 0.44624645 1.1021187 0.68309844
0.84144664 1.136592 1.1100904 0.33430135 2.7538524 1.1507517 0.13413364 1.2594496

ian_model.model_ianet.down2.1.conv.5.weight f4 [48]
00000000: a4ac 613f 48b8 983f b97d 6d3f 83ec 823f
00000010: ee56 8d3f c38a 873f 732e 743f b1cf 123f
00000020: 87b9 523f 5429 943f f0ec 883f f24b 763f
00000030: 0774 853f a546 df3e f35e 573f b7db 7d3f
00000040: 77ec 603f 4830 8b3f 9cc4 853f 131b 6b3f
00000050: 035a 8b3f a392 8d3f 6ce7 9c3f 1652 8b3f
00000060: 59b1 8b3f 221b 853f dd07 783f 7cf8 9a3f
00000070: 8f13 963f 599f 853f fd8c 893f 5209 8f3f
00000080: 6041 933f 73d1 803f bb43 813f 2694 753f
00000090: 4b31 833f e95f 8c3f 893e 793f 6ec9 5e3f
000000a0: 0903 7b3f 99cd 823f 1a9a 883f f396 b03f
000000b0: fada ae3f 5ab4 8d3f 9a26 8c3f 83cd 6d3f
0.88154054 1.1931238 0.9276996 1.0228428 1.1042154 1.0589222 0.95383376 0.5734816
0.8231434 1.1575112 1.0697308 0.96209633 1.0426034 0.43608585 0.84129256 0.99163383
0.87860817 1.0874109 1.0450625 0.91838187 1.0886844 1.1060375 1.2258124 1.0884426
1.0913497 1.0398905 0.96887 1.2107081 1.1724719 1.0439254 1.0746151 1.1174719
1.1504326 1.0063919 1.0098795 0.9592918 1.0249418 1.096677 0.97361046 0.8702611
0.98051506 1.0218993 1.0672028 1.3796066 1.3660576 1.1070664 1.094928 0.9289171

ian_model.model_ianet.down2.1.conv.5.bias f4 [48]
00000000: 2c12 17bf 57bf 243f d79f 143e f246 6fbd
00000010: 7bc5 343f 5a13 4d3e 4bff 1cbe cd73 363f
00000020: cf4d 763d 71ab 2abe 1225 b3be 9343 26be
00000030: ff32 b7be 1032 83be a734 8fbe 0238 8fbd
00000040: 2769 31bf 31fd a63e 325e 043e 125d 0abf
00000050: 5398 d2bd 2331 923e e536 21be 9caf 9d3d
00000060: 8281 963c ee28 9cbd 644c 6cbe 0a63 6bbd
00000070: 22e3 09be a14a 31bd 112a b33d 929d dd3e
00000080: 2464 fe3e 22aa 99be 0374 dd3e 6123 bf3d
00000090: b7a5 713e c398 07bf b051 243f 7577 dfbd
000000a0: 6a9c b2bd aa0b 17be 7975 873e 197f be3e
000000b0: 1997 0abe 4633 c8bd ae42 b13d b519 983c
-0.59012103 0.6435446 0.14514099 -0.058417268 0.7061383 0.20026913 -0.15331762 0.7127045
0.060132798 -0.16666962 -0.3498922 -0.16236715 -0.35781094 -0.25624132 -0.27969858 -0.069931045
-0.69301075 0.32615045 0.12926558 -0.54048264 -0.1028296 0.28553113 -0.15743597 0.076995105
0.018372301 -0.07624994 -0.23076016 -0.057467498 -0.1346555 -0.043284062 0.08748258 0.4328428
0.49685776 -0.30012614 0.43252572 0.0933292 0.23598371 -0.5296747 0.64187145 -0.109114565
-0.0872124 -0.14750543 0.26456812 0.37206343 -0.13534202 -0.09775405 0.08655296 0.018566946

ian_model.model_ianet.down2.2.conv.3.weight f4 [48, 1, 3, 3]
00000000: 3926 423f 1bca d6be 23a4 6cbe 03a1 53be
00000010: ff3f 943e 24e6 21bf 4278 ecbe 3c1b 6ebe
00000020: fc9d 753e 5fc0 f83d 954c 2c3e 9d00 d0bc
00000030: d076 dcbe b177 723e 084d 493e ceef f73e
00000040: c860 c2be dd70 06bf 06dc 19bf e5f6 893d
00000050: b4aa db3e 8901 85be 6659 da3e 8023 27bf
00000060: f6ea 8b3f 30b8 24be 2a2b ae3d 05f7 debe
00000070: bbe5 a23d 6b36 b6be 0899 fd3e 3378 65bf
00000080: b717 2cbf ad63 03bf 0c17 d33e f6a4 f53e
00000090: 742b fabe 6afa 0d3e 1813 22bf 0e4f 28be
000000a0: 2196 9ebe 35dc 273f 86aa 0f3e 8802 243e
000000b0: a2a8 7dbe 5d8d 31bf 5630 a73f 894f 05bf
000000c0: ccdb 81be 289a 02bf f599 4ebf a665 a53d
000000d0: 1963 96be f968 ab3e 8c73 4fbf a84d dabe
000000e0: 39a1 8cbe 327a e73d aae1 7ebf 5231 553d
000000f0: 7563 2c3e 90e1 bebe ce67 20bf 30cb 0cbf
00000100: d005 163e 9f87 523e 194a 18bf 8ca9 90be
00000110: a822 3fbf b6d9 cfbe e120 4c3f dd5a e13e
00000120: 1773 ae3e 78d8 debe b4a7 273e 2955 253f
00000130: 987b 57bf 6f28 b1be 5e97 293d a0e0 1abf
00000140: 4ca2 d7be ea2b 2a3f 7d3d 93bf f20c 1fbf
00000150: b8cb 28be 3e88 3fbf e726 ed3e b590 4f3f
00000160: b6b1 29be 2565 54bf 0d05 373e cdb8 143f
00000170: 249c 933e c748 553f 3e03 68bf 7756 ca3e
00000180: 498a 4dbf 945e 19be e8d2 95be 0b2f 033f
00000190: 3a62 763f 7a33 14be 0f2a 8abd 3831 9dbf
000001a0: 433e afbe 1155 85bd bea3 13bf 93ed 303f
000001b0: 4040 2f3f a490 93be 3a10 7bbf cb33 593e
000001c0: ea37 5dbd 22b1 a83e 505f 363f 9bc2 3d3e
000001d0: dda1 70bd d7ea 893f 571c e6be 011d 923f
000001e0: 9be1 aabd 02c9 b03e 197e a83e 7af4 e1be
000001f0: 492e ec3e 70c6 89be f018 09bf 2c2c 65be
00000200: ff0b b53e d751 0bbf 185c 6cbf 7ad5 c43e
00000210: 1027 cebe 69ed 263f ec23 d8be 4cfd 12be
00000220: ae0a 80bf bcd1 bfbf 25c6 74be 54e6 92be
00000230: 7388 a33e 5a60 4abd 7f7f 873f 6059 c3be
00000240: 2d5b 1d3e 7e86 eb3e d04d 87bf 9652 79bf
00000250: 1927 213e 57e6 6cbc 4b27 013f 09ad 2e3f
00000260: 07bf f6be df98 1b3f ae38 66be a223 703f
00000270: dd4a 3fbf 4034 ca3d 1ea7 f23d efc6 ecbc
00000280: cef2 08bf 3e1f 6b3f 9eab 7f3e 41d6 023e
00000290: 13ac fcbe b26b e23e f763 b73e f604 25bf
000002a0: 45c4 2b3f c74f dc3e 3a56 00bf 8671 06bf
000002b0: 01be 813e 0466 fabd 8fa6 67bf 3a6d 9a3e
000002c0: be5a 773f 168c 27bf 903a b2be 8f01 25bf
000002d0: 0a02 74be b628 2bbf ed66 983e 744a 3c3f
000002e0: c4dd 023e bac3 3a3e 82f6 2fbf 36a0 11be
000002f0: 2398 52be 81d4 ac3e 79bb cb3e 5e2e 923d
00000300: 928c 07bf 6408 893e ed54 593f 0282 5abe
00000310: 7875 8dbc 0330 b9bd 7aac 813e c40f 353f
00000320: 63bf a8be d24a acbf 566e fd3d 7e4d d33d
00000330: eca7 2a3f bd64 f63e fb28 063e 8d47 56be
00000340: a7b5 1dbf 9c49 da3e 777e 7d3e 5336 533e
00000350: 48c2 5cbe c4f4 da3e 5a6e fbbc 5ea0 06bf
00000360: 5076 133f 2e54 ebba c507 003f 518b 50be
00000370: 4e47 233e f0e7 a0be e3d4 4dbd cb6c 643d
00000380: 2f1b d2be 5afd ca3e 38e9 91be 3f05 5d3f
00000390: a9b8 3c3e 59ed 0e3f f781 2bbf b58a 323f
000003a0: 3851 41be d479 0ebf 2598 923e 0daa a6be
000003b0: 115e dfbe 4b82 0c3e 22b2 e3bd f5de 903f
000003c0: e455 d33e f4f6 65be d990 44bf e81d c0be
000003d0: 7d75 613e c79b 46bf 7206 dd3f f0cd 073e
000003e0: 5305 103e 6925 70bd 7d86 49be 0a1e 043f
000003f0: 06a9 623e 3220 6fbf 42a0 4ebf 77a2 3bbf
0.75839573 -0.4195107 -0.23109488 -0.2066689 0.28955075 -0.6324179 -0.461855 -0.23252577
0.23986048 0.12146067 0.16826089 -0.025390917 -0.43059397 0.23678471 0.19658291 0.48425144
-0.37964463 -0.52515966 -0.60101354 0.067365445 0.42903674 -0.25977734 0.4264633 -0.65288544
1.0931079 -0.16085887 0.08504327 -0.43547836 0.07953974 -0.35588393 0.49530816 -0.89636534
-0.67223686 -0.5132397 0.4122852 0.47977418 -0.48861277 0.13865057 -0.63310385 -0.16436407
-0.30973914 0.65570384 0.14029893 0.1601659 -0.2477136 -0.6935633 1.3061626 -0.52074486
-0.25363004 -0.51016474 -0.8070367 0.080760285 -0.2937248 0.33478525 -0.81035686 -0.42637372
-0.27466753 0.11302604 -0.99563086 0.05204899 0.16834815 -0.37281466 -0.62658393 -0.5499754
0.14650655 0.20559548 -0.59488064 -0.28254354 -0.74662256 -0.40595788 0.7973767 0.44014636
0.34072182 -0.43524528 0.16372567 0.6458307 -0.84172964 -0.3460116 0.04140412 -0.60499
-0.4211601 0.6647326 -1.150314 -0.6212913 -0.16483963 -0.74817264 0.46318743 0.8108018
-0.16571698 -0.82966834 0.1787302 0.58094484 0.28830063 0.83314174 -0.9062995 0.39519092
-0.8028913 -0.14977485 -0.2926247 0.51243657 0.9624363 -0.14472762 -0.06746303 -1.2280645
-0.3422719 -0.06510366 -0.57671726 0.6911251 0.6845741 -0.2882129 -0.98071635 0.21211164
-0.054008402 0.32947642 0.71239185 0.18531267 -0.058748115 1.0774792 -0.44943497 1.1415101
-0.08343812 0.34528357 0.32908705 -0.44131833 0.46129063 -0.26909208 -0.53553677 -0.22380131
0.35360715 -0.5442175 -0.92328024 0.3844412 -0.40264177 0.6520601 -0.42214906 -0.14354438
-1.0003259 -1.4985881 -0.23903711 -0.2869135 0.3194004 -0.049408294 1.0585784 -0.38154125
0.15366812 0.46001047 -1.0570621 -0.9739164 0.15737571 -0.014459214 0.5045058 0.6823278
-0.48192617 0.6078014 -0.22482559 0.9380437 -0.7472361 0.09873247 0.11848281 -0.028903453
-0.5349549 0.91844547 0.2496781 0.12777044 -0.49350032 0.4422279 0.35818455 -0.64460695
0.6709636 0.43029615 -0.5013157 -0.52516973 0.25340274 -0.12226489 -0.90488523 0.30161458
0.96622837 -0.6544813 -0.34810305 -0.64455503 -0.23828903 -0.66858995 0.29766026 0.73551106
0.1277991 0.18238726 -0.68735516 -0.14221272 -0.20565848 0.33755878 0.39791468 0.0713775
-0.5294887 0.26764214 0.8489521 -0.21338657 -0.017267928 -0.09042361 0.25326902 0.7072718
-0.32958516 -1.3460333 0.123745605 0.10317515 0.6666248 0.48123732 0.1310157 -0.20925732
-0.61605304 0.42634284 0.24755274 0.20626192 -0.21558487 0.42764866 -0.030692268 -0.5258845
0.57602406 -0.0017954165 0.50011855 -0.20365645 0.1594517 -0.31426954 -0.050251853 0.055767816
-0.41036364 0.39646417 -0.28498244 0.8633613 0.18429817 0.55830914 -0.66995186 0.697429
-0.18878639 -0.55654645 0.28631702 -0.32551613 -0.43626454 0.13721578 -0.111179605 1.1318041
0.41276467 -0.22457486 -0.7678352 -0.37522817 0.22017474 -0.7758145 1.7267592 0.13262153
0.14064531 -0.058629427 -0.1968021 0.51608336 0.2213479 -0.934085 -0.80713284 -0.73294777

ian_model.model_ianet.down2.2.conv.5.running_mean f4 [48]
00000000: 48c5 a8bd 4193 33bd 6f84 a33d 188d 0ebf
00000010: 400f 85be 70c0 4bbd ca69 3cbf 8b7a f0be
00000020: b255 3fbf 3031 bcbe 061d 163d b20e 15be
00000030: 9754 ba3e f774 263f 9231 25bf ba0d e0be
00000040: 6a06 9bbe c398 843e dba4 883d dfd1 3abe
00000050: 9e77 2abe fd72 173e ad20 aa3e 827f bdbd
00000060: 50f5 ae3d c5de 8dbd bb06 4c3d 1f54 993e
00000070: 0fd6 94bf caf2 35be edea 963c e6d6 863f
00000080: b167 00bf f2ef d8be da66 b3be 704d 2d3e
00000090: 4e86 ab3e afca 2a3d ada0 24bf 14b3 653f
000000a0: 9ca6 a4bf 456f 30c0 0700 403f 9269 893d
000000b0: b348 de3f 7416 a7be 2439 80be 9d2a 043f
-0.082407534 -0.043841604 0.07984244 -0.5568404 -0.25988197 -0.04974407 -0.7359892 -0.46968493
-0.74740136 -0.36756277 0.036648773 -0.14556387 0.36392662 0.65022224 -0.64528763 -0.43760473
-0.3027833 0.25897798 0.06672069 -0.18244122 -0.16647193 0.14789958 0.33228055 -0.09252836
0.085428834 -0.069272555 0.049811106 0.29946992 -1.1627825 -0.17768398 0.018422568 1.0534332
-0.5015822 -0.42370564 -0.35039407 0.16924071 0.33500904 0.0416972 -0.6430767 0.89726377
-1.2863345 -2.7567914 0.7500004 0.06709589 1.7365936 -0.32634318 -0.25043595 0.5162752

ian_model.model_ianet.down2.2.conv.5.running_var f4 [48]
00000000: 8d31 893e 4fdb 9b3e 2e65 073f a410 d13f
00000010: dc94 8d3e 6156 af3e 7268 8140 97ab a13e
00000020: de40 2340 2039 943f 0e57 043f 2200 153f
00000030: 8567 183f 19b7 7640 3e7d 513f e9d6 0040
00000040: 7a83 fc3e fdbc 093f adfb 103f 5edd d73e
00000050: e467 883f e419 3b3f ad7d 4b40 11b5 823e
00000060: b3ce 2e3f 8180 c83d 01ef 383f 3d1a 843f
00000070: b690 bc3f 03a7 3c3f 694e 303e 57f8 a140
00000080: 24be 8d3f e616 8a3f 8b37 753c 8f76 1f3f
00000090: 2cc9 3b3f 8230 5f3f bcc1 9b3f 70aa 2540
000000a0: 70a0 c83f e00d 7b3f b972 4340 d901 bb3e
000000b0: febc 9e40 494f 1640 1faa 233f bce6 8440
0.26795617 0.30440757 0.5288876 1.6333203 0.27652633 0.3424559 4.0439997 0.31576225
2.5508342 1.1579933 0.51695335 0.5820333 0.5953296 3.8549254 0.8183173 2.013117
0.4931906 0.53804 0.56634027 0.42161077 1.0656705 0.7308638 3.1795456 0.25528768
0.6828415 0.09790135 0.7223969 1.0320507 1.4731662 0.7369234 0.17217411 5.061565
1.1073651 1.0788238 0.014966856 0.6229028 0.7335384 0.8718339 1.2168498 2.5885277
1.5673962 0.98068047 3.053877 0.36524847 4.9605703 2.3485892 0.6393146 4.153166

ian_model.model_ianet.down2.2.conv.5.weight f4 [48]
00000000: 78c3 863f 7deb 633f 6279 933f dcbb 713f
00000010: c5b1 543f 9258 663f 9392 a43f 5a63 903f
00000020: 5259 653f 5a39 8d3f e5e5 553f f95e 333f
00000030: 5060 823f efdb 9d3f 9dce 853f d878 6b3f
00000040: 91c0 873f 0a7c 893f ba69 883f 2113 933f
00000050: 2c1e 743f 0c55 863f caa5 713f 69dd 8c3f
00000060: 9264 563f 4c9c 6d3f 7461 7d3f ef94 5b3f
00000070: b15a 853f 750e 8b3f 05b1 7d3f 0156 7b3f
00000080: df21 933f a810 8e3f 7cdc b23f 640f 953f
00000090: b9ce 673f 7fed 8d3f 2fb9 8f3f 46c4 7a3f
000000a0: 329a a73f 0006 7e3f 7402 813f 7b9f 863f
000000b0: c255 923f ec26 8b3f f1ce 8a3f be63 a43f
1.0528402 0.890312 1.1521418 0.94427276 0.83083755 0.899789 1.2857231 1.128032
0.89589417 1.1033127 0.83553916 0.7006679 1.0185642 1.2332743 1.0453678 0.9198127
1.0605642 1.0740979 1.0657265 1.1490213 0.9535854 1.0494704 0.943936 1.1005069
0.8374721 0.92816615 0.98976827 0.8577413 1.0418302 1.0863787 0.99098235 0.98178107
1.1494712 1.1098833 1.3973536 1.1645322 0.9054981 1.1088103 1.1228389 0.9795574
1.3093932 0.99227905 1.0078874 1.051742 1.1432421 1.0871253 1.0844404 1.2842939

ian_model.model_ianet.down2.2.conv.5.bias f4 [48]
00000000: 11c9 843d 1140 63be ddc6 6c3e 69ed 38bd
00000010: 04e4 38be 550a 60be ec95 463e 3185 ee3d
00000020: 845d 8cbe df28 f93e a80f d43e 771e 33be
00000030: 2f96 853e 9173 9fbd ea04 233d 6cee d73d
00000040: 78f5 693d 1b9b 80bd 50a1 5ebe f514 803e
00000050: 71ce 103e 9e84 283d e6f4 81be 4d1a 743e
00000060: 147c abbe 620e 2bbf 561b 43be 7a12 52bb
00000070: 021d b73e a7e0 5ebd c5dd 4f3f 2389 8bbc
00000080: 0e0c cdbd 4e08 e93d 7056 f0be 9698 923d
00000090: 6882 18bf 857c 03be e840 cf3e e759 9cbe
000000a0: 0387 cebd 8f04 0bbe 4f44 093e 1e91 cdbe
000000b0: 9275 673e 466a 90be 8eaf 6e3e 7bff e438
0.06483663 -0.22192408 0.23122735 -0.045148287 -0.18055731 -0.21878941 0.19393128 0.11646498
-0.27415097 0.48663995 0.41418195 -0.1749209 0.26091143 -0.077857144 0.03979961 0.10543522
0.057118863 -0.06279584 -0.21741223 0.2501599 0.14141251 0.0411421 -0.25382155 0.23838158
-0.33493102 -0.6681882 -0.19053397 -0.003205447 0.3576432 -0.054413464 0.8119777 -0.017033165
-0.10012065 0.11378537 -0.46940947 0.0715801 -0.59573984 -0.12840469 0.40479207 -0.3053734
-0.10084345 -0.13575958 0.13404964 -0.40149778 0.22603443 -0.2820608 0.23309156 0.00010919474

ian_model.model_ianet.down3.0.conv.3.weight f4 [48, 1, 3, 3]
00000000: 3958 f93e 105a 83be abcb 50be 749d 8c3e
00000010: 66aa f6be ae86 543f 4870 9abd 5894 17bf
00000020: 1499 1e3e 0b53 683f df6c 0dbf 8788 983d
00000030: 0d1b cdbd cddf 90be 7f38 ddbe 435c ae3e
00000040: eaac e9be 1c5a dcbe 5d50 ea3e 68c3 a7be
00000050: 11f1 263e 1bb1 883e e4ca dcbd f700 aabe
00000060: 307c 21bf 4ae8 213f 4846 813e cb7c a33e
00000070: 52b4 1bbf 7c15 4a3d 1117 37bf 749d e0bd
00000080: da08 29bf c637 51be 6412 a6bc c165 7b3e
00000090: f463 82bf d4c0 dfbe 6ebf 02bf 5d09 1fbe
000000a0: 56b1 11bf d4f1 85bf e76f b8be 6493 c4bd
000000b0: 52e4 23bf 5aee 25be 10a4 88be f4fa 97bd
000000c0: 973e d2bd d1da 03bf 96cb 913e 48d7 043f
000000d0: cf19 5bbf 4c46 eb3e 28df 023f 896a e53e
000000e0: 1830 bdbe 0e30 9bbe de0c 80bf df3a 7bbd
000000f0: 9c9e 7d3e c35f ab3e ec05 cb3e ed9f 313f
00000100: c827 d7be 7665 41be 8984 523e 9432 f73d
00000110: 7b63 353f 4625 4b3d b11e 1abf 2451 a0be
00000120: cc70 2dbd 869a 373e cca5 543f 5e93 f73e
00000130: dcde 163e 2ddb aa3e 0d80 de3e 40c5 f13d
00000140: 45e7 e13d 62a1 263c 6822 55bf ae5b b8be
00000150: f3a9 153e cfdf 983e be1e 72bf 0e19 c93e
00000160: a5da b23e 6f0a 8e3c c74b 6dbf f133 11bf
00000170: 2b71 ae3d a51c 6bbf c29d c5be e69b 6cbe
00000180: c1c4 98be 7d8d bbbe a0ec 01bf 973a 53be
00000190: d15b 653f a924 c63e 286d cc3d 3ee0 b7bf
000001a0: 56fa 343e 4458 5a3e fbfc b13e d0c8 09bf
000001b0: 9b2f 18bf 2298 92be 46d9 82be f852 b6bd
000001c0: 6064 c13e 0b40 6dbc 799f 4fbf 7ac3 8f3a
000001d0: c25d 94be 36c4 383f 0313 65bf e315 f73e
000001e0: ea2b ab3e 94b7 3cbf bd4e 2b3e 10bf 423e
000001f0: b633 80be 9fbb 183e 4f57 26bf acfb 023f
00000200: fc2b 44bf 1a9b 19bf 6bd1 69bf 7788 8abf
00000210: 8017 28be 6e1c 89be 40be d5bd 46ce 59be
00000220: ef10 713f 45b5 873f b8ad 98be 40d6 893e
00000230: 7a55 2f3c 0e1d 4fbe e4aa 29be 6047 87bd
00000240: a0f0 94be 6370 56be 17a8 053f 4589 38bf
00000250: 1a86 8dbe 377f 5fbd f494 c3bd 3ce8 17be
00000260: bb45 4cbf 09b3 9e3e 83c2 513d bf81 1cbf
00000270: d69c 663f ffd9 12be ff15 ecbe a2c7 fc3b
00000280: 8baa 8cbf d462 a43e c3bd 96be 02f9 04bf
00000290: 3001 603f b4c0 643f 6f27 17bf c76a 083f
000002a0: 6105 12bf 9884 8c3e e271 4c3e 3307 363f
000002b0: 922d 75bf e21b 0fbe 280c b93e 1a76 213f
000002c0: aa41 d23d f4c7 d6be ee0b 02bf a14a 7b3c
000002d0: b5ce 203f 3fe7 413f 7787 3d3e 78a9 b6be
000002e0: 5aeb 0f3f 9772 883e 2851 74bd d966 2dbe
000002f0: 0021 a8bb 94db 94bf 519e f3be 4875 1d3f
00000300: d75d 953e 1132 bfbe f1a3 35bf 4509 f7be
00000310: 6e29 d33e fc9f afbd d1d6 813d 9d98 d6be
00000320: e236 33bf a8f5 533f 132d dc3e a642 f13e
00000330: 0649 143e 6a14 dcbe 2817 08bf bddb 813f
00000340: b1aa 10bf 8cee a0bf ea18 183f 79cc 3d3e
00000350: 9ec2 0cbc c6cb a2be 9797 4cbe cb1f 493e
00000360: 2285 673f a215 83be bf84 99be a0c9 04bf
00000370: 4668 17bf 762f 2c3f 081d 863f 40ba ffbe
00000380: 6a8a 56bf b544 ab3e c724 d13e 65bf 3bbf
00000390: 70b6 03bf 393a 3ebe c6d9 fe3e 8bd9 0c3f
000003a0: 11b5 bb3e 9b0d 91be 29a0 f93e 39d0 48be
000003b0: 5bb2 8bbb 3bab 523e 2687 5ebe 60e2 093f
000003c0: f451 923f f182 343f a3a6 be3f 1479 70bf
000003d0: 8bfe c0bd 2706 2bbe 3a1e acbe 3a93 fb3d
000003e0: 101d 03bf cd42 1a3e 88da 713f 54dc 0d3f
000003f0: 61e2 f1be 8ea0 a63d 10e0 1cbf 8e23 06bf
0.4870012 -0.2565465 -0.20390193 0.27463877 -0.4817688 0.83018005 -0.07540947 -0.5921073
0.15488082 0.90751714 -0.5524425 0.074479155 -0.10014925 -0.28295746 -0.43207166 0.34054765
-0.45639735 -0.43037498 0.45764437 -0.3276627 0.16302897 0.2669762 -0.10780886 -0.3320386
-0.6308012 0.6324507 0.25248933 0.31931147 -0.6082202 0.049336895 -0.7151957 -0.10967532
-0.6602913 -0.20431432 -0.020272441 0.24550535 -1.0186753 -0.43701804 -0.5107335 -0.15530916
-0.5691122 -1.0464425 -0.36022875 -0.09598425 -0.64020264 -0.16204205 -0.2668767 -0.074209124
-0.10265844 -0.5150576 0.28475636 0.51890993 -0.85586256 0.4595207 0.5112176 0.44807842
-0.36950755 -0.303101 -1.0003927 -0.06133544 0.24767536 0.33471498 0.39652956 0.6938465
-0.42022538 -0.1888636 0.2055837 0.12070194 0.7085492 0.049596094 -0.6020308 -0.31311905
-0.0423439 0.1793004 0.83065486 0.4835462 0.14733452 0.33370343 0.4345707 0.118052006
0.11030439 0.010170313 -0.83255625 -0.36007446 0.14615612 0.29858252 -0.9457816 0.39276928
0.34932438 0.01733896 -0.9269375 -0.5671988 0.08517679 -0.91840583 -0.38596922 -0.23106346
-0.2983761 -0.36631384 -0.50751686 -0.20627819 0.89593226 0.38699844 0.099817574 -1.4365308
0.1767362 0.21322733 0.3476332 -0.5382204 -0.5944764 -0.28631693 -0.2555639 -0.08902544
0.37771893 -0.014480601 -0.8110271 0.0010968291 -0.28977782 0.72174394 -0.89482135 0.48258886
0.3343194 -0.7371762 0.16729255 0.19018197 -0.25039452 0.14915322 -0.6497697 0.5116527
-0.76629615 -0.6000229 -0.9133517 -1.0822896 -0.16415215 -0.26779503 -0.10436678 -0.21270093
0.94166464 1.0602194 -0.29820037 0.26921272 0.010701532 -0.20225927 -0.16569096 -0.066054106
-0.29089832 -0.2094131 0.5220961 -0.72084457 -0.27641374 -0.05456468 -0.09549895 -0.14834684
-0.797939 0.30995968 0.05121089 -0.61135477 0.9008306 -0.14340971 -0.46110532 0.007714228
-1.0989546 0.3210665 -0.29441652 -0.51942456 0.8750181 0.8935654 -0.59044546 0.5328793
-0.5703946 0.2744491 0.19965318 0.71104735 -0.9577266 -0.1397548 0.36142087 0.63070834
0.10266431 -0.41949427 -0.50799453 0.015337617 0.6281541 0.7574348 0.18508707 -0.3567617
0.56218493 0.26649925 -0.05964771 -0.16933765 -0.005130887 -1.162951 -0.47581723 0.6150708
0.29173157 -0.37342885 -0.7095328 -0.4824926 0.41242546 -0.085754365 0.06339801 -0.4191331
-0.7000562 0.82796717 0.4300314 0.4712116 0.14480981 -0.42984325 -0.53160334 1.0145184
-0.56510454 -1.2572799 0.59413016 0.18535031 -0.008591322 -0.31796092 -0.19979702 0.19641034
0.9043752 -0.25602442 -0.2998409 -0.51870155 -0.59143484 0.6725992 1.047761 -0.49946785
-0.83804953 0.33450857 0.4084837 -0.7333892 -0.5145025 -0.18576898 0.49775523 0.55019444
0.3666158 -0.28330693 0.48755005 -0.1961068 -0.004263205 0.20573132 -0.21731243 0.53861046
1.143126 0.705123 1.4894603 -0.9393475 -0.0942355 -0.16701566 -0.3361681 0.122839406
-0.5121622 0.15064545 0.9447408 0.5541432 -0.47243026 0.08136092 -0.6127939 -0.52398

ian_model.model_ianet.down3.0.conv.5.running_mean f4 [48]
00000000: 4db4 113f f0d8 943e 667e 5a3f d058 21be
00000010: d8fb e7bf 09d8 1f3e f4df f83e bea8 aa3e
00000020: 8974 10be 6d12 703e ab95 03bd ad35 853f
00000030: 0e4d 36be 0dba 9f3f e5c3 adbf 79f8 743d
00000040: 8dd4 763e 02ed 0f3f 6c2c 023f 319d 0d3f
00000050: 4303 173f b955 623f cdfe 8c3f 9771 293f
00000060: 4766 283f af42 443f fc72 a33f db4e e53e
00000070: 0751 b23d 2af2 203f 78b8 573f 2fbf 883f
00000080: 5546 303e eb65 a13e 0de2 6d3f 4fd4 df3e
00000090: a344 403f ced5 e73f 9eb1 8f3e 75eb a53e
000000a0: 022b 5d3f 0f59 003f e745 183f 4ffd 423e
000000b0: 1c67 643f b0d3 bf3e 59cb 4b3f 8887 0a3f
0.5691574 0.2907176 0.8534912 -0.15756536 -1.8123732 0.15609755 0.48608363 0.33331865
-0.14106955 0.23444529 -0.032125156 1.0407006 -0.17802832 1.2478653 -1.3575407 0.059807274
0.24104519 0.5622102 0.5084903 0.5531798 0.5898935 0.8841205 1.1015259 0.6618895
0.6578106 0.7666425 1.2769465 0.44786724 0.08706861 0.62869513 0.8426585 1.0683345
0.1721433 0.3152307 0.9292305 0.43716666 0.7510473 1.8112123 0.280652 0.32406202
0.8639375 0.5013589 0.5948166 0.19041942 0.8921983 0.37466192 0.7960716 0.54113054

ian_model.model_ianet.down3.0.conv.5.running_var f4 [48]
00000000: a05e 813e 7e9b 123f efdf d13e 8c48 ea3e
00000010: 3b6a 1f41 221a 423e cefa 063f 1b14 2f3e
00000020: 6ad6 4e3e 60b2 503f c07c 6440 cc40 873f
00000030: 872d 1340 8fb2 0440 b44e dd3f 1b82 623e
00000040: db50 793e 2a88 a63f 0008 973f 9985 6f3e
00000050: 9e82 f93f 3423 b93f 572f 5840 3443 533f
00000060: bc3f 1b3f 38ba 973e 64d9 a540 225a 113f
00000070: 31f7 b23f 9db0 183f 6314 833f f9e4 393f
00000080: 92ee 1e3e e9ab 693e 044e 5f3f 2e54 5a3f
00000090: 1e65 0240 0523 1641 3362 e33d f24a 7e3e
000000a0: 27a0 a73f e72d 0e3f 4bf9 4a3f a786 a03e
000000b0: ff45 dd3e 8722 d13e 6791 df3f c44f 8a3f
0.25267506 0.5726851 0.4099116 0.45758474 9.963435 0.18955281 0.5272645 0.17097513
0.2019898 0.8152218 3.5701141 1.056665 2.2996538 2.0733984 1.7289643 0.22119944
0.2434725 1.3010304 1.1799316 0.23390807 1.9492986 1.4463868 3.3778894 0.8252442
0.60644126 0.2963426 5.182787 0.56778157 1.3981687 0.5964449 1.0240597 0.7261501
0.15520695 0.22819485 0.8722842 0.852847 2.0374217 9.38355 0.111027144 0.24833277
1.309575 0.5553879 0.7928664 0.31352732 0.43217465 0.40846655 1.7466248 1.0805593

ian_model.model_ianet.down3.0.conv.5.weight f4 [48]
00000000: 6be5 693f 9638 3d3f 2499 4c3f 90b8 6f3f
00000010: 17de 9b3f adef 333f 38d9 8d3f 3248 a13f
00000020: 74da 903f 6222 623f 55bd a53f 4713 903f
00000030: 8f27 ae3f 396f 823f 1888 993f 0c7d 903f
00000040: 9e6c 753f a65d 6e3f 9530 873f 8b79 8e3f
00000050: 0bcf 603f 47c6 6c3f bbec 5b3f 0967 8c3f
00000060: cc2f 893f d3f7 593f deef 8e3f 3f90 8b3f
00000070: b2b4 8f3f caca 583f 064f 7f3f eb98 583f
00000080: c14c bc3f f554 6b3f e865 873f 9de6 893f
00000090: 0a6e 873f ccef 973f 137d 8c3f 859f 883f
000000a0: b990 8f3f 29ff 503f 0ca3 803f 6c35 863f
000000b0: fb9b 833f 2693 813f c344 603f 72d9 493f
0.9136569 0.7391447 0.79921174 0.93640995 1.2177151 0.7028759 1.1081915 1.2600157
1.1316667 0.88333714 1.2948405 1.1255883 1.3605822 1.0190192 1.1994658 1.1288161
0.9586886 0.93111646 1.0561701 1.1130842 0.8781592 0.9249005 0.859081 1.0968944
1.0717711 0.85143775 1.1166952 1.0903395 1.1227019 0.8468443 0.99729955 0.84608334
1.4710923 0.9192651 1.0577974 1.0773503 1.0580456 1.1870055 1.097567 1.0673681
1.1216041 0.81639344 1.0049758 1.0485053 1.0281976 1.0123031 0.8760492 0.7884742

ian_model.model_ianet.down3.0.conv.5.bias f4 [48]
00000000: b86b b8be 7d51 c33b 7457 1f3f 11de 3e3e
00000010: 6225 df3c d749 103f 04b9 66be 1219 743e
00000020: ff5c abbe c373 71bd b043 f0bc 02f5 e13e
00000030: f760 203d 0cce ebbe 386a aa3d b478 2abe
00000040: b416 bebe a843 15bf ef3f bfbe 39ff a4bd
00000050: 0fb1 f5be a2e8 babe 29cd 81be 70c2 40be
00000060: 3bd4 f7be f8d5 0e3d c23b eabe 02bf 413e
00000070: 9971 bfbd f5ae a63c 6a42 05bd 6aa0 c23e
00000080: 3ec6 d6be 3643 52be 96ca 3ebe 0248 e2be
00000090: 755d 18bf f4ff a33e 3ed1 bcbc 4043 0dbd
000000a0: 9fbd 113d 3700 32bf f3d2 b4be 75f4 213c
000000b0: 5510 3b3f f5bd 02be 0b6b 1fba 77ec cbbe
-0.36019683 0.005960642 0.6224282 0.18639399 0.027239505 0.5636267 -0.22531515 0.23837689
-0.33469388 -0.05894829 -0.02932915 0.4413224 0.039154973 -0.4605564 0.08321041 -0.16647607
-0.37126696 -0.5830636 -0.37353465 -0.08056492 -0.47986647 -0.3650561 -0.25351837 -0.18824172
-0.48404106 0.034872025 -0.45748717 0.1892052 -0.09347839 0.020347098 -0.03253404 0.3801301
-0.41948122 -0.20533451 -0.18631968 -0.44195563 -0.59517604 0.32031214 -0.023048993 -0.034487963
0.035581227 -0.6953158 -0.3531719 0.009884943 0.73071796 -0.12767775 -0.00060813193 -0.39828846
