Additional/Mobile/FullRes/Bread_onnx_fullres_optimized.onnx (onnx, 699773 bytes, 314 tensors)

reorder_token_219 f4 [48, 48, 1, 1]
00000000: 8977 82be 09d7 3bbc b002 e8be 9c0a cb3d
00000010: df10 133e f352 1f3d 2470 3a3e bc55 0b3f
00000020: 539a e3be 0513 27bd 9492 ef3e baef 8ebd
00000030: f59a 86bd 3a1c 2f3e c8fd a3be 5ae2 e3bd
00000040: 282b 0c3d 07db 8d3e 17c3 29be 0452 a13b
00000050: 2401 3d3d cec9 a4be 8afb ed3d be01 f03d
00000060: 6029 eabd 0920 88be a312 183d a33c 25bd
00000070: 2637 05bd a13a e93d 37f8 dabe eb39 4abe
00000080: 8dad 993e af3e 0c3d 1728 a4be 6361 4f3e
00000090: f22e 38be 608d 893e b561 debe ea2b 2cbd
000000a0: 0bf7 33be d79c 253e 16d1 58bc 8f1a 99bd
000000b0: 67bc 8a3b 2d6c 513d bc9a e53d 1a2e 1e3e
000000c0: 7a48 95be 4634 a43d f46b 88bc c649 54be
000000d0: 4d08 3abd 3521 3cbd f44b ddbe 37be 3abd
000000e0: 52c4 04be 1a92 743d 65d4 37be d337 f7bc
000000f0: a01f f5bd b6b0 0cbe 0fe7 b1be bdb8 56be
00000100: 1bd7 163e ce0d 99bc f97a 03be 2b31 05be
00000110: fe81 3c3d 92d9 4fbe 7cec 853d 3b11 443d
00000120: 2bce 02bc 0968 8dbd 367b 3d3e ac9d f4bd
00000130: 432e e53d f52c bcbc 8d5e 91be f45f f93d
00000140: e2d6 0cbd 4348 52be b11d 97be 90d0 d9bb
00000150: 9c8b 15be 3b44 babd a1a1 0f3e 3bc5 15be
00000160: ec63 bdbd 91ca ae3d b536 18be b80b 9cbd
00000170: 4bb6 583e 7694 5f3c 67e1 94bb 544a bfbd
00000180: 3114 0abe fe85 293e f84e 433d 7a8b 31bd
00000190: 1fc1 24be ba72 35bb 6de8 63be 370f b33e
000001a0: 9082 563e bc29 623e f5b0 32be 94ec 30bd
000001b0: 0c9e 5ebe 2240 f63c 3565 17be a6bd 9ebd
000001c0: 4b6a c1be 3002 d73d dff7 aabe 2f2e 8fbd
000001d0: 4be5 e53c 9798 ccbd aafd bd3d 99af 4cbe
000001e0: 2cca 3bbc e968 2bbe 2f9e c1bd 087d 383e
000001f0: dc3c b33e 6b3d a7be 7c8c 023f 9c26 913e
00000200: 3db4 7cbd 0c86 2abe 5b9d 543c 9c91 4cbe
00000210: a4b0 cd3d 336b 72bd da90 f6be f00d c1bd
00000220: 5012 533e 7653 103e 8953 b5be 3e82 a13d
00000230: dcae 073e 1a34 55be 5784 bbbe ba4a d2be
00000240: 1aaf ac3e 7e3c 0a3e 6b00 19bd fb1f 9abe
00000250: bcf1 20bd 41c3 f4bc 4f85 e63d 1ab6 24bd
00000260: 4290 01be aa17 7cbe 39b3 083f 1649 52be
00000270: af3e 14be 1853 643e a37e 4e3d bee3 9dbe
00000280: 6379 bfbe 880d b43e 91e4 a9bb aa45 b83d
00000290: ed2b 483c 0cf6 79be 17a4 4abe 28e2 433e
000002a0: 2684 8dbe 4285 0dbe 2a69 4abd 5164 9bbc
000002b0: c338 fc3d e53d 8ebd 7f62 c9be 88fc 99be
000002c0: 807c e23d 7ca3 493d 49b9 49bb a5ee 99be
000002d0: 64a7 e4bd 4b4e 793e c062 38bf d58c 1a3e
000002e0: 243a 1c3e 085c 5cbe 9119 42bd b590 01be
000002f0: bc0f 613d 1925 06bd 8fbc babd f1b1 51bd
00000300: 7346 a63e 0b0a 243e de61 03bf 3c6e a53d
00000310: 2b84 32be f2df af3c 9ff1 a33b f297 9abd
00000320: 2d11 ee3d fb10 d7be 96a0 d63e 7b6f 4d3e
00000330: 3343 053f 04f7 05bf 99d1 b93c 4801 073f
00000340: a679 9a3e 4935 3ebe b6cb 36bc 37fb 413d
00000350: 218d c0bc fe4d cd3d 9096 943e 327d 4c3e
00000360: 28cc 18bf 2eac e13c 6029 64bd 12f2 0a3e
00000370: c99a 95be 310f 1e3e db2e 82be bf96 c63b
00000380: 8fa0 e53d 4257 96be 647a d0bc d111 c4bd
00000390: cfb2 543e 8c2c e2bd 0b12 203c 9d2c be3b
000003a0: 9d7e 17be b128 abbc 9e01 85be 58dc 0bbd
000003b0: 8286 e2bd 4bd8 5b3e 131c ccbc a636 343d
000003c0: f0e6 5cbe eb03 91be 3de3 393e ebd7 ac3e
000003d0: 7eb1 533d 559a f1bc 9c25 34bc 2830 d63d
000003e0: c8c8 d6bd 1578 bebc 7e1e b6bd 32c2 8dbd
000003f0: 9cf7 d33d c7dc 13bd ee92 0b3e 00b1 fe3c
-0.25481823 -0.011464843 -0.4531455 0.09914133 0.14361905 0.038897466 0.18206841 0.54427695
-0.44453678 -0.040789623 0.46791518 -0.06979318 -0.065725245 0.17100611 -0.32029557 -0.111271575
0.034220845 0.27706167 -0.16578327 0.004923107 0.046143666 -0.32185215 0.11620243 0.11719082
-0.11433673 -0.2658694 0.03712715 -0.04034103 -0.032523297 0.11388136 -0.42767498 -0.19748656
0.3001522 0.034239467 -0.32061836 0.20251994 -0.17986658 0.26865673 -0.4343392 -0.042034067
-0.17574708 0.16173111 -0.013233444 -0.07475769 0.004233885 0.051128555 0.11211154 0.15447274
-0.29156858 0.08017783 -0.016653039 -0.20731267 -0.045418072 -0.045930106 -0.4322201 -0.04559156
-0.12965515 0.059709646 -0.17952116 -0.030177986 -0.119689226 -0.13739285 -0.34746596 -0.2096891
0.14730494 -0.01868334 -0.12839879 -0.13007037 0.046022408 -0.2029784 0.065392464 0.047867995
-0.007983725 -0.06904609 0.18504032 -0.11944136 0.11190464 -0.022970656 -0.2839245 0.12176505
-0.034384616 -0.20535378 -0.2951484 -0.006647177 -0.14604038 -0.09095045 0.140265 -0.14626019
-0.09247574 0.0853473 -0.14864619 -0.07619423 0.21163289 0.013646236 -0.0045434716 -0.09340349
-0.13484265 0.1655502 0.047682732 -0.043345906 -0.16089295 -0.002768679 -0.22256632 0.34972546
0.20948243 0.22086233 -0.17450316 -0.04319437 -0.21739978 0.030059878 -0.14784701 -0.07751016
-0.37776408 0.10498464 -0.33392236 -0.06991231 0.028063437 -0.09990042 0.09276898 -0.1998886
-0.011461776 -0.16739239 -0.09453999 0.18016446 0.3500737 -0.32664046 0.5099561 0.2834977
-0.061695326 -0.16652697 0.01297697 -0.1997742 0.10043457 -0.059184264 -0.48157388 -0.094264865
0.20612454 0.14094338 -0.35415295 0.0788617 0.13250297 -0.20820656 -0.36624405 -0.41072637
0.33727342 0.13499638 -0.037353914 -0.30102524 -0.039293036 -0.02987826 0.11255895 -0.040212728
-0.12652686 -0.24618402 0.5339847 -0.20535693 -0.14477037 0.22297323 0.05041374 -0.30837816
-0.37397298 0.35166574 -0.005184718 0.08997662 0.012217504 -0.24410266 -0.19789158 0.1912924
-0.27639884 -0.13820365 -0.0494167 -0.018968733 0.12315514 -0.06945399 -0.3933296 -0.3007548
0.11058903 0.049228176 -0.0030780605 -0.30064884 -0.1116474 0.24346273 -0.7202568 0.15092786
0.15256554 -0.21519482 -0.047387663 -0.12652858 0.054946646 -0.032750223 -0.09117996 -0.05119509
0.32475623 0.16019456 -0.5132121 0.08077666 -0.1743323 0.02146909 0.0050031687 -0.075485125
0.1162437 -0.42005143 0.41919392 0.20062058 0.5205566 -0.5233004 0.022682952 0.5273633
0.30170935 -0.18575014 -0.011156967 0.047358718 -0.023504796 0.100246415 0.2902112 0.19969633
-0.5968652 0.027547922 -0.05570352 0.13568905 -0.29219654 0.15435483 -0.25426373 0.006060451
0.11212265 -0.29363447 -0.025448985 -0.09573711 0.20771335 -0.11043653 0.009769927 0.005803658
-0.14794393 -0.020893427 -0.25977796 -0.034145683 -0.110608116 0.21469228 -0.02491573 0.04399743
-0.2157247 -0.28323302 0.18153091 0.33758482 0.05168294 -0.029492537 -0.010995295 0.10458404
-0.10487515 -0.023250619 -0.08892535 -0.069218054 0.10349962 -0.03609922 0.13630268 0.03109026

reorder_token_228 f4 [48, 48, 1, 1]
00000000: d6e2 49bd eef4 353e 5963 f6bd c933 db3b
00000010: 782b 213d 7bd9 5c3d bd0f 93be 5743 5dbe
00000020: 3d68 dd39 4003 79bc d574 9b3d 944e 42be
00000030: de3a 2f3e f95c 7f3d 8aa4 8f3d e34b 163e
00000040: ed38 48bd df2f ca3d 91ee e3be c871 203e
00000050: bb5e 7b3d 4bec c7bd 7a00 7e3e 7f32 503d
00000060: 603b e8bd 3c1e 2b3e 8dd7 1dbe 151b 02be
00000070: 8767 ab3e 4177 8f3d df29 db3d 31e3 2a3d
00000080: 2048 9a3d 45f7 bf3c 86fd 20be 1749 d23e
00000090: 3f48 0ebe 8adb 8d3d c0f7 75be c278 bbbe
000000a0: ffd0 a13d 594e c53d f971 c93d b0bc 083e
000000b0: 6ca1 b13e b9be 7cbd 5c70 093e 34a1 dabe
000000c0: 82f1 eb3d 8817 66be f1fa 22bd 1cb3 1e3e
000000d0: 2c18 323f 3685 35be d75c c9bc 825f c0be
000000e0: f34e 7c3e 69cd da3e 0961 e5bc 55aa 183e
000000f0: bfa6 6abe 1cb8 163e 9f86 1f3d 5b42 15bc
00000100: d5ba 633e 475a 9bbe 84b3 093e 878e b33c
00000110: 9a95 87be 9fe8 4e3d 4c97 0f3e 5c66 d0bc
00000120: b529 74be b11a 1bbe e63a abbd 2da5 59be
00000130: a071 57bd 4493 653d b8d4 3d3d 28a1 c63e
00000140: bde8 18be 8d22 b4be fa69 513e 121d 5bbc
00000150: 6378 a7bd 0f12 0f3d 7ef7 f2bd 2718 94be
00000160: 01c1 b03d f679 c03e 6c88 eb3d d177 993d
00000170: 619c 853e 1da1 233e 8c94 71be 297b 7e3e
00000180: d628 56bc e4f4 fdbe 9c92 003f 6cbb 553e
00000190: 7c5d 0ebd b406 fcbd 951d 3b3e 7c34 cd3d
000001a0: 239b e63d 584d a53e 368c 3cbd 19b8 e6bd
000001b0: cffa 063c f8db 3a3e 8b92 3e3d 5e09 3ebe
000001c0: fbb8 c83c 653d 3d3e b18f 8bbd 2548 583d
000001d0: 7dc2 4c3d 36db 673e 627f 6b3c ff38 eabd
000001e0: 5db0 25bc ca26 82be ff1e 4cbd 8459 ab3e
000001f0: 6dd0 31be 91d6 c6bd 2ea2 58bd 6a4a ef3d
00000200: 0ff2 1c3d 2c35 9cbc 5af5 0bbe 86be 813e
00000210: 246e 9c3e 3d82 5d3d f9f8 5e3d 90d1 7f3b
00000220: 9b25 5f3d 32cf ca3e 6a2f bdbd 88fe 7bbe
00000230: a939 5a3d be00 debd 4d62 9d3d f9ee 1c3e
00000240: cb2c adbd 03db 433e b3d0 4fbe 0176 553e
00000250: ab39 3ebe 9efe 053f 42ab 723e 51a6 163e
00000260: 0b2e c23d 50cc 2a3d 2fd8 e2bd 5787 483e
00000270: e7a0 77be 6dc7 92bd abe5 82be cac7 17bd
00000280: 8dea 67bd 567f 4c3c f61a 2e3e b1a8 bb3d
00000290: 5d80 9bbe 3248 a9bd 0554 89be c611 d73e
000002a0: 940f a43c bfec df3d ae9e bf3d e5d3 ba3d
000002b0: 50a0 69be c148 23be 6197 0a3e ad17 113e
000002c0: 31d7 de3d 05fd 823e ca72 9e3b efed 563d
000002d0: d942 8c3e 5a57 223d d17d 28be d91d ac3d
000002e0: c9ba c4be 1461 57bd 4f17 e9bd 5d2e 67be
000002f0: ca07 2a3e dc4e f2bc 669c 54be 2ed5 9a3d
00000300: bb39 2b3d bcef 52be 9d55 9c3d 3249 fb3d
00000310: eef3 2a3d 2021 43bd 0c22 483e 0f2d 603e
00000320: 10c3 cfbd f43a 08bc 0ee3 32bc 8e54 9f3d
00000330: 167a a1bd 7738 d8bd 6cc8 84be 25db 1e3e
00000340: ea84 f1bd 8ab9 b43e 9699 90bd 0bc6 73bd
00000350: 8fd6 debd f486 3f3d dcef 83be 4c7d a4be
00000360: 5aca cd3c 419c 583d 7594 663e 4004 6ebd
00000370: 4035 943c 32ce ccbd 1d0b 3dbd bc18 313e
00000380: 27a2 613e 1176 963e dd12 b23d de3f 9f3e
00000390: 5746 433d 88bf 083e 9de7 a93d 67f5 b2bd
000003a0: fdf8 08be 455b 56bc 94c1 f23d f89a 693e
000003b0: a8b0 39be 1ba9 833e cdf4 b03b 9621 583d
000003c0: e9f7 703d 067d eabc 00ed 9ebd e317 5bbe
000003d0: 5278 0bbf c518 d3bc 3a39 343e da9c c1be
000003e0: 3d62 97bc 9f5e 7d3e 69df f7bd 4163 b03d
000003f0: 1011 ae3e 9ad0 4b3e 480e debd 4004 7bbd
-0.049288593 0.17769215 -0.12030668 0.006689523 0.039348096 0.053918343 -0.28722945 -0.2160772
0.00042230068 -0.015198529 0.07590643 -0.18975288 0.171123 0.062344525 0.07013805 0.14677386
-0.048882414 0.09872412 -0.4451795 0.15668404 0.06136964 -0.09761866 0.2480487 0.050829407
-0.1133945 0.16710752 -0.15414257 -0.12705643 0.33477423 0.07005168 0.10701346 0.041720573
0.07533288 0.023433337 -0.15721712 0.41071388 -0.13894747 0.069266394 -0.2402029 -0.36615568
0.07901191 0.09634084 0.09836192 0.13353229 0.34693468 -0.061705325 0.13421768 -0.42701113
0.11520673 -0.22469914 -0.039790098 0.15498012 0.69568133 -0.17726597 -0.024580402 -0.37572867
0.24639492 0.4273484 -0.028000372 0.14908727 -0.22915171 0.1471867 0.038946744 -0.009110059
0.2223924 -0.30342314 0.13447386 0.021918548 -0.26481324 0.050514814 0.14022559 -0.025439434
-0.23844035 -0.151469 -0.08360843 -0.21254416 -0.052598596 0.056048647 0.046345443 0.38794827
-0.14932533 -0.3518261 0.20450583 -0.01337363 -0.08177259 0.03492933 -0.11863612 -0.28924677
0.086305626 0.3759305 0.1150063 0.07493556 0.2609587 0.15979429 -0.23591822 0.2485167
-0.0130712595 -0.496009 0.5022371 0.20872277 -0.034757122 -0.12305966 0.18273003 0.10019776
0.11260059 0.3228557 -0.046032153 -0.112655826 0.008238508 0.18247974 0.046526473 -0.18558261
0.024502268 0.18480451 -0.06814516 0.052803177 0.049990166 0.22642216 0.014373632 -0.114366524
-0.010112849 -0.2542022 -0.049834248 0.33466733 -0.17364664 -0.09708894 -0.05288904 0.11684115
0.038316783 -0.019068323 -0.13667813 0.2534067 0.3055278 0.054079283 0.054436658 0.003903482
0.054479223 0.39611202 -0.09237559 -0.24608815 0.053277645 -0.10839985 0.07684765 0.15325536
-0.08455809 0.19126515 -0.20294456 0.20845796 -0.18576686 0.5234164 0.23698142 0.14711882
0.09481438 0.041698754 -0.1107639 0.19582878 -0.24182473 -0.07166944 -0.25565848 -0.037055768
-0.05662017 0.012481531 0.17002472 0.09163035 -0.3037137 -0.08265723 -0.26821914 0.42005748
0.02002696 0.109338276 0.093564376 0.09122447 -0.2281506 -0.15945722 0.13534309 0.14169188
0.10880888 0.25583664 0.0048354613 0.052473005 0.2739475 0.039634086 -0.16454245 0.084041305
-0.38423756 -0.052582815 -0.11381399 -0.2257628 0.16604534 -0.029578619 -0.20762786 0.07560192
0.041803103 -0.20599264 0.07633517 0.1226982 0.041736536 -0.047639012 0.19544238 0.21892188
-0.10144627 -0.008314837 -0.010918392 0.077797994 -0.07884614 -0.10557645 -0.2593416 0.15513285
-0.117929295 0.35297805 -0.07060544 -0.05951504 -0.108807676 0.04675956 -0.25768936 -0.32126844
0.025120903 0.05288339 0.2251757 -0.058109522 0.018091798 -0.10000266 -0.046153177 0.17294592
0.22034512 0.29386953 0.08695004 0.31103414 0.047674503 0.13354313 0.0829613 -0.08738213
-0.13376231 -0.013083284 0.11853328 0.22813022 -0.18133795 0.25714955 0.0054002763 0.052766405
0.058830176 -0.028624069 -0.07760048 -0.21395831 -0.5448047 -0.025768647 0.17599955 -0.3781498
-0.01847946 0.24743126 -0.12103159 0.08612681 0.33997393 0.19903794 -0.10842568 -0.06128335

reorder_token_21 f4 [16]
00000000: eea6 05bc d8ba 693c 016e 46be 967a b63e
00000010: 2119 b93e 74b1 df3e 7a73 15bd 1b8d 8fbe
00000020: 28b6 a23c a21a 23be 8a00 ac3e f51b 7f3e
00000030: 0000 0000 0000 0000 0000 0000 0000 0000
-0.008157475 0.014265738 -0.193779 0.356404 0.36151984 0.43690073 -0.03648708 -0.28037342
0.01986225 -0.15928128 0.3359416 0.24913009 0.0 0.0 0.0 0.0

ian_model.model_ianet.in_conv.1.conv.5.running_mean f4 [12]
00000000: 0934 58be 51db 1f3f 91e5 d53e 7cf5 28bd
00000010: 4774 4a3f 55f1 66be 0d25 a33f 0d8a 663e
00000020: b3ab 6f3e 03b4 c43f e280 663d caa4 88be
-0.211136 0.62444025 0.41776708 -0.041249737 0.79083675 -0.22552998 1.2745682 0.225136
0.23405342 1.5367435 0.056275256 -0.26688224

ian_model.model_ianet.in_conv.1.conv.5.running_var f4 [12]
00000000: d82e 8c3f c142 8540 f703 563f c97a 7a3d
00000010: 9a00 a640 e1c8 9e3d 730d 2e40 2766 4f3e
00000020: a4fb 183e cc4f 0641 5d0b c93d a881 8e3f
1.0951796 4.1643987 0.835998 0.061152253 5.1875734 0.07753158 2.7195709 0.20253812
0.14939743 8.394482 0.098166205 1.1133318

ian_model.model_ianet.in_conv.1.conv.5.weight f4 [12]
00000000: 7cf6 6d3f 922c 643f 7ab5 913f f97d 883f
00000010: 3054 883f c0f0 683f cbb7 7b3f df94 823f
00000020: 0875 9c3f 4228 843f 8c63 8d3f 0eb6 853f
0.9295423 0.8913051 1.1383507 1.0663444 1.0650692 0.90992355 0.9832732 1.0201682
1.2223215 1.0324786 1.1046004 1.0446184

ian_model.model_ianet.in_conv.1.conv.5.bias f4 [12]
00000000: 8582 adbd 01e4 95be 78cf 293d ba44 3e3e
00000010: f86f 5fbd 69c8 c6be 4a55 aa3e 8cb2 493e
00000020: 06ff 9b3d 3d1a 933d 1f54 f5bd 0bd4 82be
-0.0847216 -0.29275516 0.041457623 0.18580905 -0.05455014 -0.38824776 0.33268195 0.19697016
0.07617001 0.07182739 -0.119789355 -0.255524

ian_model.model_ianet.down1.0.conv.3.weight f4 [6, 1, 3, 3]
00000000: 03c7 85bf f506 26bd 6933 87be 99e9 753f
00000010: d90c ffbc b0ba 513d f586 82be 1000 8ebe
00000020: 3f6f babe 887c 213d 8275 0f3f 3b43 c63e
00000030: 542e fa3e 095c 93be ece8 2f3d 459a 643f
00000040: 05e5 e83e de93 f0bd bcc4 2d3f 6d1e 103f
00000050: 73a6 bcbe e3ef 573e f161 05bf 0b14 2f3c
00000060: 38be 0fbf f79b 673e 2226 63bd 40fa 12be
00000070: adfd b4be 02fd 2dbe 77ba c73e e8cc d8bc
00000080: 6825 d53e 85fa d63e 57f4 c23f 380a b1be
00000090: e1b3 c5bd da43 bbbe f458 93be 0ebd 043f
000000a0: 519e 2f3e 265f fc3e df9a fe3e a40a 0a3f
000000b0: 75f6 6b3f 05ef aabe 040c ee3e b31b b83e
000000c0: 5513 42be f4fb 2a3f 9c4c 4fbf f2f2 76bf
000000d0: 010a 873e 8dd8 b6be
-1.0451359 -0.04053398 -0.2640641 0.96059567 -0.031134056 0.05120343 -0.2549359 -0.27734423
-0.36413 0.039425403 0.5603868 0.38723168 0.4886347 -0.28781155 0.04294674 0.89297897
0.45487228 -0.117469534 0.6787832 0.56296426 -0.3684574 0.21087603 -0.5210257 0.010685931
-0.56149626 0.2261809 -0.05545629 -0.14353275 -0.3534979 -0.16991046 0.3900945 -0.026464894
0.416301 0.41988006 1.5230817 -0.3457811 -0.0965345 -0.36575204 -0.28778803 0.51850975
0.17150237 0.49291342 0.49727532 0.53922486 0.9217294 -0.33385482 0.46493542 0.35958633
-0.18952687 0.667907 -0.8097627 -0.96464455 0.2637482 -0.3571209

ian_model.model_ianet.down1.0.conv.5.running_mean f4 [6]
00000000: c141 073c 64dd 3540 fbb9 9f3e a4eb 8f3f
00000010: b2f8 de3f b520 f23d
0.008255423 2.8416376 0.3119658 1.1243787 1.7419646 0.118226446

ian_model.model_ianet.down1.0.conv.5.running_var f4 [6]
00000000: 246d fd3e 4664 4441 dc35 c23e 1da2 aa40
00000010: 2f26 cd40 382c ba3e
0.4949733 12.274481 0.37931716 5.332289 6.410911 0.3636186

ian_model.model_ianet.down1.0.conv.5.weight f4 [6]
00000000: 4151 873f 2cfc 893f 9adb 7c3f c41a 803f
00000010: 0118 933f b5c1 713f
1.0571672 1.0780082 0.98772585 1.0008168 1.14917 0.944362

ian_model.model_ianet.down1.0.conv.5.bias f4 [6]
00000000: 9d2e 593e 47a6 6fbe f401 283d 5d3b 803d
00000010: 9669 11bd c730 d5bb
0.21209188 -0.23403274 0.041017488 0.06261323 -0.035501085 -0.006506059

reorder_token_110 f4 [24, 1, 3, 3]
00000000: 1791 dcbd 319a 153e 6c3b 053f 585d eebe
00000010: 1e46 29be 9e8e d0be 80d8 713d 8e6c 11bf
00000020: 5ce5 923e 7104 823f bd10 163f e2d9 0ebf
00000030: 2c65 1ebf 68be 023c e5aa dcbe 5e12 c83e
00000040: d812 e03b dc15 573e 67fe 0e3f c814 10bf
00000050: 351c dcbe 8ead 4dbf e9bb 4abd b306 11bf
00000060: a34f 043f 0c1e 143f 3035 033f 4854 e1be
00000070: 7014 8fbf a4c7 7ebe b91b c4bf a730 ae3e
00000080: 7346 0e40 46dd 593f 7115 083f 67fe 5cbf
00000090: 545f 83be 18ae c5be e19d 66bf e6a5 903f
000000a0: c3eb b33e 9bc7 3b3f 8c61 323e c117 2abf
000000b0: 6602 e7be 4753 e4bc a7fa 383e 9d7a 303e
000000c0: 4ec3 92be b68e 99be af95 a93e 27be 1dbf
000000d0: 680b 9abe 9190 f1be 023b 62bf 12af babe
000000e0: e9bd e93e f2c5 7b3f 2adb 15be fb84 25bf
000000f0: 2d90 a1bf 0635 c1be 9ff7 20bf 975f e93e
00000100: 50b8 18be 47b5 92be 0b49 1fbe 9c11 cdbe
00000110: fd55 7a3e 21f6 65bf 409b 873e ffd5 85be
00000120: 6da7 de3e 0235 3d3f cf75 ba3e cca3 49be
00000130: 1948 e83e fd78 813e daea 2cbe c2de 353a
00000140: 059a 3e3e a224 c5be 9053 febe 7788 1a3f
00000150: 503c 153f 558c 523f 2d09 14bf 9dd6 b0bd
00000160: 6786 c93e a0b7 1a3f ab5c 893d c2ed c93e
00000170: 63cd bf3e a6c1 663e 6294 97bd ed62 173e
00000180: 96ff 0b3f 6fc9 823d 1e46 f8be f24e 0c3f
00000190: cfda ac3e 4c4c 373f 5663 15bf 9754 a6bd
000001a0: adbf 53be 777c 1ebf 820c aebf 7b22 823f
000001b0: 4225 b33d 7a7d 9f3f 4f5c 32bf 71bb c7bf
000001c0: 1602 25bc 5bf9 a53d 23de 7fbf 8bec b03f
000001d0: f641 4f3e d0dc 683f 7c71 adbe c9b3 00be
000001e0: a5b5 583f b63e 173f f7b7 f4ba e9cd 123f
000001f0: 72f8 ca3e 355e f93e 0f2d 073e 8540 2dbd
00000200: c6f5 82be 536b 67be 9fe1 13bf e83e 543f
00000210: 9bbb 483e cb83 bd3e fe19 44be f96c 023e
00000220: 0a75 313f 50df 403f 5d98 683e 37d8 453d
00000230: d366 e13e 5be6 733f 9f10 033e 6199 103e
00000240: d58f cdbd 30fa 9b3e 7195 01bf 13a2 e0bc
00000250: 3e74 cf3e 4dcc 5fbf 4544 27bf b164 5fbe
00000260: 567e 483f b139 ae3e 93de 52be 8e9c 6bbe
00000270: 0913 e6be 1456 b4bd f652 e3be 9ec0 bd3e
00000280: 6d44 d53d fb37 d23d 7439 afbe e68e 49be
00000290: 4330 b43e fbe3 16bf e129 1dbf edfe 0abd
000002a0: 690a 3f3f cebd cc3e 5e38 a7be 5659 9bbe
000002b0: e140 03be eec0 dbbe e5f6 1abf f33e 273f
000002c0: 49d0 8a3f f3ee 0f3f 9c6d 80bf 852c debe
000002d0: f2d5 93bf 261d 953e 9d66 4fbf 0bbc 1e3f
000002e0: 48c3 8a3f 68d9 1b3f 8f6d 593c c7af 56bf
000002f0: f269 eabe 15f2 19be 64f1 04bf 569a 103f
00000300: 0667 bdbe 2395 b1bc e243 1fbf 3c06 343e
00000310: 3a74 37be beb1 f4be e2a9 01bf 3e7b b8be
00000320: 99e0 013f 592d 2a3f f8a8 c5be bfbc 81be
00000330: f0a7 0ebf 6f11 7bbe 29d0 24be 3666 223f
00000340: c769 bebe 49a6 403f 1dfb bfbe d8c9 63be
00000350: 6947 07be 7da1 5bbf 72e9 00bf 05bd a2be
-0.10769861 0.146096 0.52043796 -0.4655559 -0.16530654 -0.40733808 0.05904436 -0.56806266
0.28690612 1.0157605 0.5861929 -0.5580121 -0.61873126 0.007979967 -0.43099132 0.39076513
0.006838184 0.21004432 0.5585694 -0.5628171 -0.4299027 -0.8034295 -0.04949561 -0.5665085
0.51684016 0.5785835 0.5125303 -0.44009614 -1.1178112 -0.24880844 -1.532096 0.34021494
2.2230499 0.8510326 0.53157717 -0.8632569 -0.25658667 -0.38609385 -0.90084654 1.1300628
0.3514081 0.7335145 0.17420024 -0.66442496 -0.45119017 -0.027871741 0.18064366 0.17234273
-0.2866463 -0.29991692 0.33122012 -0.61618274 -0.30086827 -0.47180608 -0.8837129 -0.36461693
0.45652702 0.98348916 -0.14634386 -0.6465604 -1.2622124 -0.37735766 -0.6287784 0.45580742
-0.1491406 -0.2865393 -0.15555207 -0.40052497 0.24446864 -0.8982869 0.26485634 -0.2613983
0.4348711 0.7390901 0.36418006 -0.1969139 0.45367506 0.2528762 -0.16886464 0.00069377956
0.18613441 -0.3850451 -0.49673128 0.6036448 0.58295155 0.8224538 -0.578265 -0.08634684
0.39360353 0.6043644 0.06707128 0.39439207 0.37461385 0.22534809 -0.07401349 0.14783831
0.5468687 0.06386077 -0.48490995 0.5480796 0.33760688 0.71600795 -0.583547 -0.08121603
-0.20678587 -0.6190867 -1.3597567 1.0166773 0.08747341 1.2460167 -0.696721 -1.5604078
-0.010071298 0.081042014 -0.9994833 1.3822187 0.20240006 0.90961933 -0.33875644 -0.12568583
0.8465217 0.59080064 -0.0018670548 0.57345444 0.39642674 0.48704687 0.13200782 -0.04229786
-0.25578135 -0.22599535 -0.57766145 0.8290849 0.19602816 0.37014613 -0.1915054 0.12736882
0.6931921 0.7534075 0.22714372 0.0483019 0.4402376 0.9527337 0.12799309 0.1412101
-0.100371994 0.30464315 -0.50618654 -0.027421033 0.40518373 -0.87421113 -0.65338546 -0.21815754
0.78317773 0.3402839 -0.20592718 -0.2300894 -0.44936398 -0.088054806 -0.44399232 0.37061018
0.10413442 0.10264584 -0.3422352 -0.19683418 0.3519307 -0.5894162 -0.6139203 -0.033934522
0.7462526 0.3998856 -0.32660192 -0.30341595 -0.12817718 -0.4292063 -0.6053298 0.6533043
1.0844814 0.5622398 -1.003345 -0.4339334 -1.1549666 0.291238 -0.8101595 0.6200568
1.0840845 0.6087861 0.01327075 -0.83861965 -0.45783955 -0.15033753 -0.5193083 0.564855
-0.36992663 -0.02167756 -0.62212956 0.17580503 -0.1791543 -0.47791857 -0.50649846 -0.36031526
0.50733334 0.66475445 -0.38605475 -0.25339314 -0.55725 -0.24518369 -0.16095032 0.6343721
-0.37190077 0.7525373 -0.37496272 -0.22244966 -0.13210835 -0.85793287 -0.5035621 -0.31784835

ian_model.model_ianet.down1.1.conv.5.running_mean f4 [12]
00000000: e665 6fbe 404e fd3e 6c2e 18be 333d c2be
00000010: ca7e 6f3f 28e4 f4bf a5f8 79bf 74d3 a8be
00000020: b137 e73f 83e6 903f dd78 ec3f b51e 9cbf
-0.23378715 0.49473763 -0.14861459 -0.37937316 0.9355284 -1.9132128 -0.97645026 -0.32973826
1.8063871 1.1320347 1.8474385 -1.2196871

ian_model.model_ianet.down1.1.conv.5.running_var f4 [12]
00000000: bfad 993f 28e5 4640 4534 3e3f 37cb 123f
00000010: 34d4 1a3f aab0 c63f 11e1 f040 ee95 4f40
00000020: bf92 9d40 296e 5c40 0a26 3640 5a85 b33f
1.2006148 3.1077366 0.74298507 0.5734133 0.60480046 1.5522664 7.527474 3.243526
4.9241633 3.4442236 2.8460717 1.4025071

ian_model.model_ianet.down1.1.conv.5.weight f4 [12]
00000000: 9ecc 823f 91f4 763f ccc6 603f f50e 7d3f
00000010: e7f3 6f3f 114b 8b3f b837 7b3f 8bf6 6f3f
00000020: 92aa 963f 80e6 923f c306 573f 6fe2 883f
1.0218694 0.9646693 0.8780334 0.9885095 0.9373154 1.0882283 0.98131895 0.9373557
1.1770804 1.1476593 0.8399469 1.0694102

ian_model.model_ianet.down1.1.conv.5.bias f4 [12]
00000000: 227e a13d 49d4 01bf d004 383e 07fe 223f
00000010: c834 883a 7ae9 1b3e 4918 f33d 5dd0 53be
00000020: b3fa 1e3f 5211 143e 8001 643d 60cc c9be
0.07885386 -0.50714546 0.17970586 0.63668865 0.0010391707 0.15225783 0.118698664 -0.20684953
0.62101287 0.14459732 0.055665493 -0.39413738

reorder_token_214 f4 [48, 48, 1, 1]
00000000: 2868 a13d 3e45 f139 db9c 46be 6f2f 90bb
00000010: cc90 0dbe 1052 f8bc 44cb f83d 89b1 ccbb
00000020: f74b 71be eebc 51bb 306e 2fbe ec0f 7ebc
00000030: e38e 2fbe 1e6f 933c 8497 fcbd 6384 24bd
00000040: c0d8 7dbd 0ad8 7b3b 2543 83bc 7195 413c
00000050: aa69 18be c350 de3c 53f9 b33d f876 0b3c
00000060: 1f94 83bc 97d8 733c fb7e 2cbe c02c 753d
00000070: ba65 80bd 382b 343d 8ad1 e7bc 5d57 503c
00000080: 0189 31bd 3880 823b 9a69 27bd a888 be3b
00000090: e99f be3d 9863 d1bc 2555 94bd 0dbc 753d
000000a0: 98db 493e da28 04bc 1685 c9bd ebb0 26ba
000000b0: 4ceb bfbc 8138 6cbc 5604 913d f4d1 2abc
000000c0: f40f b83c a3e6 1e3c 433b 01be eae2 89bc
000000d0: 3321 f3bb ab45 03bd 52d7 bd3c cbbc c1bd
000000e0: 843b 9c3c 61cc a33b daaf 07be 4162 023c
000000f0: e151 923c 83dc 3c3c 2a50 dfbd ad86 8bbd
00000100: dd26 d5bd 9766 d43b 46ba 7c3d 49f6 33bc
00000110: 60ac a43d 5d2f 503b be04 9e3b 50d6 62bc
00000120: 0c73 c2bd 201a 57bc 0fc7 853d 3f19 06bd
00000130: 65e3 10bc 4276 1a3a ec91 66bd dab0 99bc
00000140: 603c 8dbd f522 a2bc d32e 2b3c 8e13 d53b
00000150: 4f73 3bbd 95b2 213d 0058 2f3b 97af 453d
00000160: 04ee 79bc 8e0c 823b f83e 543d 60d0 78bc
00000170: fd67 9cbc ed38 11bd b824 253d a435 94bd
00000180: 72f0 75be ae93 3c3b 49dd ce3a 4b50 0cbd
00000190: ced6 5a3d 50cb 55bd ba0a 033e c5b7 86bc
000001a0: 3e41 963d 2362 d0bc efaf 04be e31d 873c
000001b0: 0a49 d33d 1d1b ac3c 9f82 bd3d 4ef7 333d
000001c0: 754c 8c3d 4a9c 53bb 6274 833b 09c6 6fbb
000001d0: 0c4c 98bd 9e88 d83c 292b d5bd 72b2 ba3d
000001e0: 596f 43bd 3e73 4e3c 43d0 753d edd2 a0bc
000001f0: f74f e7bd b47c debc a502 c5bd eb47 1d3a
00000200: 7a46 0e3d 2020 e6bb 8b3d 3d3e 9a6c 1a3c
00000210: d75c 63bd 25f8 f33c bf59 1dba d583 9b3d
00000220: 595b 183e f0a2 d5bb 6545 92bd 6be5 893c
00000230: 9de0 3bbc e872 b93c 688a 35bd 82b1 bc3d
00000240: 2104 f6bd 2a43 d8bb 8bb3 e33d 4cf8 82ba
00000250: ca8b d73d 63a0 a0bc 6283 7d3d d735 f23c
00000260: d5cf 0e3d 2e74 11bc 09a6 ffba dff6 413d
00000270: 82a0 65bd 4093 8236 851a c5bd a49b e83c
00000280: aff5 7e3d 5f66 893b 3e50 15be 125e d7bc
00000290: 7a8e 5f3d 4917 8aba 24d9 0dbe 8973 733b
000002a0: a607 1bbc ceae 863b d785 4dbe f3f1 523c
000002b0: 5222 fdbd c811 a53c 2137 85bc 6db3 943c
000002c0: f501 283c 50d0 b73b 7a50 98bc c948 3e3d
000002d0: 9227 ed3d 421f 73ba 74f8 50bd d99a 893d
000002e0: eea6 343d 4af8 16bc 8bf4 333d d6b5 4cbc
000002f0: 4460 0a3c 0e22 583c 18fe c43d a790 0e3d
00000300: accf bc3c 1067 1cbc 8590 483e d2c2 37bd
00000310: 6623 083e a69e 653c 68bf 8cbd 8009 68bc
00000320: bd06 41be cc9a c73b 7480 963d b08c b3bc
00000330: 6702 e8bd 8d19 c0bc 9302 3a3e a627 bebd
00000340: 816e 74bd 43b0 d93a 7a76 2b3d db09 f53c
00000350: c1f5 7c3d 4e54 403d 0ca7 9cbd aa3a 86bc
00000360: 67c9 b53c d0a1 bd3c fe28 863d e7a6 9ebb
00000370: 59af da3c 3652 523c 15a3 8cbd 345a f1bc
00000380: 2441 f93c 02f3 c73b 4279 82bd df51 0dbc
00000390: e4c5 883d 1d13 06bb 0967 cebc c8fb 0fbd
000003a0: 8cf3 edbc 2cce 02bc a8fa 583e 952c 1bbd
000003b0: 696b 82bd bd24 1e3d 7464 f4bc b895 74bd
000003c0: acf3 6d3d b44b 0cb9 bd7f da3c 09d4 7cbc
000003d0: 9021 35bd 316c 743c 1815 d83d 24d2 a0bd
000003e0: 7225 1abd d5d0 b1bb 6ce3 fc3d 5667 d0bb
000003f0: 81f9 d03d 675f 26bc 1833 b73d f5c8 a03c
0.07881194 0.00046018692 -0.19395773 -0.004400186 -0.13824767 -0.030312568 0.12148145 -0.00624675
-0.23564135 -0.003200348 -0.17131877 -0.015506726 -0.1714435 0.01799732 -0.12333587 -0.040165316
-0.061974287 0.003842833 -0.016023228 0.011815415 -0.14884058 0.02713812 0.08787789 0.008512251
-0.01606184 0.014883182 -0.16845314 0.05985713 -0.06269403 0.04398653 -0.028298158 0.0127161415
-0.043343548 0.00398257 -0.040872194 0.0058146305 0.09307844 -0.025560185 -0.072428025 0.059993792
0.19712675 -0.00806638 -0.09839837 -0.00063587603 -0.023427628 -0.014417768 0.07080905 -0.010426033
0.022468545 0.009698543 -0.12620263 -0.016831834 -0.007419729 -0.032048862 0.023173962 -0.094598375
0.019071348 0.004998729 -0.13250676 0.007957996 0.017861309 0.011527183 -0.10903962 -0.06812797
-0.10407803 0.006481956 0.06170108 -0.010984012 0.080406904 0.0031766512 0.0048223427 -0.013845041
-0.094946 -0.013128787 0.06532108 -0.03273892 -0.008843278 0.00058922556 -0.056291506 -0.018761087
-0.06896281 -0.01979206 0.0104481755 0.0065025752 -0.045764264 0.03947695 0.0026755333 0.04826316
-0.015254501 0.003968782 0.051817864 -0.015186399 -0.019092554 -0.03545468 0.04031822 -0.07236794
-0.24017504 0.0028774547 0.0015782501 -0.03425626 0.05342751 -0.052195847 0.1279706 -0.01644505
0.07336663 -0.02543742 -0.12957738 0.016493743 0.103166655 0.021009022 0.092534296 0.04393702
0.068505205 -0.00322892 0.0040116766 -0.0036586544 -0.0743638 0.026432332 -0.10408623 0.09116067
-0.04771361 0.012600718 0.060013067 -0.019631827 -0.11294549 -0.027159072 -0.09619645 0.00059997913
0.03473518 -0.0070228726 0.18480508 0.009425307 -0.05550846 0.02978141 -0.0006002448 0.07593504
0.14878596 -0.006519668 -0.07142142 0.016833028 -0.011467126 0.0226378 -0.044321448 0.092135444
-0.12012506 -0.0065998035 0.111182295 -0.0009992211 0.105247095 -0.019607728 0.061892875 0.029566688
0.034866173 -0.008877797 -0.0019504438 0.047354575 -0.056061275 3.891444e-06 -0.09624199 0.028394528
0.06224602 0.004193112 -0.14581391 -0.026289973 0.054579236 -0.0010535504 -0.13852364 0.0037147722
-0.009462273 0.004110194 -0.20070587 0.012875068 -0.12360062 0.02015008 -0.01626164 0.018151963
0.010254373 0.0056095496 -0.018593062 0.046456132 0.11579813 -0.0009274372 -0.051018193 0.06718988
0.04410451 -0.00921447 0.043934386 -0.012494525 0.008445803 0.013191713 0.09618777 0.03480592
0.023048244 -0.009546056 0.1958638 -0.04486353 0.13294753 0.0140148755 -0.06872445 -0.014162421
-0.18850227 0.0060914513 0.07348719 -0.021917671 -0.11328583 -0.023449684 0.18165044 -0.09284906
-0.059675697 0.0016608316 0.041861035 0.029911926 0.061757807 0.0469554 -0.07649049 -0.016385395
0.022190763 0.023148447 0.065507874 -0.0048416737 0.02669494 0.012836983 -0.06867043 -0.029461958
0.03042657 0.006101967 -0.06370784 -0.008625477 0.0667837 -0.002045817 -0.025195615 -0.035152227
-0.029046796 -0.0079837255 0.21189368 -0.037884314 -0.06368143 0.038609255 -0.029833056 -0.059713095
0.05809371 -0.00013379642 0.026672238 -0.0154314125 -0.04422146 0.014918373 0.10550898 -0.07852581
-0.037633367 -0.005426506 0.12348065 -0.006359975 0.10203839 -0.010154582 0.08945292 0.019627074

ian_model.model_ianet.down2.0.conv.5.running_mean f4 [12]
00000000: 3d92 f13e a26d 7e3f 2665 a63e 8daa 803f
00000010: 3dd6 493f 5ad7 ac3e 75c7 fabe 353a 5f3f
00000020: f717 8abe 72fb 723f 3700 82bf ba4d 7b3f
0.47181883 0.99386036 0.32499045 1.0052048 0.78842527 0.3375805 -0.489803 0.8719819
-0.2697141 0.94914925 -1.0156316 0.98165476

ian_model.model_ianet.down2.0.conv.5.running_var f4 [12]
00000000: 4ed9 c83e 8b96 653f e765 ce3d 822d 1e40
00000010: 0dcf 913f f11f 293e 0c9d 803f 8aff ec3e
00000020: 4ff2 c83d 6861 6640 0e15 8540 51c5 f33f
0.3922829 0.89682835 0.1007803 2.4715276 1.1391312 0.16516091 1.0047927 0.4628871
0.09811842 3.5996952 4.15882 1.9044591

ian_model.model_ianet.down2.0.conv.5.weight f4 [12]
00000000: 54f2 633f e34a 673f d636 a03f 4893 823f
00000010: 8623 7c3f 7c36 783f c0ee 8a3f add1 703f
00000020: b1aa 823f 20dc 8f3f 1225 8d3f ca58 753f
0.8904164 0.90348643 1.2516735 1.0201197 0.98491704 0.96958137 1.0854111 0.9406994
1.0208341 1.1239052 1.1026938 0.95838606

ian_model.model_ianet.down2.0.conv.5.bias f4 [12]
00000000: 660e 0bbf d838 da3e acdb b43d c147 f6bd
00000010: 27a9 1c3f 1ee1 d13d 2855 853c d67f f73e
00000020: a462 d2be 5464 e4bd 65a6 2ebe 0dab c7be
-0.54318845 0.42621493 0.088309616 -0.12025405 0.61195606 0.10248016 0.016275957 0.4833972
-0.41090882 -0.111519486 -0.17055662 -0.3899769

reorder_token_23 f4 [16, 1, 3, 3]
00000000: ca49 fabe 8ba7 9c3e 0ab4 e63e f4c8 c7bf
00000010: 4450 2a3e 33b5 05bf bc1d 24bf d3a9 87be
00000020: 6b82 a1bf 8615 0d3f 3172 80bf b416 213f
00000030: a2b7 543e f5e5 623e dff5 be3e 0033 1fbf
00000040: 4bbf 38bd 829f 63be 72c0 00be abd6 ba3e
00000050: 396c 6b3f 9cb5 50bf 513d a6be e663 9bbc
00000060: f08a 713f 2157 543e c39d 7cbd 5404 073d
00000070: 6cf5 b8be 849a 10bf 77e2 b13e c7cf f9be
00000080: 723e 5dbe 02c4 44be 5e72 abbd 1d44 14be
00000090: 9581 af3e 5998 a1be 63cc 05bf 31c5 85bf
000000a0: 6bab ce3e 9afa 3a3f eb1e 543e bb48 a8bd
000000b0: 5aa6 713e 383b 30be 701e 91bf 78cd e53b
000000c0: b21c fcbe 5d00 ee3e 8019 113e 5b28 263f
000000d0: 8b44 063f 5d28 1bbf c43f b6be 56b5 03bf
000000e0: 3f48 ee3e 4d39 b9be d056 c4be cd23 00bf
000000f0: 0dd3 6f3e c826 46bf aa97 fbbd b340 10bf
00000100: f367 2d3d 7be6 d73e 4825 c4be d591 7fbe
00000110: 13ec 90be b7b6 82bd 312c b83d 06ad 37bd
00000120: 5df1 ec3d a78d 0c3f 3fa0 4f3f 03e0 acbf
00000130: 0000 0000 0000 0000 0000 0000 0000 0000
00000140: 09be 333e b19f 6a3e 514b c93e ce0c 64bf
00000150: 0000 0000 0000 0000 0000 0000 0000 0000
00000160: 31be a43e d52d 2dbe 9824 6c3e b300 39bf
00000170: 0000 0000 0000 0000 0000 0000 0000 0000
00000180: 29c7 ae3e a546 783e a934 983e 9704 a53d
00000190: 0000 0000 0000 0000 0000 0000 0000 0000
000001a0: 4cbb 113f 0a73 5b3e f800 b13e 3f12 37bd
000001b0: 0000 0000 0000 0000 0000 0000 0000 0000
000001c0: be81 423d a17f 333f 95e3 b4bd bd33 603e
000001d0: 0000 0000 0000 0000 0000 0000 0000 0000
000001e0: 127f 773e 4f4a f0be 64e5 873d ae8e 3abe
000001f0: 0000 0000 0000 0000 0000 0000 0000 0000
00000200: c926 c43e b3fd ce3e dd82 a53e d784 01be
00000210: 0000 0000 0000 0000 0000 0000 0000 0000
00000220: 037f e33e 8c89 3cbe 7a9d 643f 0229 473d
00000230: 0000 0000 0000 0000 0000 0000 0000 0000
-0.48884422 0.30596575 0.45059234 -1.5608201 0.16632181 -0.52229613 -0.6410787 -0.26496753
-1.2617925 0.5511097 -1.0034848 0.6292527 0.20773175 0.22158034 0.3729696 -0.62187195
-0.045104306 -0.22228816 -0.12573412 0.36491904 0.9196201 -0.81527114 -0.32468656 -0.018968534
0.94352627 0.20736362 -0.06167389 0.032963112 -0.36124742 -0.5648577 0.3474309 -0.48791334
-0.21605852 -0.19215396 -0.08371423 -0.14479108 0.3427855 -0.31561545 -0.52264994 -1.0450803
0.40365157 0.7303864 0.2071492 -0.08216997 0.23598614 -0.1721009 -1.1337414 0.007013019
-0.49240643 0.46484652 0.14169884 0.6490533 0.5244834 -0.60608464 -0.35595524 -0.5144857
0.46539494 -0.3617653 -0.38347483 -0.5005463 0.23420353 -0.77402925 -0.12284787 -0.56348723
0.04233546 0.4216803 -0.38309693 -0.24957974 -0.2830511 -0.06382506 0.08992804 -0.044842742
0.11569474 0.54903644 0.8110389 -1.3505863 0.0 0.0 0.0 0.0
0.17552961 0.2291248 0.39315274 -0.8908204 0.0 0.0 0.0 0.0
0.32176355 -0.16912015 0.23060834 -0.7226669 0.0 0.0 0.0 0.0
0.34136322 0.24245699 0.29727677 0.08057516 0.0 0.0 0.0 0.0
0.5692642 0.21430603 0.34571052 -0.044695135 0.0 0.0 0.0 0.0
0.047487013 0.7011662 -0.0883247 0.21894737 0.0 0.0 0.0 0.0
0.24169567 -0.46931693 0.0663555 -0.1821849 0.0 0.0 0.0 0.0
0.3831084 0.40427932 0.32326403 -0.1264833 0.0 0.0 0.0 0.0
0.4443284 -0.18411845 0.8930279 0.048623092 0.0 0.0 0.0 0.0

ian_model.model_ianet.down2.1.conv.5.running_mean f4 [48]
00000000: d2ac ba3b 5029 08be 4236 be3f 4f6e 4abe
00000010: 5768 d1be 8d57 cdbf eafe 40be cef3 30be
00000020: 5ab7 87bc bad3 bebd 9742 44be 515c babc
00000030: 9977 283e f0e5 23bf 16a5 a6be 6ca5 4e3e
00000040: 6bbb 23bd a5ba 3dbf df06 8cbf 91df d13e
00000050: 01a8 cabe 2df5 2e3f 4aa7 94bf 88fc f3be
00000060: 4f6e 4cbe f362 373c fd51 673e 95a8 33be
00000070: daed 7abe 3017 793e 3b67 cf3c 8bd2 f1be
00000080: d39e 1d3f 8844 c0bf e000 4f3b c8e0 7c3d
00000090: 9756 e4be 1b7a 22be 2a46 15bf 70ec 5fbf
000000a0: e827 a4be 289f 6abe 7126 843f 6723 72bd
000000b0: bc3d 12c0 2c03 de3c d070 323c 9d6e 5a3e
0.0056968713 -0.1329701 1.4860308 -0.19768642 -0.40899917 -1.6042343 -0.18847242 -0.17280504
-0.016566921 -0.093177274 -0.19166027 -0.022749098 0.16451873 -0.6402273 -0.32547826 0.20180291
-0.039973658 -0.7411292 -1.0939597 0.4099088 -0.39581302 0.6834286 -1.1613553 -0.47653604
-0.19963954 0.011193025 0.2258987 -0.17544778 -0.24504796 0.24325252 0.025317779 -0.47230944
0.6157047 -1.5020914 0.0031586215 0.061737806 -0.44597313 -0.15866892 -0.58310187 -0.8747015
-0.32061696 -0.22912276 1.0324231 -0.059115794 -2.285018 0.027101122 0.010891154 0.21331258

ian_model.model_ianet.down2.1.conv.5.running_var f4 [48]
00000000: e0f5 e63b 7030 333f f0b5 8040 0658 d23e
00000010: b65b 8a3f 9360 253f 377e 2b3f e63f f03e
00000020: 636c be3f f22e 103f c732 053f d9b0 fc3e
00000030: db9c 613f dcf4 4540 7280 fb3f cb9d 1740
00000040: 2ac2 9e3e 7737 4a40 6ea3 8c40 5635 ca3f
00000050: aba6 e53e b4f2 c43f 410d 9640 25b8 a13f
00000060: a00a 2b3f ffaf 4c3e 1bf4 813f 0584 233f
00000070: ccbd b33f 73c3 3f40 ea06 1b3f b30c ed3f
00000080: e209 0340 f8cc ea3f ee60 773e 25c3 913e
00000090: 01f4 1e40 6a7a e43e 3a12 8d3f 8adf 2e3f
000000a0: 0c69 573f d97b 913f 7117 8e3f 8c29 ab3e
000000b0: 1e3f 3040 d54b 933f 545a 093e a535 a13f
0.0070483536 0.69995785 4.022209 0.41082782 1.0809238 0.64600486 0.66989464 0.4692375
1.4876827 0.5632163 0.52030605 0.49353674 0.8812997 3.09307 1.9648573 2.369006
0.3100751 3.1596353 4.39495 1.5797527 0.4485372 1.5386567 4.689118 1.2634321
0.6681309 0.19989012 1.015262 0.6387332 1.4042296 2.9963043 0.60557425 1.85195
2.0474782 1.8343801 0.2415807 0.28469196 2.4836428 0.44624645 1.1021187 0.68309844
0.84144664 1.136592 1.1100904 0.33430135 2.7538524 1.1507517 0.13413364 1.2594496

ian_model.model_ianet.down2.1.conv.5.weight f4 [48]
00000000: a4ac 613f 48b8 983f b97d 6d3f 83ec 823f
00000010: ee56 8d3f c38a 873f 732e 743f b1cf 123f
00000020: 87b9 523f 5429 943f f0ec 883f f24b 763f
00000030: 0774 853f a546 df3e f35e 573f b7db 7d3f
00000040: 77ec 603f 4830 8b3f 9cc4 853f 131b 6b3f
00000050: 035a 8b3f a392 8d3f 6ce7 9c3f 1652 8b3f
00000060: 59b1 8b3f 221b 853f dd07 783f 7cf8 9a3f
00000070: 8f13 963f 599f 853f fd8c 893f 5209 8f3f
00000080: 6041 933f 73d1 803f bb43 813f 2694 753f
00000090: 4b31 833f e95f 8c3f 893e 793f 6ec9 5e3f
000000a0: 0903 7b3f 99cd 823f 1a9a 883f f396 b03f
000000b0: fada ae3f 5ab4 8d3f 9a26 8c3f 83cd 6d3f
0.88154054 1.1931238 0.9276996 1.0228428 1.1042154 1.0589222 0.95383376 0.5734816
0.8231434 1.1575112 1.0697308 0.96209633 1.0426034 0.43608585 0.84129256 0.99163383
0.87860817 1.0874109 1.0450625 0.91838187 1.0886844 1.1060375 1.2258124 1.0884426
1.0913497 1.0398905 0.96887 1.2107081 1.1724719 1.0439254 1.0746151 1.1174719
1.1504326 1.0063919 1.0098795 0.9592918 1.0249418 1.096677 0.97361046 0.8702611
0.98051506 1.0218993 1.0672028 1.3796066 1.3660576 1.1070664 1.094928 0.9289171

ian_model.model_ianet.down2.1.conv.5.bias f4 [48]
00000000: 2c12 17bf 57bf 243f d79f 143e f246 6fbd
00000010: 7bc5 343f 5a13 4d3e 4bff 1cbe cd73 363f
00000020: cf4d 763d 71ab 2abe 1225 b3be 9343 26be
00000030: ff32 b7be 1032 83be a734 8fbe 0238 8fbd
00000040: 2769 31bf 31fd a63e 325e 043e 125d 0abf
00000050: 5398 d2bd 2331 923e e536 21be 9caf 9d3d
00000060: 8281 963c ee28 9cbd 644c 6cbe 0a63 6bbd
00000070: 22e3 09be a14a 31bd 112a b33d 929d dd3e
00000080: 2464 fe3e 22aa 99be 0374 dd3e 6123 bf3d
00000090: b7a5 713e c398 07bf b051 243f 7577 dfbd
000000a0: 6a9c b2bd aa0b 17be 7975 873e 197f be3e
000000b0: 1997 0abe 4633 c8bd ae42 b13d b519 983c
-0.59012103 0.6435446 0.14514099 -0.058417268 0.7061383 0.20026913 -0.15331762 0.7127045
0.060132798 -0.16666962 -0.3498922 -0.16236715 -0.35781094 -0.25624132 -0.27969858 -0.069931045
-0.69301075 0.32615045 0.12926558 -0.54048264 -0.1028296 0.28553113 -0.15743597 0.076995105
0.018372301 -0.07624994 -0.23076016 -0.057467498 -0.1346555 -0.043284062 0.08748258 0.4328428
0.49685776 -0.30012614 0.43252572 0.0933292 0.23598371 -0.5296747 0.64187145 -0.109114565
-0.0872124 -0.14750543 0.26456812 0.37206343 -0.13534202 -0.09775405 0.08655296 0.018566946

reorder_token_157 f4 [16]
00000000: ecc2 043f d559 4bbf 97d8 b43e a82c 99be
00000010: 9906 e23e c6b1 a63d 2006 e5be d190 b43d
00000020: 6761 9cbc 1da3 9f3e 9b74 183f b3ca 32bf
00000030: 0000 0000 0000 0000 0000 0000 0000 0000
0.5185993 -0.7943395 0.35321495 -0.29916883 0.4414566 0.08139376 -0.44731236 0.08816684
-0.019089414 0.31179133 0.59552926 -0.69840544 0.0 0.0 0.0 0.0

ian_model.model_ianet.down2.2.conv.5.running_mean f4 [48]
00000000: 48c5 a8bd 4193 33bd 6f84 a33d 188d 0ebf
00000010: 400f 85be 70c0 4bbd ca69 3cbf 8b7a f0be
00000020: b255 3fbf 3031 bcbe 061d 163d b20e 15be
00000030: 9754 ba3e f774 263f 9231 25bf ba0d e0be
00000040: 6a06 9bbe c398 843e dba4 883d dfd1 3abe
00000050: 9e77 2abe fd72 173e ad20 aa3e 827f bdbd
00000060: 50f5 ae3d c5de 8dbd bb06 4c3d 1f54 993e
00000070: 0fd6 94bf caf2 35be edea 963c e6d6 863f
00000080: b167 00bf f2ef d8be da66 b3be 704d 2d3e
00000090: 4e86 ab3e afca 2a3d ada0 24bf 14b3 653f
000000a0: 9ca6 a4bf 456f 30c0 0700 403f 9269 893d
000000b0: b348 de3f 7416 a7be 2439 80be 9d2a 043f
-0.082407534 -0.043841604 0.07984244 -0.5568404 -0.25988197 -0.04974407 -0.7359892 -0.46968493
-0.74740136 -0.36756277 0.036648773 -0.14556387 0.36392662 0.65022224 -0.64528763 -0.43760473
-0.3027833 0.25897798 0.06672069 -0.18244122 -0.16647193 0.14789958 0.33228055 -0.09252836
0.085428834 -0.069272555 0.049811106 0.29946992 -1.1627825 -0.17768398 0.018422568 1.0534332
-0.5015822 -0.42370564 -0.35039407 0.16924071 0.33500904 0.0416972 -0.6430767 0.89726377
-1.2863345 -2.7567914 0.7500004 0.06709589 1.7365936 -0.32634318 -0.25043595 0.5162752

ian_model.model_ianet.down2.2.conv.5.running_var f4 [48]
00000000: 8d31 893e 4fdb 9b3e 2e65 073f a410 d13f
00000010: dc94 8d3e 6156 af3e 7268 8140 97ab a13e
00000020: de40 2340 2039 943f 0e57 043f 2200 153f
00000030: 8567 183f 19b7 7640 3e7d 513f e9d6 0040
00000040: 7a83 fc3e fdbc 093f adfb 103f 5edd d73e
00000050: e467 883f e419 3b3f ad7d 4b40 11b5 823e
00000060: b3ce 2e3f 8180 c83d 01ef 383f 3d1a 843f
00000070: b690 bc3f 03a7 3c3f 694e 303e 57f8 a140
00000080: 24be 8d3f e616 8a3f 8b37 753c 8f76 1f3f
00000090: 2cc9 3b3f 8230 5f3f bcc1 9b3f 70aa 2540
000000a0: 70a0 c83f e00d 7b3f b972 4340 d901 bb3e
000000b0: febc 9e40 494f 1640 1faa 233f bce6 8440
0.26795617 0.30440757 0.5288876 1.6333203 0.27652633 0.3424559 4.0439997 0.31576225
2.5508342 1.1579933 0.51695335 0.5820333 0.5953296 3.8549254 0.8183173 2.013117
0.4931906 0.53804 0.56634027 0.42161077 1.0656705 0.7308638 3.1795456 0.25528768
0.6828415 0.09790135 0.7223969 1.0320507 1.4731662 0.7369234 0.17217411 5.061565
1.1073651 1.0788238 0.014966856 0.6229028 0.7335384 0.8718339 1.2168498 2.5885277
1.5673962 0.98068047 3.053877 0.36524847 4.9605703 2.3485892 0.6393146 4.153166

ian_model.model_ianet.down2.2.conv.5.weight f4 [48]
00000000: 78c3 863f 7deb 633f 6279 933f dcbb 713f
00000010: c5b1 543f 9258 663f 9392 a43f 5a63 903f
00000020: 5259 653f 5a39 8d3f e5e5 553f f95e 333f
00000030: 5060 823f efdb 9d3f 9dce 853f d878 6b3f
00000040: 91c0 873f 0a7c 893f ba69 883f 2113 933f
00000050: 2c1e 743f 0c55 863f caa5 713f 69dd 8c3f
00000060: 9264 563f 4c9c 6d3f 7461 7d3f ef94 5b3f
00000070: b15a 853f 750e 8b3f 05b1 7d3f 0156 7b3f
00000080: df21 933f a810 8e3f 7cdc b23f 640f 953f
00000090: b9ce 673f 7fed 8d3f 2fb9 8f3f 46c4 7a3f
000000a0: 329a a73f 0006 7e3f 7402 813f 7b9f 863f
000000b0: c255 923f ec26 8b3f f1ce 8a3f be63 a43f
1.0528402 0.890312 1.1521418 0.94427276 0.83083755 0.899789 1.2857231 1.128032
0.89589417 1.1033127 0.83553916 0.7006679 1.0185642 1.2332743 1.0453678 0.9198127
1.0605642 1.0740979 1.0657265 1.1490213 0.9535854 1.0494704 0.943936 1.1005069
0.8374721 0.92816615 0.98976827 0.8577413 1.0418302 1.0863787 0.99098235 0.98178107
1.1494712 1.1098833 1.3973536 1.1645322 0.9054981 1.1088103 1.1228389 0.9795574
1.3093932 0.99227905 1.0078874 1.051742 1.1432421 1.0871253 1.0844404 1.2842939

ian_model.model_ianet.down2.2.conv.5.bias f4 [48]
00000000: 11c9 843d 1140 63be ddc6 6c3e 69ed 38bd
00000010: 04e4 38be 550a 60be ec95 463e 3185 ee3d
00000020: 845d 8cbe df28 f93e a80f d43e 771e 33be
00000030: 2f96 853e 9173 9fbd ea04 233d 6cee d73d
00000040: 78f5 693d 1b9b 80bd 50a1 5ebe f514 803e
00000050: 71ce 103e 9e84 283d e6f4 81be 4d1a 743e
00000060: 147c abbe 620e 2bbf 561b 43be 7a12 52bb
00000070: 021d b73e a7e0 5ebd c5dd 4f3f 2389 8bbc
00000080: 0e0c cdbd 4e08 e93d 7056 f0be 9698 923d
00000090: 6882 18bf 857c 03be e840 cf3e e759 9cbe
000000a0: 0387 cebd 8f04 0bbe 4f44 093e 1e91 cdbe
000000b0: 9275 673e 466a 90be 8eaf 6e3e 7bff e438
0.06483663 -0.22192408 0.23122735 -0.045148287 -0.18055731 -0.21878941 0.19393128 0.11646498
-0.27415097 0.48663995 0.41418195 -0.1749209 0.26091143 -0.077857144 0.03979961 0.10543522
0.057118863 -0.06279584 -0.21741223 0.2501599 0.14141251 0.0411421 -0.25382155 0.23838158
-0.33493102 -0.6681882 -0.19053397 -0.003205447 0.3576432 -0.054413464 0.8119777 -0.017033165
-0.10012065 0.11378537 -0.46940947 0.0715801 -0.59573984 -0.12840469 0.40479207 -0.3053734
-0.10084345 -0.13575958 0.13404964 -0.40149778 0.22603443 -0.2820608 0.23309156 0.00010919474

reorder_token_86 f4 [48, 1, 3, 3]
00000000: 43bd e7bd ba7e c63c 74bb 003f 3eea be3f
00000010: 7c9a 203f 3850 11bf b324 003e 7995 0fbf
00000020: c66c 81bf 1327 3cbf b6ce cf3d 5c86 843e
00000030: 1155 2d3f 8c2e 8c3e 7a6c 31bf 2afa 203e
00000040: 9236 bdbd 559d eabe a09e 473d 2989 5c3e
00000050: 5f83 613e 969b a53e 32df ef3d 6200 64bc
00000060: 2273 003f 6042 363f 7c29 f8bd 6796 b53e
00000070: dd1a 233f 9595 dbbe 96fe cabe 46a9 183e
00000080: 66b9 603b 122b 1c3f 3c88 58bf f4a6 babd
00000090: 5dcc 393f 762c 063e 7130 3abf 69ef e6be
000000a0: a609 1b3e 7d71 8ebe 9e0b d3be ecba ccbe
000000b0: 9f51 fc3e eb77 81bd 30b1 6dbf 1243 cd3c
000000c0: f691 9f3e 6c91 093f 36fb 3dbd 2608 153f
000000d0: 85a2 fc3e 39be c9be 072a 0bbf 3449 5ebf
000000e0: c880 e63e 2665 9fbd fa7b 9d3e ea5d f23c
000000f0: fc4f 9d3c 7de9 2fbd 91cc 73bf 8901 3abe
00000100: 53c8 5d3f 2fe8 ccbe 2f9d 603e 25b2 99be
00000110: 918e 3fbe 15c0 373f 37e0 63bf 82fa 8abe
00000120: f2f8 013d 6ca9 1b3f 4267 47bf 4022 283f
00000130: 6801 073e 4fcc 883e 4328 e43e 0a19 9abf
00000140: 163e 6d3e a74b f43e 0dc9 753d 92ae 1abe
00000150: c61f 8c3c 997a b53d cd27 00bf 9096 ecbe
00000160: 3e78 0040 d75b 88be b503 c83e c280 8cbf
00000170: adf0 2ebf 6b7c 0bbf 8963 c13f fb59 95be
00000180: c30c b63e b28c 9a3e a0a7 5fbf a7f4 073f
00000190: ad20 28bd 008b a13e dc18 21bf dc65 03bf
000001a0: c10a ba3e cc35 c43e 96ae b2be fc75 7a3e
000001b0: 4a29 83be 841b c7bc c65c 1ebf e4b6 c1be
000001c0: 4b05 adbe abf4 2f3f fb73 cf3e a40c 05be
000001d0: 7357 91bf 0077 813f 0995 d03e 7c0e b43d
000001e0: cdc1 f4bd d41a 3c3f b0ec c4be 5d51 bd3d
000001f0: 2578 893e efa7 313e 6cf1 14bf a5c4 4b3f
00000200: 30bf e8be 7d25 fb3e 44e4 6b3e 07a0 d03e
00000210: ad59 813f aac0 b1bf f23d 873d 0423 b83e
00000220: a806 d93e d43b e03e 455b 353f 3b64 ffbe
00000230: b9ec 073d de5a 05be eca7 08be 9b5c 7cbc
00000240: 4a23 113d 17f5 67bd 0f7d 873e 56b4 f83d
00000250: 022b 5ebf 9824 633f 37fe 7b3e a7a0 5ebe
00000260: 579a 10be 1f33 9fbe 431d 46be 06d7 a8bf
00000270: f527 fd3c 3ff7 c13e fe3c 363f 32f9 e9be
00000280: c17e afbe 7e0c 76bf 9839 aabe d54a 453f
00000290: 6501 c13e 1d95 60be 75bc f43d 8e78 dbbe
000002a0: 4d93 fa3e 8d5d 783e c58a 503f b601 2a3b
000002b0: 3169 3fbf 54ca 3e3f 6248 b8be 615c 073f
000002c0: cea6 a83c 7afb 3f3f 7ae2 39bf 772a 0ebf
000002d0: 42d8 b5be 3e83 673f 4ea4 79be e513 863e
000002e0: 7ed4 973d 6271 1e3e e368 76bf d85d fcbd
000002f0: 4cf8 ff3e b5da 043f 27e7 c1be 6cc1 643f
00000300: d04b b43d cc05 aebe 3118 453f 9e81 853e
00000310: 8dc8 e4be 2a17 20be 1862 8f3e 5b13 883c
00000320: fc28 c43e 47b0 7f3e d7bd 19bf 911e f73e
00000330: c08f b93e dcd7 71bc 68dd 94be fa3a ad3c
00000340: 3e94 a63e f9dd e73d 5d18 e0bc 4cab 8b3e
00000350: e439 603e ff9e e93d c180 f0be 7b1b 89bf
00000360: 2f73 933d 96c8 10bf dcf5 0fbf 4d8a d83d
00000370: 4d63 ed3f 6c87 fa3e c3c0 5f3f 0a28 3fbf
00000380: de93 903f 41da c4bd 593f bcbe 3c25 7fbc
00000390: ae78 03be 26f4 1f3e acd2 283f a119 8fbb
000003a0: 8bb0 a13e 8354 4dbf 2201 a5bf 7c73 f93e
000003b0: d37a b13e 3302 913e 5ac1 813d 215f 4dbf
000003c0: 3afd 13be df7b 0bbe f3a9 35be 9c0a 41be
000003d0: fff4 efbd 3609 eb3e 9117 763e 4ef6 c63e
000003e0: cdf4 e23e a1bf d4be 0ac8 b03e 4c93 8c3f
000003f0: ea1a 6dbe 7f98 f0bd 5246 d93e 52ce 453f
-0.11315396 0.02423035 0.5028603 1.4915235 0.62735724 -0.5676303 0.12514 -0.5608745
-1.011132 -0.7349712 0.10146849 0.25883758 0.67707926 0.27379262 -0.6930615 0.1572043
-0.09238924 -0.4582316 0.04873526 0.21536697 0.2202277 0.32345265 0.11712493 -0.013916107
0.5017568 0.7119503 -0.121172875 0.3546631 0.63712865 -0.4288756 -0.3964736 0.14908323
0.0034290194 0.6100322 -0.8458288 -0.09113875 0.7257746 0.13102898 -0.72730166 -0.4510453
0.151404 -0.2782096 -0.412198 -0.3998636 0.49281022 -0.06321701 -0.9284849 0.025056396
0.31166047 0.5373752 -0.04638215 0.5821556 0.49342743 -0.3940294 -0.54361004 -0.8683045
0.45020127 -0.077829644 0.3075865 0.029585797 0.019203179 -0.04294728 -0.9523402 -0.18164648
0.86633795 -0.40020892 0.21934961 -0.30018726 -0.18706729 0.7177747 -0.89014 -0.27144247
0.031731553 0.6080539 -0.77891934 0.6567726 0.1318413 0.26718375 0.44561967 -1.2038891
0.23168215 0.47713968 0.06000619 -0.15105656 0.017104995 0.08861274 -0.5006073 -0.4620862
2.007339 -0.26632568 0.39065328 -1.0976794 -0.6833599 -0.5448672 1.5108501 -0.29170212
0.3555661 0.30185467 -0.8736515 0.53107685 -0.041046787 0.3155136 -0.6292856 -0.513273
0.3633633 0.38322294 -0.34898823 0.2445907 -0.2561744 -0.024305113 -0.6186031 -0.37834847
-0.337931 0.6873271 0.40518174 -0.12993103 -1.1354812 1.0114441 0.40738705 0.08791825
-0.11951027 0.73478436 -0.38461828 0.092440344 0.26849476 0.17349218 -0.5818088 0.7959693
-0.45458364 0.4905204 0.23036295 0.4074709 1.0105492 -1.3886921 0.06603612 0.35964215
0.4238789 0.43795645 0.7084239 -0.49881157 0.03318474 -0.13022944 -0.13345307 -0.015402938
0.035434045 -0.05663022 0.264626 0.12143771 -0.86784375 0.8872771 0.24608694 -0.21740972
-0.14121376 -0.3109369 -0.193471 -1.319062 0.030902842 0.37883946 0.71186817 -0.45697933
-0.34276393 -0.9611281 -0.33247066 0.7706731 0.37696376 -0.21931882 0.11950008 -0.42865413
0.48940507 0.24254437 0.81461746 0.0025940961 -0.74769884 0.7452748 -0.35992724 0.52875334
0.020587351 0.749931 -0.726112 -0.55533546 -0.35516554 0.90434635 -0.24379084 0.26187053
0.074135765 0.1547294 -0.96253794 -0.12322587 0.49994123 0.5189622 -0.37871668 0.8935764
0.088035226 -0.33988798 0.7699004 0.26075453 -0.44684258 -0.15633836 0.28004527 0.016610792
0.3831252 0.24969588 -0.600553 0.48265508 0.36242485 -0.014760938 -0.2907517 0.021146286
0.32534975 0.11321635 -0.027355367 0.27279127 0.21897084 0.11407279 -0.4697323 -1.0711511
0.07199704 -0.5655607 -0.56234527 0.10573254 1.8545929 0.48931444 0.87403506 -0.7467047
1.1295125 -0.09611941 -0.3676708 -0.015572842 -0.12839004 0.15620479 0.6594646 -0.004367069
0.31580004 -0.8020708 -1.2890971 0.4872092 0.3466402 0.2832199 0.06335707 -0.8022328
-0.14452067 -0.13621472 -0.17740612 -0.18851703 -0.11716651 0.45905465 0.24032427 0.3885979
0.44327393 -0.4155245 0.34527618 1.0982451 -0.23154798 -0.11747836 0.42436463 0.77267945

ian_model.model_ianet.down3.0.conv.5.running_mean f4 [48]
00000000: 4db4 113f f0d8 943e 667e 5a3f d058 21be
00000010: d8fb e7bf 09d8 1f3e f4df f83e bea8 aa3e
00000020: 8974 10be 6d12 703e ab95 03bd ad35 853f
00000030: 0e4d 36be 0dba 9f3f e5c3 adbf 79f8 743d
00000040: 8dd4 763e 02ed 0f3f 6c2c 023f 319d 0d3f
00000050: 4303 173f b955 623f cdfe 8c3f 9771 293f
00000060: 4766 283f af42 443f fc72 a33f db4e e53e
00000070: 0751 b23d 2af2 203f 78b8 573f 2fbf 883f
00000080: 5546 303e eb65 a13e 0de2 6d3f 4fd4 df3e
00000090: a344 403f ced5 e73f 9eb1 8f3e 75eb a53e
000000a0: 022b 5d3f 0f59 003f e745 183f 4ffd 423e
000000b0: 1c67 643f b0d3 bf3e 59cb 4b3f 8887 0a3f
0.5691574 0.2907176 0.8534912 -0.15756536 -1.8123732 0.15609755 0.48608363 0.33331865
-0.14106955 0.23444529 -0.032125156 1.0407006 -0.17802832 1.2478653 -1.3575407 0.059807274
0.24104519 0.5622102 0.5084903 0.5531798 0.5898935 0.8841205 1.1015259 0.6618895
0.6578106 0.7666425 1.2769465 0.44786724 0.08706861 0.62869513 0.8426585 1.0683345
0.1721433 0.3152307 0.9292305 0.43716666 0.7510473 1.8112123 0.280652 0.32406202
0.8639375 0.5013589 0.5948166 0.19041942 0.8921983 0.37466192 0.7960716 0.54113054
