Additional/Mobile/FullRes/Bread_onnx_fullres_new_optimized.onnx (onnx, 655337 bytes, 314 tensors)

reorder_token_228 f4 [48, 48, 1, 1]
0	0xbd49e2d6	-0.049288593
1	0x3e35f4ee	0.17769215
2	0xbdf66359	-0.12030668
3	0x3bdb33c9	0.006689523
4	0x3d212b78	0.039348096
5	0x3d5cd97b	0.053918343
6	0xbe930fbd	-0.28722945
7	0xbe5d4357	-0.2160772
8	0x39dd683d	0.00042230068
9	0xbc790340	-0.015198529
10	0x3d9b74d5	0.07590643
11	0xbe424e94	-0.18975288
12	0x3e2f3ade	0.171123
13	0x3d7f5cf9	0.062344525
14	0x3d8fa48a	0.07013805
15	0x3e164be3	0.14677386
16	0xbd4838ed	-0.048882414
17	0x3dca2fdf	0.09872412
18	0xbee3ee91	-0.4451795
19	0x3e2071c8	0.15668404
20	0x3d7b5ebb	0.06136964
21	0xbdc7ec4b	-0.09761866
22	0x3e7e007a	0.2480487
23	0x3d50327f	0.050829407
24	0xbde83b60	-0.1133945
25	0x3e2b1e3c	0.16710752
26	0xbe1dd78d	-0.15414257
27	0xbe021b15	-0.12705643
28	0x3eab6787	0.33477423
29	0x3d8f7741	0.07005168
30	0x3ddb29df	0.10701346
31	0x3d2ae331	0.041720573
32	0x3d9a4820	0.07533288
33	0x3cbff745	0.023433337
34	0xbe20fd86	-0.15721712
35	0x3ed24917	0.41071388
36	0xbe0e483f	-0.13894747
37	0x3d8ddb8a	0.069266394
38	0xbe75f7c0	-0.2402029
39	0xbebb78c2	-0.36615568
40	0x3da1d0ff	0.07901191
41	0x3dc54e59	0.09634084
42	0x3dc971f9	0.09836192
43	0x3e08bcb0	0.13353229
44	0x3eb1a16c	0.34693468
45	0xbd7cbeb9	-0.061705325
46	0x3e09705c	0.13421768
47	0xbedaa134	-0.42701113
48	0x3debf182	0.11520673
49	0xbe661788	-0.22469914
50	0xbd22faf1	-0.039790098
51	0x3e1eb31c	0.15498012
52	0x3f32182c	0.69568133
53	0xbe358536	-0.17726597
54	0xbcc95cd7	-0.024580402
55	0xbec05f82	-0.37572867
56	0x3e7c4ef3	0.24639492
57	0x3edacd69	0.4273484
58	0xbce56109	-0.028000372
59	0x3e18aa55	0.14908727
60	0xbe6aa6bf	-0.22915171
61	0x3e16b81c	0.1471867
62	0x3d1f869f	0.038946744
63	0xbc15425b	-0.009110059
64	0x3e63bad5	0.2223924
65	0xbe9b5a47	-0.30342314
66	0x3e09b384	0.13447386
67	0x3cb38e87	0.021918548
68	0xbe87959a	-0.26481324
69	0x3d4ee89f	0.050514814
70	0x3e0f974c	0.14022559
71	0xbcd0665c	-0.025439434
72	0xbe7429b5	-0.23844035
73	0xbe1b1ab1	-0.151469
74	0xbdab3ae6	-0.08360843
75	0xbe59a52d	-0.21254416
76	0xbd5771a0	-0.052598596
77	0x3d659344	0.056048647
78	0x3d3dd4b8	0.046345443
79	0x3ec6a128	0.38794827
80	0xbe18e8bd	-0.14932533
81	0xbeb4228d	-0.3518261
82	0x3e5169fa	0.20450583
83	0xbc5b1d12	-0.01337363
84	0xbda77863	-0.08177259
85	0x3d0f120f	0.03492933
86	0xbdf2f77e	-0.11863612
87	0xbe941827	-0.28924677
88	0x3db0c101	0.086305626
89	0x3ec079f6	0.3759305
90	0x3deb886c	0.1150063
91	0x3d9977d1	0.07493556
92	0x3e859c61	0.2609587
93	0x3e23a11d	0.15979429
94	0xbe71948c	-0.23591822
95	0x3e7e7b29	0.2485167
96	0xbc5628d6	-0.0130712595
97	0xbefdf4e4	-0.496009
98	0x3f00929c	0.5022371
99	0x3e55bb6c	0.20872277
100	0xbd0e5d7c	-0.034757122
101	0xbdfc06b4	-0.12305966
102	0x3e3b1d95	0.18273003
103	0x3dcd347c	0.10019776
104	0x3de69b23	0.11260059
105	0x3ea54d58	0.3228557
106	0xbd3c8c36	-0.046032153
107	0xbde6b819	-0.112655826
108	0x3c06facf	0.008238508
109	0x3e3adbf8	0.18247974
110	0x3d3e928b	0.046526473
111	0xbe3e095e	-0.18558261
112	0x3cc8b8fb	0.024502268
113	0x3e3d3d65	0.18480451
114	0xbd8b8fb1	-0.06814516
115	0x3d584825	0.052803177
116	0x3d4cc27d	0.049990166
117	0x3e67db36	0.22642216
118	0x3c6b7f62	0.014373632
119	0xbdea38ff	-0.114366524
120	0xbc25b05d	-0.010112849
121	0xbe8226ca	-0.2542022
122	0xbd4c1eff	-0.049834248
123	0x3eab5984	0.33466733
124	0xbe31d06d	-0.17364664
125	0xbdc6d691	-0.09708894
126	0xbd58a22e	-0.05288904
127	0x3def4a6a	0.11684115
128	0x3d1cf20f	0.038316783
129	0xbc9c352c	-0.019068323
130	0xbe0bf55a	-0.13667813
131	0x3e81be86	0.2534067
132	0x3e9c6e24	0.3055278
133	0x3d5d823d	0.054079283
134	0x3d5ef8f9	0.054436658
135	0x3b7fd190	0.003903482
136	0x3d5f259b	0.054479223
137	0x3ecacf32	0.39611202
138	0xbdbd2f6a	-0.09237559
139	0xbe7bfe88	-0.24608815
140	0x3d5a39a9	0.053277645
141	0xbdde00be	-0.10839985
142	0x3d9d624d	0.07684765
143	0x3e1ceef9	0.15325536
144	0xbdad2ccb	-0.08455809
145	0x3e43db03	0.19126515
146	0xbe4fd0b3	-0.20294456
147	0x3e557601	0.20845796
148	0xbe3e39ab	-0.18576686
149	0x3f05fe9e	0.5234164
150	0x3e72ab42	0.23698142
151	0x3e16a651	0.14711882
152	0x3dc22e0b	0.09481438
153	0x3d2acc50	0.041698754
154	0xbde2d82f	-0.1107639
155	0x3e488757	0.19582878
156	0xbe77a0e7	-0.24182473
157	0xbd92c76d	-0.07166944
158	0xbe82e5ab	-0.25565848
159	0xbd17c7ca	-0.037055768
160	0xbd67ea8d	-0.05662017
161	0x3c4c7f56	0.012481531
162	0x3e2e1af6	0.17002472
163	0x3dbba8b1	0.09163035
164	0xbe9b805d	-0.3037137
165	0xbda94832	-0.08265723
166	0xbe895405	-0.26821914
167	0x3ed711c6	0.42005748
168	0x3ca40f94	0.02002696
169	0x3ddfecbf	0.109338276
170	0x3dbf9eae	0.093564376
171	0x3dbad3e5	0.09122447
172	0xbe69a050	-0.2281506
173	0xbe2348c1	-0.15945722
174	0x3e0a9761	0.13534309
175	0x3e1117ad	0.14169188
176	0x3dded731	0.10880888
177	0x3e82fd05	0.25583664
178	0x3b9e72ca	0.0048354613
179	0x3d56edef	0.052473005
180	0x3e8c42d9	0.2739475
181	0x3d22575a	0.039634086
182	0xbe287dd1	-0.16454245
183	0x3dac1dd9	0.084041305
184	0xbec4bac9	-0.38423756
185	0xbd576114	-0.052582815
186	0xbde9174f	-0.11381399
187	0xbe672e5d	-0.2257628
188	0x3e2a07ca	0.16604534
189	0xbcf24edc	-0.029578619
190	0xbe549c66	-0.20762786
191	0x3d9ad52e	0.07560192
192	0x3d2b39bb	0.041803103
193	0xbe52efbc	-0.20599264
194	0x3d9c559d	0.07633517
195	0x3dfb4932	0.1226982
196	0x3d2af3ee	0.041736536
197	0xbd432120	-0.047639012
198	0x3e48220c	0.19544238
199	0x3e602d0f	0.21892188
200	0xbdcfc310	-0.10144627
201	0xbc083af4	-0.008314837
202	0xbc32e30e	-0.010918392
203	0x3d9f548e	0.077797994
204	0xbda17a16	-0.07884614
205	0xbdd83877	-0.10557645
206	0xbe84c86c	-0.2593416
207	0x3e1edb25	0.15513285
208	0xbdf184ea	-0.117929295
209	0x3eb4b98a	0.35297805
210	0xbd909996	-0.07060544
211	0xbd73c60b	-0.05951504
212	0xbdded68f	-0.108807676
213	0x3d3f86f4	0.04675956
214	0xbe83efdc	-0.25768936
215	0xbea47d4c	-0.32126844
216	0x3ccdca5a	0.025120903
217	0x3d589c41	0.05288339
218	0x3e669475	0.2251757
219	0xbd6e0440	-0.058109522
220	0x3c943540	0.018091798
221	0xbdccce32	-0.10000266
222	0xbd3d0b1d	-0.046153177
223	0x3e3118bc	0.17294592
224	0x3e61a227	0.22034512
225	0x3e967611	0.29386953
226	0x3db212dd	0.08695004
227	0x3e9f3fde	0.31103414
228	0x3d434657	0.047674503
229	0x3e08bf88	0.13354313
230	0x3da9e79d	0.0829613
231	0xbdb2f567	-0.08738213
232	0xbe08f8fd	-0.13376231
233	0xbc565b45	-0.013083284
234	0x3df2c194	0.11853328
235	0x3e699af8	0.22813022
236	0xbe39b0a8	-0.18133795
237	0x3e83a91b	0.25714955
238	0x3bb0f4cd	0.0054002763
239	0x3d582196	0.052766405
240	0x3d70f7e9	0.058830176
241	0xbcea7d06	-0.028624069
242	0xbd9eed00	-0.07760048
243	0xbe5b17e3	-0.21395831
244	0xbf0b7852	-0.5448047
245	0xbcd318c5	-0.025768647
246	0x3e34393a	0.17599955
247	0xbec19cda	-0.3781498
248	0xbc97623d	-0.01847946
249	0x3e7d5e9f	0.24743126
250	0xbdf7df69	-0.12103159
251	0x3db06341	0.08612681
252	0x3eae1110	0.33997393
253	0x3e4bd09a	0.19903794
254	0xbdde0e48	-0.10842568
255	0xbd7b0440	-0.06128335

reorder_token_240 f4 [16, 96, 1, 1]
0	0xbe32a9ba	-0.17447558
1	0xbdd08e3a	-0.101833776
2	0x3d3b101b	0.045669656
3	0x3cb6b4a0	0.022302926
4	0xbdd1b24d	-0.10239086
5	0xbc987ba6	-0.018613648
6	0x3d8b2140	0.06793451
7	0x3da0e6a8	0.07856494
8	0xbdde9ca5	-0.10869721
9	0x3e553709	0.20821775
10	0x3d8792b0	0.06619775
11	0x3e853623	0.26017866
12	0x3e251fd3	0.16125421
13	0x3e12e0bf	0.14343546
14	0x3c8b0c88	0.016973749
15	0xbc4e32c3	-0.012585345
16	0xbd1467f4	-0.03623195
17	0x3d97a769	0.07404978
18	0x3e32395c	0.17404693
19	0xbd3b1997	-0.0456787
20	0x3d570489	0.05249456
21	0xbde3027c	-0.11084458
22	0xbe2c3363	-0.16816477
23	0x3d615ec8	0.05502203
24	0x3cca3c1c	0.024686866
25	0xbda67d0c	-0.081293195
26	0x3d9425fb	0.07233807
27	0x3e30f356	0.17280325
28	0x3cbbbfea	0.02291866
29	0xbe2a1567	-0.16609727
30	0xbc748341	-0.0149238715
31	0xbc544fd3	-0.012958485
32	0xbd96d94f	-0.07365667
33	0xbd2b8e4a	-0.041883744
34	0x3e01e080	0.12683296
35	0x3ce46679	0.027880894
36	0xbd2be425	-0.041965622
37	0xbe10bf41	-0.14135458
38	0xbd98ed3e	-0.07467125
39	0x3d0d204f	0.03445464
40	0x3e5ea042	0.21740821
41	0x3da708f3	0.08156004
42	0xbe6e3f8f	-0.23266433
43	0x3e4b2595	0.19838555
44	0x3e9e805a	0.309573
45	0x3e41d0f0	0.1892736
46	0xbe6f5c02	-0.23374942
47	0xbda23ba1	-0.079215296
48	0x3d2b41e8	0.0418109
49	0xbdf237d7	-0.11827057
50	0x3d365f39	0.044524405
51	0x3cedc13a	0.029022802
52	0x3d0e07f4	0.034675553
53	0xbbf2680e	-0.007397658
54	0x3d26fa08	0.040765792
55	0xbd26c5a0	-0.040715814
56	0xbcecb195	-0.028893271
57	0xbd9e1a42	-0.07719852
58	0xbd34966b	-0.044088762
59	0xbdd1115b	-0.102083884
60	0x3e1ecb56	0.15507254
61	0xbe150958	-0.14554346
62	0xbda1ff2c	-0.07909998
63	0x3dd00f11	0.10159124
64	0xbc8cf0bd	-0.017204637
65	0x3db8384a	0.08995111
66	0xbd941bc2	-0.07231857
67	0x3dcd383e	0.10020493
68	0xbe968ca9	-0.2940419
69	0x3e0e7430	0.1391151
70	0xbcdb2a23	-0.02675349
71	0x3d849ef3	0.0647563
72	0x3b6e7880	0.0036387742
73	0x3d16a43a	0.036777712
74	0x3d7a7d06	0.061154388
75	0x3c7efdbe	0.015563427
76	0xbe6949c4	-0.22782046
77	0xbdcfb3ad	-0.10141692
78	0x3d202498	0.0390974
79	0xbd23caab	-0.0399882
80	0xbd5e62eb	-0.054293554
81	0x3d05fd6e	0.032712393
82	0xbd180a49	-0.037119184
83	0x3d2f7cda	0.042843677
84	0x3e4abe10	0.19799066
85	0xbd45f8bd	-0.04833292
86	0xbe11b668	-0.14229739
87	0xbd46dbdc	-0.048549518
88	0xbbb38737	-0.0054787653
89	0x3d797518	0.060902685
90	0xbc95ba67	-0.01827736
91	0xbdbb1a17	-0.091358356
92	0x3df4eadd	0.11958859
93	0x3d76a0d7	0.060211983
94	0x3d5fff5d	0.054686893
95	0xbb66fcb8	-0.0035245847
96	0xbe0037b3	-0.12521248
97	0x3db2658a	0.08710773
98	0xbe076604	-0.1322251
99	0xbdc69a51	-0.09697402
100	0xbd3c19bc	-0.04592298
101	0x3dd40557	0.10352581
102	0x3da5cd7a	0.08095832
103	0x3d84762c	0.06467852
104	0x3d77f733	0.060538482
105	0x3e89f769	0.2694657
106	0x3dc4046a	0.095711544
107	0x3e8efd6a	0.27927715
108	0x3d63b4dc	0.055592403
109	0xbd8014d1	-0.062539704
110	0x3d19955b	0.037495952
111	0x3de2fe0a	0.1108361
112	0xbd920c0a	-0.071312025
113	0x3deedc27	0.116630845
114	0xbd1ac1c3	-0.03778244
115	0x3ce1ee20	0.027579367
116	0x3d1a0559	0.037602756
117	0xbcfee132	-0.03111324
118	0xbd99e136	-0.07513659
119	0x3ccd9474	0.025095202
120	0x3db11390	0.086463094
121	0x3dfd420a	0.123661116
122	0xbe56cd5b	-0.20976774
123	0xbd890610	-0.066906095
124	0x3e926e7f	0.28599927
125	0xbd8ecbd2	-0.069724694
126	0xbd822edd	-0.06356595
127	0xbda530aa	-0.080659226
128	0x3de6d7af	0.11271607
129	0xbe00e1fe	-0.12586209
130	0x3ce13a39	0.027493583
131	0x3c5fecc9	0.013667294
132	0x3e29a195	0.16565545
133	0x3c873f9b	0.016509822
134	0x3dee2838	0.11628765
135	0x3de0c09a	0.10974236
136	0x3c0d30c2	0.008617582
137	0x3de1486d	0.11000142
138	0xbe1dc06e	-0.15405437
139	0xbb188e1e	-0.0023278068
140	0x3db86ec8	0.09005505
141	0x3b808045	0.003921541
142	0x3ca50ecc	0.020148657
143	0x3ddcb1b8	0.10776085
144	0x3d8ec026	0.06970243
145	0x3ddb4d58	0.107081115
146	0x3df8fa1f	0.12157082
147	0xbd2e7a77	-0.04259726
148	0xbde7d148	-0.11319214
149	0xbda0d58c	-0.07853231
150	0x3d59e0ac	0.05319278
151	0x3dbe276e	0.09284864
152	0xbe30a53b	-0.1725053
153	0x3d151cda	0.036404468
154	0x3d88fdf1	0.066890605
155	0x3e125e14	0.142937
156	0xbdfa871b	-0.122328006
157	0xbc014e01	-0.007892133
158	0xbdd79e39	-0.105282255
159	0x3db58af1	0.088643916
160	0xbdf214b7	-0.11820357
161	0xbc8e4a25	-0.01736934
162	0x3dc0f14a	0.09421022
163	0xbc02b569	-0.007977822
164	0x3db23cd8	0.08703011
165	0xbc98893c	-0.018620126
166	0x3cee29e9	0.029072719
167	0xbda62065	-0.081116475
168	0x3d67c709	0.0565863
169	0xbd4dbd88	-0.05022958
170	0xbd88094a	-0.06642397
171	0x3d586582	0.05283118
172	0x3e9308a7	0.2871754
173	0x3c9259d4	0.017865099
174	0xbb2e4bab	-0.0026595395
175	0xbd1b3d64	-0.037900344
176	0xbe56fe58	-0.20995462
177	0x3dd45897	0.1036846
178	0x3dad6922	0.08467318
179	0xbe17cef6	-0.14825043
180	0x3cb08315	0.02154688
181	0xbd2e6d3c	-0.042584643
182	0x3e2812b3	0.16413383
183	0xbd027950	-0.031853974
184	0xbc3b1f1c	-0.011420991
185	0x3cd93821	0.026516022
186	0x3e0eb1eb	0.13935058
187	0xbdc76051	-0.09735168
188	0x3def607a	0.11688323
189	0x3d828eda	0.06374903
190	0xbd3c8ad9	-0.046030853
191	0xbe155559	-0.14583339
192	0xbdc2e177	-0.0951566
193	0xbd5f4e47	-0.05451801
194	0x3c426311	0.01186444
195	0xbdd135d1	-0.10215343
196	0xbe1ab8d8	-0.15109575
197	0x3d9941bf	0.07483243
198	0x3b3cd803	0.0028815276
199	0x3db08ef6	0.08621018
200	0x3d833712	0.06406988
201	0xbdc68a23	-0.09694316
202	0x3e1021f8	0.14075458
203	0x3d2cc433	0.042179298
204	0xbdcfe212	-0.10150541
205	0xbdb1d14b	-0.086824976
206	0x3e153ffe	0.14575192
207	0xbc936b25	-0.017995426
208	0x3a04cb36	0.0005065681
209	0xbd1169a7	-0.03550115
210	0x3df4ea2f	0.119587295
211	0xbce3916f	-0.02777931
212	0xbcfe3653	-0.031031763
213	0x3b0a88a5	0.0021138575
214	0x3c6766b9	0.014123612
215	0x3ddbdc24	0.10735348
216	0x3da89273	0.08231058
217	0x3c3f756b	0.0116857095
218	0x3d683790	0.056693614
219	0x3d5ad294	0.05342348
220	0x3d0284f4	0.031865075
221	0x3d4f3997	0.05059203
222	0x3e09d0ee	0.13458607
223	0xbcecb0e1	-0.028892936
224	0x3d270513	0.040776324
225	0x3bf2ad1d	0.0074058906
226	0x3d741636	0.059591495
227	0x3cc5d44a	0.024149079
228	0x3e2ac0d7	0.16675125
229	0xbd1e7249	-0.03868321
230	0x3e52c21f	0.20581864
231	0xbd17ae04	-0.03703119
232	0x3d2f4957	0.04279455
233	0x3d4bb3dd	0.049732078
234	0xbdea3596	-0.11436002
235	0x3e0a89ec	0.13529176
236	0x3ddb6d08	0.107141554
237	0xbc8f648f	-0.017504005
238	0xbda270b3	-0.07931652
239	0x3dba0c21	0.09084345
240	0x3d258275	0.040407617
241	0xbdbb9356	-0.091589615
242	0xbe626c66	-0.22111663
243	0x3e05d931	0.13071133
244	0x3d285d8a	0.04110483
245	0x3dcdcf38	0.100492895
246	0x3d264d13	0.040600847
247	0xbd994187	-0.074832015
248	0xbd582bbd	-0.052776087
249	0xbda86966	-0.08223228
250	0xbc7aef25	-0.015315806
251	0xbe13ad18	-0.14421499
252	0xbc585e9d	-0.013206151
253	0x3e3a5487	0.18196307
254	0xbd686b60	-0.056743026
255	0xbb912105	-0.004428985

reorder_token_134 f4 [8, 3, 1, 1]
0	0xbfab37ad	-1.3376366
1	0x00000000	0.0
2	0x00000000	0.0
3	0x00000000	0.0
4	0x00000000	0.0
5	0x00000000	0.0
6	0x00000000	0.0
7	0x00000000	0.0
8	0x3f7e9431	0.9944487
9	0x00000000	0.0
10	0x00000000	0.0
11	0x00000000	0.0
12	0x00000000	0.0
13	0x00000000	0.0
14	0x00000000	0.0
15	0x00000000	0.0
16	0xbf31b363	-0.6941435
17	0x00000000	0.0
18	0x00000000	0.0
19	0x00000000	0.0
20	0x00000000	0.0
21	0x00000000	0.0
22	0x00000000	0.0
23	0x00000000	0.0

ian_model.model_ianet.in_conv.1.conv.5.running_mean f4 [12]
0	0xbe583409	-0.211136
1	0x3f1fdb51	0.62444025
2	0x3ed5e591	0.41776708
3	0xbd28f57c	-0.041249737
4	0x3f4a7447	0.79083675
5	0xbe66f155	-0.22552998
6	0x3fa3250d	1.2745682
7	0x3e668a0d	0.225136
8	0x3e6fabb3	0.23405342
9	0x3fc4b403	1.5367435
10	0x3d6680e2	0.056275256
11	0xbe88a4ca	-0.26688224

ian_model.model_ianet.in_conv.1.conv.5.running_var f4 [12]
0	0x3f8c2ed8	1.0951796
1	0x408542c1	4.1643987
2	0x3f5603f7	0.835998
3	0x3d7a7ac9	0.061152253
4	0x40a6009a	5.1875734
5	0x3d9ec8e1	0.07753158
6	0x402e0d73	2.7195709
7	0x3e4f6627	0.20253812
8	0x3e18fba4	0.14939743
9	0x41064fcc	8.394482
10	0x3dc90b5d	0.098166205
11	0x3f8e81a8	1.1133318

ian_model.model_ianet.in_conv.1.conv.5.weight f4 [12]
0	0x3f6df67c	0.9295423
1	0x3f642c92	0.8913051
2	0x3f91b57a	1.1383507
3	0x3f887df9	1.0663444
4	0x3f885430	1.0650692
5	0x3f68f0c0	0.90992355
6	0x3f7bb7cb	0.9832732
7	0x3f8294df	1.0201682
8	0x3f9c7508	1.2223215
9	0x3f842842	1.0324786
10	0x3f8d638c	1.1046004
11	0x3f85b60e	1.0446184

ian_model.model_ianet.in_conv.1.conv.5.bias f4 [12]
0	0xbdad8285	-0.0847216
1	0xbe95e401	-0.29275516
2	0x3d29cf78	0.041457623
3	0x3e3e44ba	0.18580905
4	0xbd5f6ff8	-0.05455014
5	0xbec6c869	-0.38824776
6	0x3eaa554a	0.33268195
7	0x3e49b28c	0.19697016
8	0x3d9bff06	0.07617001
9	0x3d931a3d	0.07182739
10	0xbdf5541f	-0.119789355
11	0xbe82d40b	-0.255524

ian_model.model_ianet.down1.0.conv.3.weight f4 [6, 1, 3, 3]
0	0xbf85c703	-1.0451359
1	0xbd2606f5	-0.04053398
2	0xbe873369	-0.2640641
3	0x3f75e999	0.96059567
4	0xbcff0cd9	-0.031134056
5	0x3d51bab0	0.05120343
6	0xbe8286f5	-0.2549359
7	0xbe8e0010	-0.27734423
8	0xbeba6f3f	-0.36413
9	0x3d217c88	0.039425403
10	0x3f0f7582	0.5603868
11	0x3ec6433b	0.38723168
12	0x3efa2e54	0.4886347
13	0xbe935c09	-0.28781155
14	0x3d2fe8ec	0.04294674
15	0x3f649a45	0.89297897
16	0x3ee8e505	0.45487228
17	0xbdf093de	-0.117469534
18	0x3f2dc4bc	0.6787832
19	0x3f101e6d	0.56296426
20	0xbebca673	-0.3684574
21	0x3e57efe3	0.21087603
22	0xbf0561f1	-0.5210257
23	0x3c2f140b	0.010685931
24	0xbf0fbe38	-0.56149626
25	0x3e679bf7	0.2261809
26	0xbd632622	-0.05545629
27	0xbe12fa40	-0.14353275
28	0xbeb4fdad	-0.3534979
29	0xbe2dfd02	-0.16991046
30	0x3ec7ba77	0.3900945
31	0xbcd8cce8	-0.026464894
32	0x3ed52568	0.416301
33	0x3ed6fa85	0.41988006
34	0x3fc2f457	1.5230817
35	0xbeb10a38	-0.3457811
36	0xbdc5b3e1	-0.0965345
37	0xbebb43da	-0.36575204
38	0xbe9358f4	-0.28778803
39	0x3f04bd0e	0.51850975
40	0x3e2f9e51	0.17150237
41	0x3efc5f26	0.49291342
42	0x3efe9adf	0.49727532
43	0x3f0a0aa4	0.53922486
44	0x3f6bf675	0.9217294
45	0xbeaaef05	-0.33385482
46	0x3eee0c04	0.46493542
47	0x3eb81bb3	0.35958633
48	0xbe421355	-0.18952687
49	0x3f2afbf4	0.667907
50	0xbf4f4c9c	-0.8097627
51	0xbf76f2f2	-0.96464455
52	0x3e870a01	0.2637482
53	0xbeb6d88d	-0.3571209

ian_model.model_ianet.down1.0.conv.5.running_mean f4 [6]
0	0x3c0741c1	0.008255423
1	0x4035dd64	2.8416376
2	0x3e9fb9fb	0.3119658
3	0x3f8feba4	1.1243787
4	0x3fdef8b2	1.7419646
5	0x3df220b5	0.118226446

ian_model.model_ianet.down1.0.conv.5.running_var f4 [6]
0	0x3efd6d24	0.4949733
1	0x41446446	12.274481
2	0x3ec235dc	0.37931716
3	0x40aaa21d	5.332289
4	0x40cd262f	6.410911
5	0x3eba2c38	0.3636186

ian_model.model_ianet.down1.0.conv.5.weight f4 [6]
0	0x3f875141	1.0571672
1	0x3f89fc2c	1.0780082
2	0x3f7cdb9a	0.98772585
3	0x3f801ac4	1.0008168
4	0x3f931801	1.14917
5	0x3f71c1b5	0.944362

ian_model.model_ianet.down1.0.conv.5.bias f4 [6]
0	0x3e592e9d	0.21209188
1	0xbe6fa647	-0.23403274
2	0x3d2801f4	0.041017488
3	0x3d803b5d	0.06261323
4	0xbd116996	-0.035501085
5	0xbbd530c7	-0.006506059

reorder_token_98 f4 [96, 1, 3, 3]
0	0x3e4bf719	0.19918479
1	0xbe0a8e34	-0.13530809
2	0xbec0869e	-0.37602705
3	0xbf7f4ce0	-0.99726677
4	0xbe9bfcd0	-0.30466318
5	0xbf0ba98c	-0.54555583
6	0x3f04ec90	0.51923466
7	0xbf39015f	-0.7226772
8	0x3f01c055	0.506841
9	0x3e7fd7a5	0.24984606
10	0x3e57f5d7	0.21089874
11	0x3dfe3dc0	0.12414122
12	0xbd50a6d4	-0.05094035
13	0xbf426bd8	-0.75945807
14	0x3ebbc78e	0.36675686
15	0x3ec4aade	0.3841161
16	0x3e7112a3	0.23542266
17	0xbe861efc	-0.26195514
18	0xbf761fac	-0.9614208
19	0x3e8b09bc	0.27155864
20	0xbf47e76e	-0.7808751
21	0xbf3f8aaa	-0.7482096
22	0x3f432814	0.7623303
23	0x3eb64b17	0.35604164
24	0xbf6dd355	-0.9290059
25	0x3f6043d7	0.87603515
26	0x3e41a158	0.18909204
27	0xbe96338d	-0.29336205
28	0xbf162ea9	-0.5866495
29	0xbef14259	-0.47120932
30	0x3f16b8f8	0.5887599
31	0xbeae6940	-0.34064674
32	0x3e9a7006	0.30163592
33	0x3e7ebaca	0.24875942
34	0xbe5b87c4	-0.21438509
35	0xbe4cd624	-0.20003563
36	0xbf8930fa	-1.0718071
37	0xbec7599d	-0.38935557
38	0x3eddaeff	0.43297574
39	0x3de9a994	0.114092976
40	0xbf17fccc	-0.5937011
41	0xbe6ef76f	-0.23336576
42	0x3edb83df	0.42874047
43	0x3e5c5afe	0.21519086
44	0xbf118471	-0.56842715
45	0xbf441bae	-0.76604736
46	0x3f4bf198	0.7966552
47	0x3ebe24df	0.37137505
48	0xbf9eace4	-1.2396512
49	0x3f752453	0.9575855
50	0xbf4fc9ca	-0.8116728
51	0xbfbaf924	-1.4607282
52	0x3da20c86	0.07912545
53	0xbf61bab3	-0.88175505
54	0x3e3e16ef	0.18563436
55	0xbf239862	-0.6390439
56	0x3e303d93	0.17210989
57	0x3f18a458	0.5962577
58	0x3f389a66	0.72110593
59	0xbf5e4279	-0.8682018
60	0xbec8c246	-0.3921072
61	0xbf6c86ba	-0.92393076
62	0x3e50d0af	0.20392106
63	0x3da35dde	0.07976888
64	0x3d538f4e	0.051650338
65	0x3f6a5f2e	0.9155148
66	0xbf6568e8	-0.896132
67	0xbee4cb57	-0.44686386
68	0xbeb9dedf	-0.3630285
69	0xbef51570	-0.47867918
70	0x3edc72f2	0.43056446
71	0xbb550a18	-0.0032507237
72	0x3f16a318	0.5884261
73	0x3efb2ca9	0.4905751
74	0x3f755cd5	0.95844775
75	0x3f158a06	0.5841373
76	0xbf9d47ae	-1.22875
77	0xbe200bd3	-0.1562951
78	0x3ea41ae0	0.32051754
79	0xbf408a2d	-0.7521084
80	0x3f03bf48	0.5146375
81	0x3eb3293f	0.34992406
82	0x3f0e93a2	0.5569402
83	0x3e3876c3	0.18014054
84	0x3d775786	0.060386203
85	0xbe18b3f5	-0.14912398
86	0x3ed1676c	0.40899217
87	0x3eb05d6e	0.3444628
88	0x3ed0123a	0.40638906
89	0x3f1e58fc	0.6185453
90	0xbe72b227	-0.23700772
91	0x3f77a2f7	0.9673304
92	0xbef02d4f	-0.46909568
93	0xbf160077	-0.5859446
94	0x3ef05dc6	0.46946543
95	0xbf36115b	-0.7112023
96	0x3f3504eb	0.7071063
97	0xbe1b60a7	-0.15173589
98	0x3ea56698	0.32304835
99	0x3eb2c96f	0.34919307
100	0xbddd8533	-0.10816421
101	0xbf65a508	-0.8970494
102	0x3e2449e2	0.16043809
103	0xbe1190c7	-0.14215384
104	0xbc385e8d	-0.011253011
105	0xbf4ba68a	-0.79550993
106	0xbf049153	-0.5178425
107	0x3f0acbc0	0.5421715
108	0x3d4ebf51	0.050475422
109	0x3f234b36	0.6378664
110	0x3e89af3c	0.26891506
111	0x3e009a54	0.12558872
112	0x3eae4765	0.34038845
113	0x3e51ceef	0.20489095
114	0x3f1600ff	0.5859527
115	0x3f18456b	0.59480923
116	0xbe1c8f4e	-0.15289041
117	0xbe252fbb	-0.16131489
118	0xbe2419ed	-0.16025515
119	0xbe77aaa2	-0.24186185
120	0xbf3a2ca1	-0.7272435
121	0x3f72870d	0.9473732
122	0x3e0f17bf	0.13973902
123	0x3e8e6fa3	0.27819547
124	0xbf288a2a	-0.6583582
125	0xbf00d762	-0.5032865
126	0x3f1738bd	0.5907095
127	0xbf391011	-0.7229014
128	0x3e883fc0	0.26611137
129	0x3d2eacc6	0.04264524
130	0xbf04890d	-0.5177162
131	0x3ece7c17	0.40329048
132	0xbeeb6454	-0.45974982
133	0x3d45b16e	0.048264913
134	0x3f0faa62	0.5611936
135	0xbdb077c3	-0.08616593
136	0xbdd6eb5d	-0.10494111
137	0xbc9bb92a	-0.019009192
138	0xbf8742f1	-1.0567304
139	0x3ec54059	0.38525656
140	0xbedb9527	-0.42887232
141	0xbf4439d1	-0.7665072
142	0xbc912a77	-0.017720444
143	0xbeb65451	-0.35611203
144	0xbf81cf3b	-1.0141367
145	0xbec874ed	-0.39151707
146	0x3e35d4bf	0.17756937
147	0xbe95a478	-0.29227042
148	0x3f1be544	0.60896707
149	0x3b8aacc8	0.004232023
150	0xbd940eed	-0.07229409
151	0x3e5d04fa	0.2158393
152	0x3ec2883f	0.37994573
153	0x3f0096e5	0.50230247
154	0x3e9e084c	0.30865705
155	0x3e91ec42	0.28500563
156	0x3f0bc485	0.5459674
157	0xbf23e665	-0.6402343
158	0xbee9d095	-0.45666948
159	0xbdd2c997	-0.102923565
160	0x3ec5542d	0.38540784
161	0xbe51603f	-0.20446871
162	0x3eaf2c70	0.3421359
163	0xbf343dc7	-0.70406765
164	0x3eadf694	0.33977187
165	0xbf81fe19	-1.015567
166	0xbf8a8ee5	-1.0824858
167	0x3f2b4b22	0.6691152
168	0xbed5afa6	-0.41735572
169	0x3e7303a2	0.23731855
170	0x3ede74f1	0.43448594
171	0x3e4d0b5e	0.20023867
172	0x3eb7a153	0.35865268
173	0x3e4bd737	0.19906317
174	0xbf20005c	-0.6250055
175	0x3e5eb7b2	0.21749762
176	0x3f457d25	0.7714408
177	0x3f3f1509	0.7464147
178	0x3e951dc9	0.29124287
179	0x3f22ffcd	0.6367157
180	0x3ee39027	0.44445917
181	0x3f146f7e	0.57982624
182	0xbc99ec41	-0.018789412
183	0x3f5c5560	0.8606777
184	0x3f1a23e3	0.6021101
185	0x3ed40347	0.4140875
186	0x3f04c987	0.51870006
187	0x3cfda3eb	0.030961951
188	0x3e9cb91b	0.30609974
189	0x3cb48c73	0.022039628
190	0xbe95e75d	-0.2927808
191	0x3f4bd99e	0.7962893
192	0xbe21e24f	-0.15808986
193	0xbf47f13b	-0.78102463
194	0xbd5f6159	-0.054536197
195	0x3e946f5e	0.28991216
196	0xbebc41f4	-0.36769068
197	0xbd6380d9	-0.0555428
198	0x3f273b69	0.6532503
199	0x3f3c3983	0.73525256
200	0x3f8e4d56	1.1117351
201	0x3eaf8708	0.34282708
202	0x3e19ac10	0.15007043
203	0x3ed4b5b6	0.41544884
204	0x3c684a70	0.0141779035
205	0x3f042ce0	0.51630974
206	0x3f0ef174	0.5583718
207	0x3f0bfc5c	0.54681945
208	0x3fc2500d	1.518068
209	0xbe2b7678	-0.16744411
210	0x3dabc07b	0.08386322
211	0x3e9641a0	0.29346943
212	0xbd8165eb	-0.063182674
213	0x3e884e4d	0.2662224
214	0x3ed37630	0.41301107
215	0x3f79ed53	0.97627753
216	0xbf0bc9d9	-0.5460487
217	0x3e00fc7a	0.12596312
218	0xbf615240	-0.8801613
219	0xbf202d8f	-0.62569517
220	0x3dd1e453	0.102486275
221	0x3ea973d5	0.33096185
222	0x3deb58ec	0.1149157
223	0x3f762936	0.9615663
224	0xbed2c228	-0.41163754
225	0xbf1c29b7	-0.6100115
226	0xbf3ecb56	-0.74529016
227	0xbf03a993	-0.51430625
228	0xbf2fcf61	-0.6867581
229	0x3e9e4eb2	0.30919415
230	0x3f01032f	0.5039548
231	0xbe214d48	-0.15752137
232	0xbdf70261	-0.120610006
233	0xbf43bce3	-0.76460093
234	0xbf169757	-0.58824676
235	0x3de82766	0.1133564
236	0x3f66268d	0.89902574
237	0x3e82de0d	0.25560036
238	0x3f268d67	0.6505951
239	0xbe8af6d0	-0.27141428
240	0xbec5dace	-0.38643497
241	0xbe890d24	-0.26767838
242	0xbd0a6a14	-0.03379257
243	0xbe4ee4b5	-0.20204432
244	0xbd37a075	-0.044830758
245	0x3ea2e3ba	0.31814367
246	0x3eeff0de	0.46863455
247	0x3f17d32c	0.593066
248	0xbed87f8c	-0.4228481
249	0x3d040b63	0.03223742
250	0x3f1a5b6d	0.60295755
251	0xbf0e4835	-0.5557893
252	0xbf1eb0a0	-0.6198826
253	0x3e2a9d35	0.16661532
254	0x3ee8f20d	0.4549717
255	0xbe49ab90	-0.19694352

ian_model.model_ianet.down1.1.conv.5.running_mean f4 [12]
0	0xbe6f65e6	-0.23378715
1	0x3efd4e40	0.49473763
2	0xbe182e6c	-0.14861459
3	0xbec23d33	-0.37937316
4	0x3f6f7eca	0.9355284
5	0xbff4e428	-1.9132128
6	0xbf79f8a5	-0.97645026
7	0xbea8d374	-0.32973826
8	0x3fe737b1	1.8063871
9	0x3f90e683	1.1320347
10	0x3fec78dd	1.8474385
11	0xbf9c1eb5	-1.2196871

ian_model.model_ianet.down1.1.conv.5.running_var f4 [12]
0	0x3f99adbf	1.2006148
1	0x4046e528	3.1077366
2	0x3f3e3445	0.74298507
3	0x3f12cb37	0.5734133
4	0x3f1ad434	0.60480046
5	0x3fc6b0aa	1.5522664
6	0x40f0e111	7.527474
7	0x404f95ee	3.243526
8	0x409d92bf	4.9241633
9	0x405c6e29	3.4442236
10	0x4036260a	2.8460717
11	0x3fb3855a	1.4025071

ian_model.model_ianet.down1.1.conv.5.weight f4 [12]
0	0x3f82cc9e	1.0218694
1	0x3f76f491	0.9646693
2	0x3f60c6cc	0.8780334
3	0x3f7d0ef5	0.9885095
4	0x3f6ff3e7	0.9373154
5	0x3f8b4b11	1.0882283
6	0x3f7b37b8	0.98131895
7	0x3f6ff68b	0.9373557
8	0x3f96aa92	1.1770804
9	0x3f92e680	1.1476593
10	0x3f5706c3	0.8399469
11	0x3f88e26f	1.0694102

ian_model.model_ianet.down1.1.conv.5.bias f4 [12]
0	0x3da17e22	0.07885386
1	0xbf01d449	-0.50714546
2	0x3e3804d0	0.17970586
3	0x3f22fe07	0.63668865
4	0x3a8834c8	0.0010391707
5	0x3e1be97a	0.15225783
6	0x3df31849	0.118698664
7	0xbe53d05d	-0.20684953
8	0x3f1efab3	0.62101287
9	0x3e141152	0.14459732
10	0x3d640180	0.055665493
11	0xbec9cc60	-0.39413738

reorder_token_223 f4 [48, 48, 1, 1]
0	0xbe2a716c	-0.1664483
1	0x3e0935e6	0.13399467
2	0x3d050a55	0.032480557
3	0x3d6490a7	0.055802014
4	0xbafd4077	-0.001932158
5	0xbe1c840d	-0.15284748
6	0x3a49b017	0.0007693781
7	0x3dc40bf5	0.09572593
8	0x3d25a6c2	0.040442236
9	0xbc58e9c1	-0.013239325
10	0x3dad2b13	0.084554814
11	0xbd0ed6c7	-0.034872796
12	0xbc31767f	-0.010831474
13	0xbc09b276	-0.008404365
14	0x3b550954	0.003250678
15	0xbba2b0c6	-0.0049649207
16	0x3d6d47c4	0.05792977
17	0x3d1dfc85	0.0385709
18	0x3cd0691b	0.025440743
19	0x3c2424e2	0.010018559
20	0x3b9086e7	0.004410613
21	0x3de8c538	0.113657415
22	0x3b840bf0	0.0040297434
23	0xbc8b1aa1	-0.016980471
24	0xbcd15df1	-0.02555749
25	0xbc7e60c7	-0.015526003
26	0x3c54ef00	0.012996435
27	0x3bc6a2ad	0.006061873
28	0xba4c47b4	-0.0007792667
29	0x3d55b521	0.05217469
30	0x3a9f1d61	0.0012139493
31	0x3d77d9d6	0.06051048
32	0x3c353f09	0.011062392
33	0xbd507922	-0.05089677
34	0xbc4268aa	-0.011865774
35	0x3d401f45	0.04690482
36	0x3c9e93be	0.019357558
37	0xbcebb23b	-0.02877151
38	0x3bd1a492	0.006397792
39	0x3e545b47	0.20737945
40	0x3bb7c478	0.0056081377
41	0x3c860627	0.016360356
42	0xbcc96977	-0.024586422
43	0x3d3a131d	0.045428384
44	0xbc44a39f	-0.012001901
45	0x3dd07b41	0.10179759
46	0xbb95163f	-0.004549771
47	0x3d87e806	0.06636052
48	0x3a80b9f5	0.0009821045
49	0xbd2f8bc9	-0.04285792
50	0x3c90c2a6	0.01767094
51	0x3d34eee3	0.044173133
52	0x3ba6666f	0.005078129
53	0xba20cf5a	-0.00061344134
54	0x3bbd10e4	0.005769836
55	0x3d383e83	0.04498149
56	0x3d4ef238	0.050523967
57	0xbc6b4fd8	-0.014362298
58	0xbdaa39d3	-0.0831181
59	0xbdf9f007	-0.12203985
60	0xba897e59	-0.0010489925
61	0xbd127329	-0.035754357
62	0x3ba370b6	0.0049878014
63	0x3dc252d1	0.09488452
64	0xbd4042b6	-0.04693862
65	0x3c4ba32d	0.012429041
66	0x3d7a9a00	0.061182022
67	0xbe0bb867	-0.13644563
68	0x3ba25819	0.0049543497
69	0x3d72c6e0	0.059271693
70	0x3b7d95ee	0.0038694101
71	0xbe33e755	-0.17568715
72	0xbda99237	-0.082798414
73	0xbd05a4d4	-0.032627895
74	0xbcac8611	-0.021060022
75	0x3d3ac54f	0.045598324
76	0xbac20865	-0.0014803527
77	0x3d4aeca6	0.04954209
78	0xba20f68c	-0.0006140254
79	0x3d0155cf	0.031575974
80	0x3d0eb665	0.034841914
81	0x3d174bb8	0.036937445
82	0x3cc3263f	0.023821948
83	0xbdc30d3a	-0.09524007
84	0xbcb8606d	-0.022506917
85	0xbdf0bf16	-0.11755197
86	0xbbc357ce	-0.005961395
87	0xbcb2da49	-0.021832602
88	0x3d0d25f4	0.034460023
89	0x3d0e5e9f	0.034758206
90	0xbe0b979e	-0.13632056
91	0x3daf06b5	0.08546201
92	0xbc51f5b8	-0.012814932
93	0xbe2809c6	-0.16409978
94	0xba929253	-0.0011182524
95	0xbdb97d2f	-0.0905708
96	0x3bb4de72	0.0055196816
97	0xbc4ae69b	-0.012384082
98	0xbca3db2c	-0.02000197
99	0xbc028a3b	-0.007967527
100	0xbc33ef20	-0.010982305
101	0xbd993d68	-0.074824154
102	0xbae4189b	-0.0017402353
103	0x3b046d44	0.002020673
104	0x3d1f4be7	0.038890745
105	0x3d27c2fe	0.040957443
106	0x3d8a169f	0.06742596
107	0x3d4b89cb	0.049691956
108	0xbc69ad12	-0.014262455
109	0xbd9c3d8b	-0.07628926
110	0xbba755db	-0.0051066703
111	0x3e876a61	0.26448348
112	0xbcabd282	-0.020974401
113	0xbc84cb01	-0.016210081
114	0xbdd5eca5	-0.10445527
115	0x3cdf0683	0.027224785
116	0xbb9ac87a	-0.0047236057
117	0xbc8104e0	-0.015749395
118	0xbb7fd24a	-0.0039035254
119	0x3e427c81	0.18992807
120	0x3c4a4f34	0.012347985
121	0x3bbc97e5	0.005755412
122	0x3e21451a	0.15749016
123	0x3d02f473	0.031971406
124	0xbbc49094	-0.0059986804
125	0x3d4cd64f	0.050009068
126	0xbb059cdb	-0.0020387683
127	0x3dad386f	0.084580295
128	0x3dbeab67	0.09310036
129	0xbb6dc3bd	-0.003628
130	0x3de4bca1	0.111687906
131	0xbc480704	-0.012208704
132	0xbc4402ac	-0.011963528
133	0x3d8b6679	0.068066545
134	0x3a8dd766	0.001082164
135	0xbe80b483	-0.2513772
136	0x3c8b1af2	0.016980622
137	0xbd99c9fa	-0.07509227
138	0x3bb564f2	0.0055357153
139	0xbdeb2e4d	-0.114834405
140	0xbb7dd585	-0.0038732004
141	0xbd357191	-0.04429776
142	0x3a119657	0.00055537134
143	0x3d379b24	0.044825688
144	0x3de76ee4	0.113004476
145	0xbd4139e9	-0.047174368
146	0xbe0a09db	-0.13480322
147	0xbe5ff09b	-0.21869127
148	0x3bb0eb00	0.005399108
149	0xbd8d6ea7	-0.06905871
150	0x3b386137	0.0028134116
151	0x3d35a3d2	0.044345684
152	0xbc923d5d	-0.017851526
153	0x3c9cffa2	0.019164864
154	0x3d48e6ca	0.049048223
155	0xbda7b4bb	-0.081887685
156	0xba9137c9	-0.0011079247
157	0xbd27de93	-0.040983748
158	0x3987d533	0.00025908052
159	0x3db87c80	0.090081215
160	0x3d74e821	0.059791688
161	0x3d16fcd9	0.036862228
162	0x3e10986f	0.14120649
163	0x3c0f75f6	0.008756151
164	0xbc1500a5	-0.009094392
165	0x3ca18c64	0.019720264
166	0x3a934b9e	0.0011237746
167	0x3d9f47b5	0.07777349
168	0x3cfcfbd0	0.030881792
169	0xbd3893ba	-0.045062758
170	0xbdcf1b3d	-0.10112617
171	0xbe015c4d	-0.12632866
172	0x3b250f66	0.002518618
173	0xbe00fae7	-0.12595712
174	0xbc1ca852	-0.009561615
175	0x3a875420	0.0010324754
176	0xbde1c31f	-0.110235445
177	0x3d1092b2	0.03529615
178	0x3c3fe37f	0.011711954
179	0xbd9c9a73	-0.07646646
180	0xbc088f8a	-0.008335004
181	0x3e143561	0.14473487
182	0xbb03f933	-0.0020137548
183	0xbe1fc6c2	-0.15603164
184	0xbcb0aaef	-0.021565882
185	0x3cc3d1eb	0.023903808
186	0x3bad91d6	0.005296926
187	0xbd5057a6	-0.050864838
188	0x3a392179	0.0007062178
189	0xbbc3ad87	-0.005971614
190	0xbbeae072	-0.0071678692
191	0x3d8f70a3	0.070039056
192	0xbda1f2e2	-0.07907654
193	0xbd2e7c69	-0.042599116
194	0xbdbd25f1	-0.092357524
195	0xbc12d63e	-0.008962212
196	0xbc982a75	-0.018574933
197	0x3c51514b	0.012775729
198	0xbba6fb8c	-0.0050959047
199	0xbbbab5fd	-0.005697964
200	0xba03e893	-0.00050319097
201	0x3cf90d04	0.030401714
202	0xbdc84b3c	-0.09779975
203	0x3d76df0c	0.060271308
204	0xbc1f8746	-0.009736842
205	0xbd6367bb	-0.055518847
206	0x3ba63bc8	0.0050730444
207	0x3d83029a	0.063969806
208	0x3c1a4922	0.00941685
209	0xbb2c4782	-0.002628774
210	0x3c732ea8	0.014842667
211	0x3d0dc2b2	0.034609504
212	0x3a9941d1	0.0011692588
213	0xbd1e88cb	-0.038704675
214	0x3b45a0f7	0.0030155757
215	0xbe09c99e	-0.13455817
216	0xbcffe4a7	-0.03123696
217	0xbde1fc97	-0.11034506
218	0x3d21cf68	0.03950444
219	0xbe0c2c78	-0.13688838
220	0xbc6e13f4	-0.014531124
221	0xbcc38413	-0.023866689
222	0xbb408dad	-0.002938132
223	0xbc9fe58a	-0.019518632
224	0xbc831309	-0.016000288
225	0x3bec389e	0.0072088977
226	0x3da90a5e	0.082539305
227	0x3d8185a4	0.06324318
228	0x3bf6d551	0.0075327535
229	0xbda37a1e	-0.079822764
230	0xba63afa0	-0.0008685533
231	0x3dd27dec	0.10277924
232	0xbaecf4f9	-0.0018078379
233	0xbcac82c3	-0.021058446
234	0x3a4ff62a	0.00079331046
235	0xbdbea959	-0.09309644
236	0x3b8e1fef	0.004337303
237	0x3d9f7576	0.07786076
238	0xbb356cc2	-0.0027683233
239	0xbe0aa63c	-0.13539976
240	0x3d166664	0.03671874
241	0xbdb8caea	-0.09023078
242	0x3cb8a662	0.022540275
243	0x3d9cc781	0.0765524
244	0xbb3c617f	-0.0028744636
245	0x3db2b025	0.08725003
246	0x3ae3ac5b	0.0017370092
247	0xbdaea128	-0.08526832
248	0xbd970232	-0.073734656
249	0xbd1154dd	-0.035481323
250	0x3d0b315f	0.03398263
251	0x3d2a3378	0.04155299
252	0xbc0d2e68	-0.008617021
253	0x3d561607	0.0522671
254	0xbb582a42	-0.0032984172
255	0xbdd4277b	-0.10359093

ian_model.model_ianet.down2.0.conv.5.running_mean f4 [12]
0	0x3ef1923d	0.47181883
1	0x3f7e6da2	0.99386036
2	0x3ea66526	0.32499045
3	0x3f80aa8d	1.0052048
4	0x3f49d63d	0.78842527
5	0x3eacd75a	0.3375805
6	0xbefac775	-0.489803
7	0x3f5f3a35	0.8719819
8	0xbe8a17f7	-0.2697141
9	0x3f72fb72	0.94914925
10	0xbf820037	-1.0156316
11	0x3f7b4dba	0.98165476

ian_model.model_ianet.down2.0.conv.5.running_var f4 [12]
0	0x3ec8d94e	0.3922829
1	0x3f65968b	0.89682835
2	0x3dce65e7	0.1007803
3	0x401e2d82	2.4715276
4	0x3f91cf0d	1.1391312
5	0x3e291ff1	0.16516091
6	0x3f809d0c	1.0047927
7	0x3eecff8a	0.4628871
8	0x3dc8f24f	0.09811842
9	0x40666168	3.5996952
10	0x4085150e	4.15882
11	0x3ff3c551	1.9044591

ian_model.model_ianet.down2.0.conv.5.weight f4 [12]
0	0x3f63f254	0.8904164
1	0x3f674ae3	0.90348643
2	0x3fa036d6	1.2516735
3	0x3f829348	1.0201197
4	0x3f7c2386	0.98491704
5	0x3f78367c	0.96958137
6	0x3f8aeec0	1.0854111
7	0x3f70d1ad	0.9406994
8	0x3f82aab1	1.0208341
9	0x3f8fdc20	1.1239052
10	0x3f8d2512	1.1026938
11	0x3f7558ca	0.95838606

ian_model.model_ianet.down2.0.conv.5.bias f4 [12]
0	0xbf0b0e66	-0.54318845
1	0x3eda38d8	0.42621493
2	0x3db4dbac	0.088309616
3	0xbdf647c1	-0.12025405
4	0x3f1ca927	0.61195606
5	0x3dd1e11e	0.10248016
6	0x3c855528	0.016275957
7	0x3ef77fd6	0.4833972
8	0xbed262a4	-0.41090882
9	0xbde46454	-0.111519486
10	0xbe2ea665	-0.17055662
11	0xbec7ab0d	-0.3899769

reorder_token_18 f4 [16]
0	0xbf12d31d	-0.57353383
1	0x3e492e47	0.1964656
2	0x3eed1c77	0.4631078
3	0xbf270942	-0.652485
4	0xbf2b26e3	-0.6685621
5	0x3db19cd5	0.086724915
6	0xbecbf099	-0.39832
7	0xbef77684	-0.48332608
8	0x3e5f5aea	0.21812025
9	0x3ecad1e4	0.3961326
10	0xbfa12325	-1.258885
11	0x3e84a8f5	0.25910154
12	0x00000000	0.0
13	0x00000000	0.0
14	0x00000000	0.0
15	0x00000000	0.0

ian_model.model_ianet.down2.1.conv.5.running_mean f4 [48]
0	0x3bbaacd2	0.0056968713
1	0xbe082950	-0.1329701
2	0x3fbe3642	1.4860308
3	0xbe4a6e4f	-0.19768642
4	0xbed16857	-0.40899917
5	0xbfcd578d	-1.6042343
6	0xbe40feea	-0.18847242
7	0xbe30f3ce	-0.17280504
8	0xbc87b75a	-0.016566921
9	0xbdbed3ba	-0.093177274
10	0xbe444297	-0.19166027
11	0xbcba5c51	-0.022749098
12	0x3e287799	0.16451873
13	0xbf23e5f0	-0.6402273
14	0xbea6a516	-0.32547826
15	0x3e4ea56c	0.20180291
16	0xbd23bb6b	-0.039973658
17	0xbf3dbaa5	-0.7411292
18	0xbf8c06df	-1.0939597
19	0x3ed1df91	0.4099088
20	0xbecaa801	-0.39581302
21	0x3f2ef52d	0.6834286
22	0xbf94a74a	-1.1613553
23	0xbef3fc88	-0.47653604
24	0xbe4c6e4f	-0.19963954
25	0x3c3762f3	0.011193025
26	0x3e6751fd	0.2258987
27	0xbe33a895	-0.17544778
28	0xbe7aedda	-0.24504796
29	0x3e791730	0.24325252
30	0x3ccf673b	0.025317779
31	0xbef1d28b	-0.47230944
32	0x3f1d9ed3	0.6157047
33	0xbfc04488	-1.5020914
34	0x3b4f00e0	0.0031586215
35	0x3d7ce0c8	0.061737806
36	0xbee45697	-0.44597313
37	0xbe227a1b	-0.15866892
38	0xbf15462a	-0.58310187
39	0xbf5fec70	-0.8747015
40	0xbea427e8	-0.32061696
41	0xbe6a9f28	-0.22912276
42	0x3f842671	1.0324231
43	0xbd722367	-0.059115794
44	0xc0123dbc	-2.285018
45	0x3cde032c	0.027101122
46	0x3c3270d0	0.010891154
47	0x3e5a6e9d	0.21331258

ian_model.model_ianet.down2.1.conv.5.running_var f4 [48]
0	0x3be6f5e0	0.0070483536
1	0x3f333070	0.69995785
2	0x4080b5f0	4.022209
3	0x3ed25806	0.41082782
4	0x3f8a5bb6	1.0809238
5	0x3f256093	0.64600486
6	0x3f2b7e37	0.66989464
7	0x3ef03fe6	0.4692375
8	0x3fbe6c63	1.4876827
9	0x3f102ef2	0.5632163
10	0x3f0532c7	0.52030605
11	0x3efcb0d9	0.49353674
12	0x3f619cdb	0.8812997
13	0x4045f4dc	3.09307
14	0x3ffb8072	1.9648573
15	0x40179dcb	2.369006
16	0x3e9ec22a	0.3100751
17	0x404a3777	3.1596353
18	0x408ca36e	4.39495
19	0x3fca3556	1.5797527
20	0x3ee5a6ab	0.4485372
21	0x3fc4f2b4	1.5386567
22	0x40960d41	4.689118
23	0x3fa1b825	1.2634321
24	0x3f2b0aa0	0.6681309
25	0x3e4cafff	0.19989012
26	0x3f81f41b	1.015262
27	0x3f238405	0.6387332
28	0x3fb3bdcc	1.4042296
29	0x403fc373	2.9963043
30	0x3f1b06ea	0.60557425
31	0x3fed0cb3	1.85195
32	0x400309e2	2.0474782
33	0x3feaccf8	1.8343801
34	0x3e7760ee	0.2415807
35	0x3e91c325	0.28469196
36	0x401ef401	2.4836428
37	0x3ee47a6a	0.44624645
38	0x3f8d123a	1.1021187
39	0x3f2edf8a	0.68309844
40	0x3f57690c	0.84144664
41	0x3f917bd9	1.136592
42	0x3f8e1771	1.1100904
43	0x3eab298c	0.33430135
44	0x40303f1e	2.7538524
45	0x3f934bd5	1.1507517
46	0x3e095a54	0.13413364
47	0x3fa135a5	1.2594496

ian_model.model_ianet.down2.1.conv.5.weight f4 [48]
0	0x3f61aca4	0.88154054
1	0x3f98b848	1.1931238
2	0x3f6d7db9	0.9276996
3	0x3f82ec83	1.0228428
4	0x3f8d56ee	1.1042154
5	0x3f878ac3	1.0589222
6	0x3f742e73	0.95383376
7	0x3f12cfb1	0.5734816
8	0x3f52b987	0.8231434
9	0x3f942954	1.1575112
10	0x3f88ecf0	1.0697308
11	0x3f764bf2	0.96209633
12	0x3f857407	1.0426034
13	0x3edf46a5	0.43608585
14	0x3f575ef3	0.84129256
15	0x3f7ddbb7	0.99163383
16	0x3f60ec77	0.87860817
17	0x3f8b3048	1.0874109
18	0x3f85c49c	1.0450625
19	0x3f6b1b13	0.91838187
20	0x3f8b5a03	1.0886844
21	0x3f8d92a3	1.1060375
22	0x3f9ce76c	1.2258124
23	0x3f8b5216	1.0884426
24	0x3f8bb159	1.0913497
25	0x3f851b22	1.0398905
26	0x3f7807dd	0.96887
27	0x3f9af87c	1.2107081
28	0x3f96138f	1.1724719
29	0x3f859f59	1.0439254
30	0x3f898cfd	1.0746151
31	0x3f8f0952	1.1174719
32	0x3f934160	1.1504326
33	0x3f80d173	1.0063919
34	0x3f8143bb	1.0098795
35	0x3f759426	0.9592918
36	0x3f83314b	1.0249418
37	0x3f8c5fe9	1.096677
38	0x3f793e89	0.97361046
39	0x3f5ec96e	0.8702611
40	0x3f7b0309	0.98051506
41	0x3f82cd99	1.0218993
42	0x3f889a1a	1.0672028
43	0x3fb096f3	1.3796066
44	0x3faedafa	1.3660576
45	0x3f8db45a	1.1070664
46	0x3f8c269a	1.094928
47	0x3f6dcd83	0.9289171

ian_model.model_ianet.down2.1.conv.5.bias f4 [48]
0	0xbf17122c	-0.59012103
1	0x3f24bf57	0.6435446
2	0x3e149fd7	0.14514099
3	0xbd6f46f2	-0.058417268
4	0x3f34c57b	0.7061383
5	0x3e4d135a	0.20026913
6	0xbe1cff4b	-0.15331762
7	0x3f3673cd	0.7127045
8	0x3d764dcf	0.060132798
9	0xbe2aab71	-0.16666962
10	0xbeb32512	-0.3498922
11	0xbe264393	-0.16236715
12	0xbeb732ff	-0.35781094
13	0xbe833210	-0.25624132
14	0xbe8f34a7	-0.27969858
15	0xbd8f3802	-0.069931045
16	0xbf316927	-0.69301075
17	0x3ea6fd31	0.32615045
18	0x3e045e32	0.12926558
19	0xbf0a5d12	-0.54048264
20	0xbdd29853	-0.1028296
21	0x3e923123	0.28553113
22	0xbe2136e5	-0.15743597
23	0x3d9daf9c	0.076995105
24	0x3c968182	0.018372301
25	0xbd9c28ee	-0.07624994
26	0xbe6c4c64	-0.23076016
27	0xbd6b630a	-0.057467498
28	0xbe09e322	-0.1346555
29	0xbd314aa1	-0.043284062
30	0x3db32a11	0.08748258
31	0x3edd9d92	0.4328428
32	0x3efe6424	0.49685776
33	0xbe99aa22	-0.30012614
34	0x3edd7403	0.43252572
35	0x3dbf2361	0.0933292
36	0x3e71a5b7	0.23598371
37	0xbf0798c3	-0.5296747
38	0x3f2451b0	0.64187145
39	0xbddf7775	-0.109114565
40	0xbdb29c6a	-0.0872124
41	0xbe170baa	-0.14750543
42	0x3e877579	0.26456812
43	0x3ebe7f19	0.37206343
44	0xbe0a9719	-0.13534202
45	0xbdc83346	-0.09775405
46	0x3db142ae	0.08655296
47	0x3c9819b5	0.018566946

reorder_token_157 f4 [16]
0	0x3f04c2ec	0.5185993
1	0xbf4b59d5	-0.7943395
2	0x3eb4d897	0.35321495
3	0xbe992ca8	-0.29916883
4	0x3ee20699	0.4414566
5	0x3da6b1c6	0.08139376
6	0xbee50620	-0.44731236
7	0x3db490d1	0.08816684
8	0xbc9c6167	-0.019089414
9	0x3e9fa31d	0.31179133
10	0x3f18749b	0.59552926
11	0xbf32cab3	-0.69840544
12	0x00000000	0.0
13	0x00000000	0.0
14	0x00000000	0.0
15	0x00000000	0.0

ian_model.model_ianet.down2.2.conv.5.running_mean f4 [48]
0	0xbda8c548	-0.082407534
1	0xbd339341	-0.043841604
2	0x3da3846f	0.07984244
3	0xbf0e8d18	-0.5568404
4	0xbe850f40	-0.25988197
5	0xbd4bc070	-0.04974407
6	0xbf3c69ca	-0.7359892
7	0xbef07a8b	-0.46968493
8	0xbf3f55b2	-0.74740136
9	0xbebc3130	-0.36756277
10	0x3d161d06	0.036648773
11	0xbe150eb2	-0.14556387
12	0x3eba5497	0.36392662
13	0x3f2674f7	0.65022224
14	0xbf253192	-0.64528763
15	0xbee00dba	-0.43760473
16	0xbe9b066a	-0.3027833
17	0x3e8498c3	0.25897798
18	0x3d88a4db	0.06672069
19	0xbe3ad1df	-0.18244122
20	0xbe2a779e	-0.16647193
21	0x3e1772fd	0.14789958
22	0x3eaa20ad	0.33228055
23	0xbdbd7f82	-0.09252836
24	0x3daef550	0.085428834
25	0xbd8ddec5	-0.069272555
26	0x3d4c06bb	0.049811106
27	0x3e99541f	0.29946992
28	0xbf94d60f	-1.1627825
29	0xbe35f2ca	-0.17768398
30	0x3c96eaed	0.018422568
31	0x3f86d6e6	1.0534332
32	0xbf0067b1	-0.5015822
33	0xbed8eff2	-0.42370564
34	0xbeb366da	-0.35039407
35	0x3e2d4d70	0.16924071
36	0x3eab864e	0.33500904
37	0x3d2acaaf	0.0416972
38	0xbf24a0ad	-0.6430767
39	0x3f65b314	0.89726377
40	0xbfa4a69c	-1.2863345
41	0xc0306f45	-2.7567914
42	0x3f400007	0.7500004
43	0x3d896992	0.06709589
44	0x3fde48b3	1.7365936
45	0xbea71674	-0.32634318
46	0xbe803924	-0.25043595
47	0x3f042a9d	0.5162752

ian_model.model_ianet.down2.2.conv.5.running_var f4 [48]
0	0x3e89318d	0.26795617
1	0x3e9bdb4f	0.30440757
2	0x3f07652e	0.5288876
3	0x3fd110a4	1.6333203
4	0x3e8d94dc	0.27652633
5	0x3eaf5661	0.3424559
6	0x40816872	4.0439997
7	0x3ea1ab97	0.31576225
8	0x402340de	2.5508342
9	0x3f943920	1.1579933
10	0x3f04570e	0.51695335
11	0x3f150022	0.5820333
12	0x3f186785	0.5953296
13	0x4076b719	3.8549254
14	0x3f517d3e	0.8183173
15	0x4000d6e9	2.013117
16	0x3efc837a	0.4931906
17	0x3f09bcfd	0.53804
18	0x3f10fbad	0.56634027
19	0x3ed7dd5e	0.42161077
20	0x3f8867e4	1.0656705
21	0x3f3b19e4	0.7308638
22	0x404b7dad	3.1795456
23	0x3e82b511	0.25528768
24	0x3f2eceb3	0.6828415
25	0x3dc88081	0.09790135
26	0x3f38ef01	0.7223969
27	0x3f841a3d	1.0320507
28	0x3fbc90b6	1.4731662
29	0x3f3ca703	0.7369234
30	0x3e304e69	0.17217411
31	0x40a1f857	5.061565
32	0x3f8dbe24	1.1073651
33	0x3f8a16e6	1.0788238
34	0x3c75378b	0.014966856
35	0x3f1f768f	0.6229028
36	0x3f3bc92c	0.7335384
37	0x3f5f3082	0.8718339
38	0x3f9bc1bc	1.2168498
39	0x4025aa70	2.5885277
40	0x3fc8a070	1.5673962
41	0x3f7b0de0	0.98068047
42	0x404372b9	3.053877
43	0x3ebb01d9	0.36524847
44	0x409ebcfe	4.9605703
45	0x40164f49	2.3485892
46	0x3f23aa1f	0.6393146
47	0x4084e6bc	4.153166

ian_model.model_ianet.down2.2.conv.5.weight f4 [48]
0	0x3f86c378	1.0528402
1	0x3f63eb7d	0.890312
2	0x3f937962	1.1521418
3	0x3f71bbdc	0.94427276
4	0x3f54b1c5	0.83083755
5	0x3f665892	0.899789
6	0x3fa49293	1.2857231
7	0x3f90635a	1.128032
8	0x3f655952	0.89589417
9	0x3f8d395a	1.1033127
10	0x3f55e5e5	0.83553916
11	0x3f335ef9	0.7006679
12	0x3f826050	1.0185642
13	0x3f9ddbef	1.2332743
14	0x3f85ce9d	1.0453678
15	0x3f6b78d8	0.9198127
16	0x3f87c091	1.0605642
17	0x3f897c0a	1.0740979
18	0x3f8869ba	1.0657265
19	0x3f931321	1.1490213
20	0x3f741e2c	0.9535854
21	0x3f86550c	1.0494704
22	0x3f71a5ca	0.943936
23	0x3f8cdd69	1.1005069
24	0x3f566492	0.8374721
25	0x3f6d9c4c	0.92816615
26	0x3f7d6174	0.98976827
27	0x3f5b94ef	0.8577413
28	0x3f855ab1	1.0418302
29	0x3f8b0e75	1.0863787
30	0x3f7db105	0.99098235
31	0x3f7b5601	0.98178107
32	0x3f9321df	1.1494712
33	0x3f8e10a8	1.1098833
34	0x3fb2dc7c	1.3973536
35	0x3f950f64	1.1645322
36	0x3f67ceb9	0.9054981
37	0x3f8ded7f	1.1088103
38	0x3f8fb92f	1.1228389
39	0x3f7ac446	0.9795574
40	0x3fa79a32	1.3093932
41	0x3f7e0600	0.99227905
42	0x3f810274	1.0078874
43	0x3f869f7b	1.051742
44	0x3f9255c2	1.1432421
45	0x3f8b26ec	1.0871253
46	0x3f8acef1	1.0844404
47	0x3fa463be	1.2842939

ian_model.model_ianet.down2.2.conv.5.bias f4 [48]
0	0x3d84c911	0.06483663
1	0xbe634011	-0.22192408
2	0x3e6cc6dd	0.23122735
3	0xbd38ed69	-0.045148287
4	0xbe38e404	-0.18055731
5	0xbe600a55	-0.21878941
6	0x3e4695ec	0.19393128
7	0x3dee8531	0.11646498
8	0xbe8c5d84	-0.27415097
9	0x3ef928df	0.48663995
10	0x3ed40fa8	0.41418195
11	0xbe331e77	-0.1749209
12	0x3e85962f	0.26091143
13	0xbd9f7391	-0.077857144
14	0x3d2304ea	0.03979961
15	0x3dd7ee6c	0.10543522
16	0x3d69f578	0.057118863
17	0xbd809b1b	-0.06279584
18	0xbe5ea150	-0.21741223
19	0x3e8014f5	0.2501599
20	0x3e10ce71	0.14141251
21	0x3d28849e	0.0411421
22	0xbe81f4e6	-0.25382155
23	0x3e741a4d	0.23838158
24	0xbeab7c14	-0.33493102
25	0xbf2b0e62	-0.6681882
26	0xbe431b56	-0.19053397
27	0xbb52127a	-0.003205447
28	0x3eb71d02	0.3576432
29	0xbd5ee0a7	-0.054413464
30	0x3f4fddc5	0.8119777
31	0xbc8b8923	-0.017033165
32	0xbdcd0c0e	-0.10012065
33	0x3de9084e	0.11378537
34	0xbef05670	-0.46940947
35	0x3d929896	0.0715801
36	0xbf188268	-0.59573984
37	0xbe037c85	-0.12840469
38	0x3ecf40e8	0.40479207
39	0xbe9c59e7	-0.3053734
40	0xbdce8703	-0.10084345
41	0xbe0b048f	-0.13575958
42	0x3e09444f	0.13404964
43	0xbecd911e	-0.40149778
44	0x3e677592	0.22603443
45	0xbe906a46	-0.2820608
46	0x3e6eaf8e	0.23309156
47	0x38e4ff7b	0.00010919474

reorder_token_266 f4 [8]
0	0x3f182381	0.59429175
1	0xbeb8e4dc	-0.36112106
2	0x3efdea23	0.49592695
3	0x00000000	0.0
4	0x00000000	0.0
5	0x00000000	0.0
6	0x00000000	0.0
7	0x00000000	0.0

ian_model.model_ianet.down3.0.conv.5.running_mean f4 [48]
0	0x3f11b44d	0.5691574
1	0x3e94d8f0	0.2907176
2	0x3f5a7e66	0.8534912
3	0xbe2158d0	-0.15756536
4	0xbfe7fbd8	-1.8123732
5	0x3e1fd809	0.15609755
6	0x3ef8dff4	0.48608363
7	0x3eaaa8be	0.33331865
8	0xbe107489	-0.14106955
9	0x3e70126d	0.23444529
10	0xbd0395ab	-0.032125156
11	0x3f8535ad	1.0407006
12	0xbe364d0e	-0.17802832
13	0x3f9fba0d	1.2478653
14	0xbfadc3e5	-1.3575407
15	0x3d74f879	0.059807274
16	0x3e76d48d	0.24104519
17	0x3f0fed02	0.5622102
18	0x3f022c6c	0.5084903
19	0x3f0d9d31	0.5531798
20	0x3f170343	0.5898935
21	0x3f6255b9	0.8841205
22	0x3f8cfecd	1.1015259
23	0x3f297197	0.6618895
24	0x3f286647	0.6578106
25	0x3f4442af	0.7666425
26	0x3fa372fc	1.2769465
27	0x3ee54edb	0.44786724
28	0x3db25107	0.08706861
29	0x3f20f22a	0.62869513
30	0x3f57b878	0.8426585
31	0x3f88bf2f	1.0683345
32	0x3e304655	0.1721433
33	0x3ea165eb	0.3152307
34	0x3f6de20d	0.9292305
35	0x3edfd44f	0.43716666
36	0x3f4044a3	0.7510473
37	0x3fe7d5ce	1.8112123
38	0x3e8fb19e	0.280652
39	0x3ea5eb75	0.32406202
40	0x3f5d2b02	0.8639375
41	0x3f00590f	0.5013589
42	0x3f1845e7	0.5948166
43	0x3e42fd4f	0.19041942
44	0x3f64671c	0.8921983
45	0x3ebfd3b0	0.37466192
46	0x3f4bcb59	0.7960716
47	0x3f0a8788	0.54113054

ian_model.model_ianet.down3.0.conv.5.running_var f4 [48]
0	0x3e815ea0	0.25267506
1	0x3f129b7e	0.5726851
2	0x3ed1dfef	0.4099116
3	0x3eea488c	0.45758474
4	0x411f6a3b	9.963435
5	0x3e421a22	0.18955281
6	0x3f06face	0.5272645
7	0x3e2f141b	0.17097513
8	0x3e4ed66a	0.2019898
9	0x3f50b260	0.8152218
10	0x40647cc0	3.5701141
11	0x3f8740cc	1.056665
12	0x40132d87	2.2996538
13	0x4004b28f	2.0733984
14	0x3fdd4eb4	1.7289643
15	0x3e62821b	0.22119944
16	0x3e7950db	0.2434725
17	0x3fa6882a	1.3010304
18	0x3f970800	1.1799316
19	0x3e6f8599	0.23390807
20	0x3ff9829e	1.9492986
21	0x3fb92334	1.4463868
22	0x40582f57	3.3778894
23	0x3f534334	0.8252442
24	0x3f1b3fbc	0.60644126
25	0x3e97ba38	0.2963426
26	0x40a5d964	5.182787
27	0x3f115a22	0.56778157
28	0x3fb2f731	1.3981687
29	0x3f18b09d	0.5964449
30	0x3f831463	1.0240597
31	0x3f39e4f9	0.7261501
32	0x3e1eee92	0.15520695
33	0x3e69abe9	0.22819485
34	0x3f5f4e04	0.8722842
35	0x3f5a542e	0.852847
36	0x4002651e	2.0374217
37	0x41162305	9.38355
38	0x3de36233	0.111027144
39	0x3e7e4af2	0.24833277
40	0x3fa7a027	1.309575
41	0x3f0e2de7	0.5553879
42	0x3f4af94b	0.7928664
43	0x3ea086a7	0.31352732
44	0x3edd45ff	0.43217465
45	0x3ed12287	0.40846655
46	0x3fdf9167	1.7466248
47	0x3f8a4fc4	1.0805593

ian_model.model_ianet.down3.0.conv.5.weight f4 [48]
0	0x3f69e56b	0.9136569
1	0x3f3d3896	0.7391447
2	0x3f4c9924	0.79921174
3	0x3f6fb890	0.93640995
4	0x3f9bde17	1.2177151
5	0x3f33efad	0.7028759
6	0x3f8dd938	1.1081915
7	0x3fa14832	1.2600157
8	0x3f90da74	1.1316667
9	0x3f622262	0.88333714
10	0x3fa5bd55	1.2948405
11	0x3f901347	1.1255883
12	0x3fae278f	1.3605822
13	0x3f826f39	1.0190192
14	0x3f998818	1.1994658
15	0x3f907d0c	1.1288161
16	0x3f756c9e	0.9586886
17	0x3f6e5da6	0.93111646
18	0x3f873095	1.0561701
19	0x3f8e798b	1.1130842
20	0x3f60cf0b	0.8781592
21	0x3f6cc647	0.9249005
22	0x3f5becbb	0.859081
23	0x3f8c6709	1.0968944
24	0x3f892fcc	1.0717711
25	0x3f59f7d3	0.85143775
26	0x3f8eefde	1.1166952
27	0x3f8b903f	1.0903395
28	0x3f8fb4b2	1.1227019
29	0x3f58caca	0.8468443
30	0x3f7f4f06	0.99729955
31	0x3f5898eb	0.84608334
32	0x3fbc4cc1	1.4710923
33	0x3f6b54f5	0.9192651
34	0x3f8765e8	1.0577974
35	0x3f89e69d	1.0773503
36	0x3f876e0a	1.0580456
37	0x3f97efcc	1.1870055
38	0x3f8c7d13	1.097567
39	0x3f889f85	1.0673681
40	0x3f8f90b9	1.1216041
41	0x3f50ff29	0.81639344
42	0x3f80a30c	1.0049758
43	0x3f86356c	1.0485053
44	0x3f839bfb	1.0281976
45	0x3f819326	1.0123031
46	0x3f6044c3	0.8760492
47	0x3f49d972	0.7884742

ian_model.model_ianet.down3.0.conv.5.bias f4 [48]
0	0xbeb86bb8	-0.36019683
1	0x3bc3517d	0.005960642
2	0x3f1f5774	0.6224282
3	0x3e3ede11	0.18639399
4	0x3cdf2562	0.027239505
5	0x3f1049d7	0.5636267
6	0xbe66b904	-0.22531515
7	0x3e741912	0.23837689
8	0xbeab5cff	-0.33469388
9	0xbd7173c3	-0.05894829
10	0xbcf043b0	-0.02932915
11	0x3ee1f502	0.4413224
12	0x3d2060f7	0.039154973
13	0xbeebce0c	-0.4605564
14	0x3daa6a38	0.08321041
15	0xbe2a78b4	-0.16647607
16	0xbebe16b4	-0.37126696
17	0xbf1543a8	-0.5830636
18	0xbebf3fef	-0.37353465
19	0xbda4ff39	-0.08056492
20	0xbef5b10f	-0.47986647
21	0xbebae8a2	-0.3650561
22	0xbe81cd29	-0.25351837
23	0xbe40c270	-0.18824172
24	0xbef7d43b	-0.48404106
25	0x3d0ed5f8	0.034872025
26	0xbeea3bc2	-0.45748717
27	0x3e41bf02	0.1892052
28	0xbdbf7199	-0.09347839
29	0x3ca6aef5	0.020347098
30	0xbd05426a	-0.03253404
31	0x3ec2a06a	0.3801301
32	0xbed6c63e	-0.41948122
33	0xbe524336	-0.20533451
34	0xbe3eca96	-0.18631968
35	0xbee24802	-0.44195563
36	0xbf185d75	-0.59517604
37	0x3ea3fff4	0.32031214
38	0xbcbcd13e	-0.023048993
39	0xbd0d4340	-0.034487963
40	0x3d11bd9f	0.035581227
41	0xbf320037	-0.6953158
42	0xbeb4d2f3	-0.3531719
43	0x3c21f475	0.009884943
44	0x3f3b1055	0.73071796
45	0xbe02bdf5	-0.12767775
46	0xba1f6b0b	-0.00060813193
47	0xbecbec77	-0.39828846

reorder_token_270 f4 [8, 3, 1, 1]
0	0xbe524f51	-0.2053807
1	0xbe5ff48c	-0.21870631
2	0xbf5545c6	-0.8330959
3	0x00000000	0.0
4	0x00000000	0.0
5	0x00000000	0.0
6	0x00000000	0.0
7	0x00000000	0.0
8	0xbe2fb638	-0.17159355
9	0xbf2ebfb2	-0.68261254
10	0xbf2eab31	-0.6822997
11	0x00000000	0.0
12	0x00000000	0.0
13	0x00000000	0.0
14	0x00000000	0.0
15	0x00000000	0.0
16	0xbf010a4c	-0.50406337
17	0x3ed5cdf9	0.41758707
18	0x3ebe7b1b	0.37203297
19	0x00000000	0.0
20	0x00000000	0.0
21	0x00000000	0.0
22	0x00000000	0.0
23	0x00000000	0.0

ian_model.model_ianet.down3.1.conv.5.running_mean f4 [48]
0	0xbee619fe	-0.44941705
1	0xbeab2f29	-0.33434418
2	0xbfd649f6	-1.6741321
3	0xbce1375d	-0.02749222
4	0x3be21c53	0.006900349
5	0x3ef362b6	0.47536248
6	0x3e9e3176	0.3089711
7	0x3e026f17	0.1273769
8	0xbfa3aa70	-1.2786388
9	0xbecaddb6	-0.39622277
10	0xbe6ad95a	-0.22934476
11	0xbe921ca9	-0.2853749
12	0x3ede1e43	0.43382463
13	0x3e13f7aa	0.14449945
14	0xbf14468a	-0.57920134
15	0xbedf3dea	-0.43601924
16	0xbd0aac96	-0.033855997
17	0xbe3fa56a	-0.18715444
18	0xbe21bf5f	-0.15795659
19	0xbdfb7297	-0.12277716
20	0xbee9338e	-0.45547146
21	0xbed9588c	-0.42450368
22	0xbefa0e83	-0.48839197
23	0xbf422a27	-0.7584557
24	0x3ed7cb52	0.4214731
25	0x3f5382dd	0.82621557
26	0xbe186376	-0.14881691
27	0x3df6485a	0.12025519
28	0x3d26fc58	0.040767998
29	0xbff22ccd	-1.8919922
30	0xbde710a6	-0.11282472
31	0x3f431392	0.76201737
32	0xbcb6958c	-0.022288106
33	0xbdbb4b21	-0.09145189
34	0xbe44a07e	-0.19201848
35	0xbe0d38ce	-0.137912
36	0xbf0bb0b4	-0.545665
37	0x3edf62e6	0.4363014
38	0xbd344c43	-0.04401804
39	0x3f97521e	1.1821935
40	0xbe352eb3	-0.17693596
41	0xbc372ecf	-0.011180594
42	0x3db3d642	0.08781101
43	0xbe45f1b1	-0.19330479
44	0x3e407593	0.18794851
45	0xbe4b45ca	-0.19850841
46	0xbcc13067	-0.02358265
47	0xbc3e523b	-0.011616285
